MNIST/20:39:23:Apr-12-23/network.pt (torch, 430575 bytes, 6 tensors)

blocks.0.synapse.weight f4 [16, 1, 3, 3, 1]
00000000: 009c f9bb 09a4 b5be 6c02 4f3e 3f14 2e3e
00000010: 1f00 e73d befa c83c 1944 8ebd 6df4 373e
00000020: 5bfd 77be 1700 e4be 997d 40be ec46 67be
00000030: f021 223e 3f2f cfbe af73 273d ffff 1a3d
00000040: c6f5 0cbe 6c75 063e 8894 ff3d 1a3d 62bd
00000050: da11 0cbe 8c5c b4ba ca26 12be f985 ea3c
00000060: 80ec e53d e6f4 de3c bebe 113e aea7 5ebd
00000070: 42c2 253d 80b6 b03d 9fe3 813b 52c2 29be
00000080: f1d8 cf3a 1759 23be 63fd f3bd ff0c 1a3e
00000090: ac46 ac3c 45f9 b93d a9e3 093e 452e 1fbe
000000a0: 09fa 98be ad32 c13d 6db0 113e dbac dd3c
000000b0: a2a9 cf3d 42e9 99be aa08 9cbb e9c7 8e3e
000000c0: 41df 00be 2f3a 953e dc17 91be 0de0 5ebe
000000d0: 5ea8 87be 3f34 a43e 189d 973d f19a a7bd
000000e0: 95e2 eebd a7ae 8ebe bd25 dcbe fa50 163e
000000f0: ba92 a7be 4ca3 363c ecf4 e8be 7cc0 61be
00000100: e1b7 95bc f87e 1c3e 9188 f6bc 5e7f 213e
00000110: 73be 123e e780 be3d cc81 173e fb9f 1ebe
00000120: de4b cabe 6163 b6be 96d4 1d3e 13c0 05bc
00000130: 112d 3b3e 8a7e 6bbe f6e6 703e eaf1 c03d
00000140: b105 563d 5614 0bbe 4112 c8bd 8e99 72be
00000150: 0a50 8f3e aa39 5a3c b5ec 9b3e fbcd 6cbe
00000160: 237d 85be 7555 923e c8d6 a2be 8696 8dbc
00000170: d3b4 5b3e 4bb5 743e c5b8 5b3e f2f9 99be
00000180: f2ca 5fbe 1480 a5bd 8ad5 4d3e 118b 3b3e
00000190: 695a a1bd db8f 4cbe 3c21 acbe 24c8 c1bd
000001a0: 25a4 a73e 94e1 733e 71d9 fdbd 9263 c2bd
000001b0: 3be7 74be 38a7 e0bc fdbb 14be d2a3 3cbd
000001c0: 636b adbd 606e 3b3e 4c7e 803d 4911 26bc
000001d0: df8b df3d 6def 9cbd 06c1 a23e 4c0d f1bd
000001e0: c85b f93d 2285 0dbe 3cb4 4d3e 0699 d0be
000001f0: df7a c9bc 08c6 b9be 4d5f 34bd fe49 ab3c
00000200: a457 873d 1a69 2f3e b489 333e 1a29 a8be
00000210: ec9e c93d ebf5 903e facc 93be f6ca 1b3e
00000220: 65b4 abbe bcf9 01bf 4607 13bc 7a17 05bd
00000230: bfeb c1be d354 ff3d c425 a7bd 1221 22be
-0.0076174736 -0.3547671 0.20215768 0.16999911 0.1127932 0.024533626 -0.06946582 0.17964335
-0.24217741 -0.4453132 -0.18797912 -0.22585648 0.15833259 -0.40465733 0.04088181 0.037841793
-0.1376563 0.1313073 0.12479502 -0.055234052 -0.13678685 -0.0013760491 -0.1427261 0.028628336
0.112267494 0.027216386 0.14232919 -0.05435913 0.04046846 0.08628559 0.003963902 -0.16578034
0.00158575 -0.15951954 -0.11913564 0.1504402 0.021029793 0.090807475 0.13465752 -0.15544994
-0.29878262 0.09433494 0.14227457 0.027059963 0.10139777 -0.30060774 -0.004761775 0.27886894
-0.12585165 0.29145953 -0.28338516 -0.21765156 -0.2649564 0.3207111 0.0740301 -0.081838496
-0.11664311 -0.27867624 -0.42997542 0.14679328 -0.3272913 0.011147331 -0.4549936 -0.22046083
-0.018276157 0.1528281 -0.030094417 0.15771243 0.14330463 0.0930193 0.14795607 -0.15490715
-0.39511007 -0.35622695 0.15413126 -0.00816347 0.1827891 -0.2299749 0.23525605 0.094211414
0.05225152 -0.13581976 -0.09769107 -0.23691389 0.27990752 0.013319412 0.3045403 -0.2312545
-0.26072034 0.28580824 -0.3180449 -0.01728369 0.21455698 0.23897283 0.21457203 -0.30073506
-0.21854761 -0.080810696 0.2010099 0.18314768 -0.078785725 -0.19976752 -0.33619106 -0.09462002
0.3274242 0.2381652 -0.12394989 -0.09491648 -0.23916332 -0.027423486 -0.14524837 -0.04605467
-0.08467748 0.18303823 0.06274089 -0.010135957 0.1091535 -0.07662854 0.3178789 -0.11770114
0.12175709 -0.13820317 0.20088285 -0.40741748 -0.024594722 -0.36283898 -0.0440362 0.020909306
0.06608513 0.17129937 0.17532998 -0.32843858 0.09844765 0.2831262 -0.28867322 0.15214142
-0.33536068 -0.5077169 -0.008973902 -0.032493092 -0.37875172 0.12467351 -0.081615 -0.15832928

blocks.1.synapse.weight f4 [16, 16, 2, 2, 1]
00000000: 4a5b a43d e119 a23d 4c32 4a3c 68c8 04bd
00000010: b05c e9bd 0b7a 9cbd 4128 f53d 867d 233e
00000020: 7f5b 9c3d 504f 6e3c 0c2a 8a3d d389 b5bd
00000030: 66c8 123d 91e7 f93c f494 a0bd 37a7 2c3c
00000040: 5cfc 03be 5bd7 e9bd ec2e e73d 70f0 bfbc
00000050: d136 1abd f1df b53d c875 643d c0ed ad3c
00000060: 3475 cb3d 9796 dc3c d8b7 86bd 7024 b83d
00000070: 40dc d1bd 955c cabd 7d98 aa3d 8d55 febc
00000080: 28f5 2c3e c021 f13d 9c26 053e 1697 e3bb
00000090: 4a13 c93d 4f22 853d 9c53 323d 6705 7fbd
000000a0: 6a17 a23d 606f c13d 3e17 d3bd d0ac 2c3d
000000b0: f65d 50bd 6bfb e83d f296 f33d 398a 85ba
000000c0: ef79 d63d 701d 9d3d 323f 843d ff04 f23b
000000d0: 2af3 df3c ef8e 8fbc a7b9 243e fded babd
000000e0: 9320 aabd c1c8 973d 0a7d 9d3d e32e 993d
000000f0: 028c 13be 951d 703d 6fcf 1ebd 17d9 f03d
00000100: 7dbc 893d f989 0cbc 0a94 843c 9f33 5836
00000110: 69dd 1a3e 319b 60bb 9347 55bd 6394 e3bd
00000120: e348 9cbd fc20 49bd 40c9 6ebd dbe2 04be
00000130: 9df4 1fbe f5cf 13be d8e1 ebbd bbc8 02be
00000140: 2e86 e23c 117b cb3d 48ee 01bd d3e2 a5bd
00000150: da6b ad3d 7028 f33c 86f8 f3bc 630b bf3d
00000160: 057d dd3b ae58 0a3d 1a87 d4bc efb5 323d
00000170: bc4c 953d 2c45 3ebd 921e bb3d 5940 46bd
00000180: 252b 313d e01e 2f3d a76a e93d 400c 5b3c
00000190: 73df 183e 7888 0b3e c36f b63d 4c47 963d
000001a0: e0ce 90bd 289f 733d e71a 75bd 50a4 c83d
000001b0: c4ab 303d f25d b7bc 7eb4 883d a3cc 033d
000001c0: 2781 e6bd bbf8 de3d 893b 94ba a4ec 81bd
000001d0: 2ccd 1bbd bbad 99bc 58e4 4e3d 321a c9bd
000001e0: 8fed d13d d02c dabd ea88 d83c bbdf d33d
000001f0: 1518 eebd cc1f a83c 662c c7bd 3730 593c
00000200: cfe8 fd3a 9bcd 513c a626 0d3d 3e78 ad3d
00000210: 0e2e c8bd eeb3 20be cfa5 28be 7647 843c
00000220: 28fa 633c e155 373d a824 7fbd b7d3 acbc
00000230: 0bac eebb e641 5dbd 4605 d3bd 108b 3cbb
00000240: 05a6 babd a539 1b3e 7dce fb3d abce 95bd
00000250: f72e 27bd 1c20 d9bb 7e30 f73c 5f0b e4bd
00000260: 4372 343c b76e d53d b0e7 e0bd 293c ed3d
00000270: 9d2d fa3d 04e1 b9bd 6fd8 073d e02f fe3d
00000280: 138b 0ebe 0d18 eebd ae98 d4bd b4ff bbbd
00000290: 9ba2 983d 10af 013d 8f96 513d e5c9 003c
000002a0: 3c93 a6bb 2c25 a23d e73c 113d ccdc b03c
000002b0: 396c b7bb f8e8 1bbd 62bc 0dbc 2cfc 6f3c
000002c0: 0031 0d3d 403c c93c 89a5 8a3d 2939 b53d
000002d0: f781 24bd 59bd 29be 1227 503d 838a b0bd
000002e0: 2f24 e23c 77c5 2a3c 946c de3d 5f3a 863d
000002f0: 8fdf 193c 0f7e 59bd 6fa2 93bc 20de c0bd
00000300: bafa 70bb 851c fbbd 0028 3d3d 798a 6b3d
00000310: 2d3a bc3d d578 41bd 1f93 c8b9 3021 aabd
00000320: 92f5 d1bd 8b3d 733c 50e6 47bd 2f9c c6bd
00000330: b01b 5dbd 9a04 f3ba 64aa ad3d 0859 0f3e
00000340: 00e2 763d 1117 01bc 089c 653d 97dd 9ebd
00000350: 13e8 083e 1ada 55bd 18ef eabc de79 55bd
00000360: d2f6 7a3d a3f7 a6bd cc7f db3d c012 993c
00000370: 6567 a1bc afbc b13c 3697 b7bd 7bb6 d23c
00000380: 7bc1 b9bc e4b9 14be bbea 1c3e 9859 b63d
00000390: 5d7c c63d a413 343d 673c 8f3d 6a59 d33d
000003a0: 2755 51bc 666a 893d 4a35 453d b5c4 a23d
000003b0: 6f4d f53d 4a74 94bc 4cf9 d5bc 31b6 783b
000003c0: 514a 09be 353a 1bbc 149f 71bc c8e8 16be
000003d0: 925b 0b3d 95e3 2c3d d962 9e3d a5ed b2bb
000003e0: a4f8 1f3d a071 6dbc 9cda cb3d dc24 e7bc
000003f0: 6181 1d3d f634 2fbd be84 18bc 6fb5 56bd
0.080252245 0.07915092 0.012341093 -0.032417685 -0.11394632 -0.07640465 0.119705684 0.15965852
0.07634639 0.014545277 0.06746301 -0.088641785 0.035835646 0.030505927 -0.078409106 0.010537914
-0.12889236 -0.11418029 0.112882465 -0.02343008 -0.037649933 0.08880604 0.055776387 0.021231532
0.09934464 0.026927276 -0.06578034 0.08991325 -0.102470875 -0.0988094 0.08329866 -0.031046653
0.16890395 0.117740154 0.1300301 -0.006945501 0.09818132 0.065006845 0.043536767 -0.06226101
0.07914622 0.09445071 -0.103071675 0.042156994 -0.050870858 0.11376079 0.11894025 -0.0010188288
0.10472476 0.076716304 0.06457366 0.0073858495 0.02733763 -0.01752421 0.16086446 -0.09127424
-0.08306994 0.07411338 0.07689865 0.07479646 -0.14408877 0.05862196 -0.038772043 0.117601566
0.067254044 -0.008577817 0.016183872 3.2216556e-06 0.15123524 -0.0034272189 -0.05207021 -0.11112287
-0.076310895 -0.049103722 -0.058297396 -0.12977163 -0.15620656 -0.14434798 -0.11517686 -0.12771885
0.027651872 0.099355824 -0.031721383 -0.08099904 0.08467837 0.029682368 -0.029781591 0.09328344
0.0067592883 0.033775978 -0.025943328 0.043630537 0.072900265 -0.046452686 0.0913669 -0.04840121
0.043254036 0.042754054 0.113972954 0.01336962 0.14928989 0.13626277 0.089080356 0.073378175
-0.07070708 0.059477955 -0.05984011 0.09796965 0.04313256 -0.022383664 0.06675051 0.03217758
-0.112551026 0.10887285 -0.0011309247 -0.06343964 -0.038037464 -0.018759599 0.050510734 -0.098194495
0.10250389 -0.106530786 0.026432473 0.103454076 -0.11625687 0.020522974 -0.09725265 0.013256124
0.001937175 0.012805368 0.034460686 0.084702 -0.09774409 -0.15693638 -0.16469501 0.016147356
0.013914622 0.044759635 -0.062290817 -0.021097047 -0.0072836927 -0.054017924 -0.1030374 -0.002876941
-0.09113697 0.15158708 0.12295244 -0.073148094 -0.040816274 -0.006626142 0.03017449 -0.11134981
0.01101357 0.10421508 -0.10981691 0.1158374 0.12215731 -0.090761214 0.03316539 0.12411475
-0.1392024 -0.11625681 -0.10380684 -0.09179631 0.074528895 0.031661093 0.051168974 0.007860635
-0.0050834697 0.07917246 0.03545847 0.02158966 -0.005597618 -0.038063973 -0.008650871 0.014647525
0.03447056 0.024564862 0.067698546 0.08848793 -0.040163007 -0.16576137 0.05081851 -0.08620169
0.027605144 0.010423056 0.108605534 0.06554102 0.009391679 -0.053098734 -0.01802179 -0.09417367
-0.0036770538 -0.12261299 0.046180725 0.057505105 0.09190784 -0.047234375 -0.00038256586 -0.08307111
-0.10251917 0.014846216 -0.048803627 -0.096977584 -0.053981483 -0.00185408 0.08479765 0.13998806
0.060274124 -0.007879035 0.056057006 -0.07757109 0.1336978 -0.05220995 -0.028678462 -0.052118175
0.061270542 -0.08152702 0.10717735 0.018685699 -0.019702623 0.021696417 -0.08964388 0.02572178
-0.022675266 -0.14524037 0.15323918 0.089038074 0.09691689 0.043964043 0.06993943 0.10319789
-0.01277665 0.06709747 0.048146524 0.07947675 0.1197766 -0.018121857 -0.02611985 0.0037950391
-0.13407256 -0.009474327 -0.0147474 -0.14737236 0.034022875 0.042209227 0.077336974 -0.0054604583
0.03905548 -0.014492422 0.09953806 -0.028215818 0.038453463 -0.042775117 -0.009308992 -0.052419122

blocks.2.synapse.weight f4 [16, 16, 3, 3, 1]
00000000: 5f47 b7bd dff6 6a3c 90dc 70bd e125 2cbe
00000010: dbaa 13bd 6881 8c3c dc4c 11be f290 b5bc
00000020: e448 92bd e432 bbbd 3606 58bd 3937 76bd
00000030: e244 53be e435 f3bd 427a 21bc 2cef 31be
00000040: 1f62 debd 44a7 ecbc f6e6 11be 18f3 c43c
00000050: 8886 17bd 60b4 0dbe e844 533c 2141 a53d
00000060: c697 a0bc d6ba 8cbd 8b5d 43bd e3ed d2ba
00000070: 7173 93bd ebda d63c e17f ddbd 0241 acbc
00000080: bbb6 e53c e1aa d53c ea6c 8f3c bc68 38bd
00000090: 99a0 44be ab16 5fbe d90e d3bd 7f55 59be
000000a0: b56e f2bd 6887 3ebc c72f 7fbe 0647 21be
000000b0: b182 79bd fabe bdbe 544e 83be 7934 b23b
000000c0: 3d49 dabe d277 f3bd 6f0e 77bd b86a 69be
000000d0: 60a6 22be 9d69 f0bd 0afd d9bd 49ec 1dbe
000000e0: 4394 b3bc 88b1 fcbd 1437 50bb 561d cd3d
000000f0: 79c0 41bd c7c6 43bd 1385 e23b 6737 17bd
00000100: 6bb4 553c 9bc7 88bc 93ea f6bd 9be7 85bc
00000110: dbf0 33bd 1cf8 a4bc 953e 71bd 75e2 1c3d
00000120: 8ff3 21be 8083 f4bc eaed 0dbd 8ddc b0bd
00000130: 4177 10be 7385 bdbd 16a9 c1bd d8c5 a1bd
00000140: 5782 17bd 565a c0bd e004 35bd 8d9c a2bd
00000150: ff04 fbbd 1d5b 26be d7e9 75bc c83e 31be
00000160: 59a8 5939 110d 32bd 09b6 8e3d 17b4 8b3d
00000170: eb01 5fbc 7b70 b2bc fa41 873d 4922 453c
00000180: f241 413d 17b7 36bd 17b7 eebb 7254 edbd
00000190: 4dde 40bd 14bc 033d 923d cfbd 3e4a 70bd
000001a0: 3423 993c 0d9a 89bd 401f 80bc 0027 d83c
000001b0: b72f 78bd d15c 22bd c44e 4a3c ca64 efbd
000001c0: 91bc 07be 9757 2dbd d4ed bebb 8345 0abd
000001d0: 3e0b 03be 75b4 2fbe 5e64 aebc d3b4 44bd
000001e0: 629c d5bd 5595 4bbc bb06 1abc a8b3 83bc
000001f0: 8c80 483b 697d 833d a914 e0bd 87b7 79bd
00000200: a68c c43c dbda eabd 3731 9b3b 2883 9fbb
00000210: fb09 37be cf7c 8a3c f452 1fbe c209 7ebe
00000220: 5420 603c 0469 55bd 962f 0cbe 33f5 693d
00000230: 5d27 143d 58d1 c0bd e06a 7c3d d735 293d
00000240: 7bd3 a43b 75b5 d93c 8592 bcba 2ce7 68bd
00000250: 7bc6 bdbc 73b5 c73b aa04 9bbc d2d8 79bd
00000260: 589a 8a3c bbaa 90bd 30d6 1ebd 4ec4 183c
00000270: 2959 c3bb ef55 e23d 34fb 8abd d09f 203d
00000280: 4b6a 5a3c e476 41bc da9a babd 816e 89bd
00000290: d8d5 09be fd56 2f3d 1874 663d 4713 d63c
000002a0: d24b 06bc 59a7 173c 5838 023d 13fa debb
000002b0: bb9b 673d e94f 6c3d 382d 31bd ba2b 58bd
000002c0: ba60 debd 3163 8abd 2c81 213b 0354 32bd
000002d0: 2496 203d 4435 cabd ac2d 50bc 1622 dd3c
000002e0: b838 ccbc d069 90bd 9924 6bbd b3a0 d53c
000002f0: 5bd6 da3d 55bb 6b3d 525c 313d 9d7c d03d
00000300: 38a0 1e3e 8b0d 003d 1682 213d a17e 843d
00000310: 6a96 a43d c52d d93d 4cdf ccbd 7c65 75bd
00000320: 3738 56bd 3567 09be ab53 89bd 933b 02be
00000330: 36f5 e5bd 34bb a6bd 0de7 08bd 6514 4ebd
00000340: b5b2 20bd c9e7 bcbd 059d ddbb 46e8 afbd
00000350: 5d1e 103d 5f31 173d 4e59 47bd 7676 463c
00000360: 1cca ccbd df6f a5bd 0f3c 92bd 16e1 febc
00000370: 4f49 0a3d 253c a5ba 8e22 96bd 1e45 aabd
00000380: d267 c5bc b0ad 283d dfce a4bd ddac 3f3d
00000390: 1d38 b7bc f862 95bb 8861 9bbd 47a4 86bd
000003a0: c443 213c f8e9 20bd 2418 443d efbf 4e3d
000003b0: 4164 5b3c 8c97 0e3c 5ab2 5a3d c47d 783c
000003c0: 571b 6b39 a5fd 9c3d fa89 3b3d c2f3 513d
000003d0: 9637 76bd 01b8 d6bd ceca 023c dc60 33bd
000003e0: 3efd f53c 1d10 90bd 2a30 4abd 3aa3 8cbc
000003f0: 5731 8c3b 0954 e2bc 1004 a7bd 2bd1 af3d
-0.0894916 0.014341085 -0.058804095 -0.16811325 -0.036051612 0.01715155 -0.14189476 -0.022163842
-0.07142809 -0.09140566 -0.0527403 -0.06011126 -0.20631745 -0.11875513 -0.009855809 -0.17376393
-0.10858559 -0.028888352 -0.14248261 0.024041697 -0.036993533 -0.13838339 0.0128948465 0.08069063
-0.019603621 -0.068715736 -0.04769663 -0.0016092624 -0.07199753 0.026227435 -0.108154066 -0.021027092
0.028041234 0.026082458 0.017507989 -0.045021757 -0.19201888 -0.21785991 -0.10305566 -0.2122402
-0.11837522 -0.011628963 -0.2492057 -0.1574975 -0.060915653 -0.37059766 -0.25645697 0.005438384
-0.42634 -0.11888088 -0.0603165 -0.22794616 -0.1588378 -0.11738894 -0.106439665 -0.15422167
-0.021921283 -0.12338549 -0.003177111 0.10015361 -0.047302697 -0.04779699 0.0069128363 -0.03691807
0.013043503 -0.016696742 -0.1205646 -0.01634579 -0.04393087 -0.020137839 -0.058897574 0.038301904
-0.15815566 -0.02984786 -0.03465072 -0.08635817 -0.14107992 -0.09253969 -0.09456079 -0.07899064
-0.036989536 -0.0939223 -0.044194102 -0.07940016 -0.12256812 -0.16245694 -0.015009365 -0.17309105
0.00020757447 -0.043469492 0.06968314 0.06821459 -0.013611297 -0.02178215 0.06604381 0.0120321
0.04718203 -0.0446082 -0.0072850096 -0.11588372 -0.047087003 0.032161787 -0.101191655 -0.058664553
0.018693544 -0.06718836 -0.015639901 0.026385784 -0.06059238 -0.039639298 0.012347881 -0.11689146
-0.13255526 -0.04231986 -0.005826691 -0.033757698 -0.12797257 -0.17158683 -0.021288093 -0.04802401
-0.10430218 -0.01242574 -0.009401019 -0.016076878 0.0030594198 0.064204045 -0.109414406 -0.06096604
0.023992848 -0.114675246 0.0047360915 -0.00486793 -0.17874901 0.016905217 -0.15558988 -0.2480841
0.013679583 -0.052102104 -0.13690028 0.057118606 0.036170352 -0.09414929 0.06162536 0.04131111
0.0050300932 0.026575783 -0.0014386928 -0.056861088 -0.023165932 0.0060946285 -0.018923122 -0.06099779
0.0169193 -0.07063814 -0.038778484 0.009324146 -0.0059615565 0.11051547 -0.067861944 0.03921491
0.013331006 -0.011808131 -0.09111567 -0.0671053 -0.13460481 0.042807568 0.05626306 0.026132239
-0.008196788 0.009256207 0.031792015 -0.0068047135 0.056545 0.057693396 -0.043256015 -0.052776076
-0.10858293 -0.067572005 0.0024643643 -0.04353715 0.039205685 -0.09873441 -0.0127062015 0.026993793
-0.02492939 -0.07051432 -0.05740795 0.026077604 0.10685416 0.0575517 0.043300934 0.10180018
0.15490806 0.031262916 0.0394307 0.06469465 0.08036502 0.10604433 -0.10003528 -0.059911236
-0.052299704 -0.13418277 -0.067054115 -0.12718038 -0.11228411 -0.08141175 -0.033423472 -0.05031242
-0.03923293 -0.09223897 -0.006763103 -0.085892245 0.035185207 0.03691232 -0.048669152 0.012113204
-0.09999487 -0.08077978 -0.071403615 -0.031113189 0.03376132 -0.0012606425 -0.073308095 -0.08313964
-0.024097357 0.041181266 -0.0804727 0.046795715 -0.022365624 -0.004558917 -0.07586962 -0.06574302
0.009842817 -0.03928563 0.047874585 0.05047601 0.013390602 0.008703124 0.053392746 0.015166704
0.00022421531 0.07665566 0.04578588 0.051257856 -0.060111605 -0.10484315 0.007982923 -0.043793544
0.030027982 -0.07034323 -0.04936234 -0.017167676 0.0042783427 -0.027627962 -0.08155072 0.085848175

blocks.3.synapse.weight f4 [16, 16, 2, 2, 1]
00000000: 2ad8 8fbc 992b d93d a72d 693d e97d 9dbd
00000010: a9da 083d 7033 cf3d 518f d0bc 0fb1 283d
00000020: 2aff d3bd 3756 cbbd 7ebe 553a 89e7 3e3d
00000030: 26ba c5bd cbc3 d23c edb6 d5bd 9834 f03a
00000040: 5397 eabd 0d61 903b 9cb0 c5bd 934c d03d
00000050: 261f 493d c39b 183d 8942 b3bd c273 d0bd
00000060: a82a b83b 6eae b4bd 72cd be3c 75d0 993c
00000070: 9cc7 9fbc 1d9b ce3c b4be 063d 74cc 46bd
00000080: 5b1c 3cbd 887d 0f3d e4d0 92bd 6b53 cf3c
00000090: e66d c93d bf33 67bc 806f 4d3d 3f44 8cbc
000000a0: dbea 633c e1e5 973c 6854 083c 9e6e 8a3c
000000b0: a7af b63d d296 303c df44 00be d52e efbd
000000c0: dc9c bdbb d433 733d dcd0 febb 951c 9e3d
000000d0: b872 40bd d244 12be 2ebc 143d 5171 f3bd
000000e0: f70e 503d c59d 443d f9ff c3bc 58d6 2ebd
000000f0: 8c29 4dbd 0f95 6c3d 0de0 143d d9f0 80bd
00000100: 6436 583d b35a 20bd 797d 883c 26c9 cfbc
00000110: de2c 213d 3a2d ef3c b47a 903d 4a75 78ba
00000120: b37a 003d f355 a43c cc4f 36bd 477c a0bc
00000130: 057b 933c 307d 2ebd 06b1 493d 59e8 64bd
00000140: b415 053b c313 c43b 6802 c4bd bccc 92bd
00000150: c79b acbc 6d6e 14be 0ddc 46bd e438 2e3c
00000160: a1c5 3abc 80a7 ffbc 803f d23d 014f 283c
00000170: 3bf9 4dbc ad6b d638 e80d 373d ce04 213c
00000180: 2274 123d 979b be3c 5c53 49bd 4194 2ebc
00000190: 043c 013c b94c a23d 034a 3cbc 7578 b5bd
000001a0: 0839 853c 4d70 323d 9193 e53d 30b0 083e
000001b0: 1379 713d 6e1f ffbc 7c5d 2cbd d2a9 01bd
000001c0: 4d65 cf3d 6a73 48bc 1a4b 6e3d 8c9d 4cbd
000001d0: 59c8 79bd 6039 7abd ea24 703d ad6b d4bd
000001e0: 94af 62bd 2b45 81bd fa2d cb3d 7995 3fbd
000001f0: f321 bbbd 47cf 9cbd ca7c 46bd 5342 cfbd
00000200: adac 163d bff5 7b3d d5bf 083e 1ea9 d93b
00000210: 8c6b 77bd 1d5d 58bc 716c 8cbd 193b 09be
00000220: 86c8 7d3d 3f95 80bd 1b77 383c 50ec 303c
00000230: 7d17 94bd 44bd 68bd 8d58 9fbc 7fb6 983c
00000240: 2886 aa3d 684b 35bb b814 e53c 8d96 c73b
00000250: 6aeb 06be 72f3 77bc ce1f 473d b4ea a4bc
00000260: 727f 543d 9d69 b43c 2682 89bc 6c25 893d
00000270: 5b23 5b3d a671 0b3d 72b3 98bd 20f9 183d
00000280: 2892 383d 24fc b33d 1904 aebd 8226 bbbd
00000290: aa04 c83d 312c 24bd 7319 2fbe 26cb bc3d
000002a0: 11b7 babd e044 84bc 853a 8a3d a62d 87bd
000002b0: 0079 68bd 5321 7e3d aee4 53bd c227 c93c
000002c0: d6b6 963d 2760 7dbd 3f07 f5bd 19db e6bd
000002d0: 72ac afbc e545 593d 6b19 0ebd 81ed 5f3c
000002e0: b0a1 8fbb 5154 2b3d c1ec 853d 8b2d 36bd
000002f0: c0e7 d83d 3a91 c23d 2c05 d2bb d038 08bd
00000300: f290 adbc 6656 763d c728 b63a f472 acbc
00000310: a290 523d 24d6 73bd 0f54 2d3d f101 4abc
00000320: c451 22bd 94a7 efbd c471 eabd e41f 42bd
00000330: 7bf2 433d 35d7 90bb 83d9 50bd a6b5 233d
00000340: 7cf2 a4bc ec5b 22be fed9 f5bd f4fa 353c
00000350: 1cc4 57bd 4041 edbc 873e 71bc ebd1 5e3d
00000360: 50e7 a93d 912b 44bc 1dd4 e6bc 9ff4 c3bc
00000370: 5e87 923d 480e 7b3d d9c9 ed3c 1a8f 983d
00000380: 944d 973d 2f24 56bc 4a82 9a3c 5a11 7fbb
00000390: 3742 173c 45f2 02bb eee4 c33c c0ec a6b9
000003a0: 9393 0e3e a8d3 e4bb ffee 5ebd ce90 a2bc
000003b0: 22a9 393d 2b4a 103d c0aa 9fbd 05f9 3d3d
000003c0: 9a44 cc3b 1561 3bbd 08e4 803c 931c db3c
000003d0: 343e fcbc bc1c adbd 3f8d b6bc b293 123c
000003e0: fca5 db3c 6f57 1fbd 8b0c 863d 9ea2 553d
000003f0: 926f a2bd 4e7a b2bd a29b 2bbd b730 c2bc
-0.01755913 0.10604019 0.056928303 -0.07690031 0.033411656 0.10117233 -0.025458964 0.04118448
-0.10351403 -0.099285536 0.0008153691 0.046607528 -0.096546456 0.025728127 -0.10435281 0.0018326221
-0.11454644 0.0044061006 -0.09652826 0.101708554 0.04910197 0.03725792 -0.08752925 -0.10178329
0.0056203194 -0.08822332 0.023291323 0.018776158 -0.01950436 0.025220448 0.032896712 -0.048534825
-0.04592548 0.035031825 -0.07168749 0.025308331 0.098354146 -0.014111458 0.050155163 -0.017122386
0.013910974 0.018542232 0.008320905 0.01689845 0.08920222 0.010778146 -0.12526272 -0.116788544
-0.0057865214 0.0593756 -0.007776363 0.07720295 -0.046984404 -0.14284065 0.036312275 -0.11886848
0.05079552 0.048002023 -0.023925768 -0.042684883 -0.05008845 0.05775934 0.036346484 -0.06295938
0.052786246 -0.039148998 0.016661393 -0.02536447 0.03934943 0.02919637 0.07054654 -0.00094779267
0.031367015 0.020060515 -0.044509694 -0.01959051 0.018002996 -0.042599857 0.04924109 -0.055885646
0.0020307126 0.005983801 -0.095707715 -0.07167956 -0.021070374 -0.14495249 -0.0485497 0.010633681
-0.011399657 -0.0312078 0.10266018 0.010272742 -0.012571628 0.00010224371 0.044690996 0.009827806
0.035755284 0.02326755 -0.049151763 -0.010655464 0.007887844 0.0792479 -0.011492255 -0.08860866
0.016262546 0.04356413 0.11209787 0.1334846 0.058953356 -0.031142917 -0.04208134 -0.031656094
0.101267435 -0.012234548 0.05817709 -0.049954936 -0.060982082 -0.061089873 0.058628954 -0.103721
-0.055343226 -0.06312021 0.09920879 -0.046773408 -0.09137335 -0.076567225 -0.048458852 -0.10120072
0.03678577 0.06151366 0.13354428 0.006642475 -0.0604053 -0.013205794 -0.06856621 -0.1340145
0.061958812 -0.062784664 0.011258866 0.010798529 -0.072310425 -0.056821123 -0.019451404 0.018641708
0.083263695 -0.0027663354 0.027963981 0.006090945 -0.13175741 -0.0151337255 0.048614316 -0.020131446
0.051879354 0.022023017 -0.016785692 0.06696591 0.053500514 0.03404393 -0.074561015 0.03734696
0.04506126 0.087883264 -0.08496875 -0.09138204 0.097665146 -0.040081207 -0.17099552 0.09218435
-0.091169484 -0.016146123 0.06749443 -0.066005036 -0.05675602 0.0620435 -0.051731758 0.02455509
0.07359092 -0.061859276 -0.11964273 -0.11272258 -0.021444533 0.053045172 -0.03469221 0.013667465
-0.0043832883 0.041828457 0.06539298 -0.044477027 0.10591078 0.09500356 -0.006409308 -0.033257306
-0.02118728 0.06014099 0.0013897651 -0.021050908 0.051407464 -0.059530392 0.042316493 -0.012329564
-0.03962876 -0.11701885 -0.1144748 -0.047393695 0.04783867 -0.004420186 -0.050988685 0.039968155
-0.020135157 -0.15855378 -0.12004469 0.011107195 -0.05267726 -0.028961778 -0.01472438 0.054399412
0.082960725 -0.011973278 -0.028177315 -0.023920355 0.071547255 0.061292917 0.029026913 0.074491695
0.07387844 -0.01307015 0.018860955 -0.0038920254 0.009232095 -0.001998083 0.023912873 -0.0003183838
0.13923483 -0.006983239 -0.054427143 -0.019844439 0.045327313 0.035226982 -0.0779624 0.04638006
0.006233764 -0.04574688 0.015733734 0.026747024 -0.03079138 -0.08452746 -0.022284148 0.008946346
0.026812546 -0.038901743 0.06545361 0.052157037 -0.079314366 -0.08714734 -0.04189647 -0.02370487

blocks.5.synapse.weight f4 [128, 784, 1, 1, 1]
00000000: bf44 54bc 197d dd3c ae20 233d afb5 e4ba
00000010: c2f1 60bc 5514 2abd 336a 08bd 7d6e 193d
00000020: f53f abbc d89d 1bbd 3b84 56bd b09b aebd
00000030: 144a f7bc e2bb 08bd d872 16bd 87ba 42bc
00000040: 984b 5fbd 6323 83bd 0380 84bc 0ec9 253b
00000050: 4ebb 99bc f103 e3bb 7bee 79bc 7aa1 a9bc
00000060: 4de7 253c e5bf 59bd 80a0 babc ab6c 253c
00000070: 5a18 ef3b 4b21 59bc f240 89bc 1c72 003d
00000080: 6e50 b8bc ede7 17bc 3e81 d93c 7f34 75bc
00000090: e422 d8b9 c46d febc ba5c d23c 9e83 c83c
000000a0: 89d0 023d abb7 223d 9588 05bd 7b71 d9bc
000000b0: e697 fe3c 9a22 2f3c 349a 8dbb 2014 493c
000000c0: 6004 db3a 471f e93c 4e46 5c3c eec1 f8bb
000000d0: 7998 d4bb 75e4 fcbc 07dc 6abd 400f 06bd
000000e0: 37c1 993b f693 733d cab7 f7bd 138c 30be
000000f0: 89f0 0fbe 9ead 6abd 9594 fdbc c7f7 933c
00000100: 2801 b0bc 84cf 94bd 1401 cabd 6174 11bd
00000110: 5a06 00bd d109 59bb e033 5b3c bb11 d5bb
00000120: fbd2 3a3c cf1d 1dbd 5a0b f9bd 3a9e 9fbd
00000130: 23a0 78bc 9b0b e53c 4045 173c 8077 c03b
00000140: 8854 e33c a585 86bc ecc0 a9bd ef98 4bbd
00000150: c98d af3c 77af 13bd dde1 bb3c 2556 fdbb
00000160: 8e4c 2fbd 0af1 86bc 54e7 85bc e334 d83c
00000170: 5722 0fbc 32e6 dc3a 6333 ddbc c8dc d73c
00000180: 9ad8 1c3b 3fd2 eb3c e6f6 a8bc 3209 663c
00000190: 0892 3d3d 6f2c e73c 82a8 7c3c 0630 aabc
000001a0: 4677 173c 8ca6 00bd a1b0 f23b fd5d 61ba
000001b0: e7db 51bd 36ed 42bd c3df 2fbd 7525 e03b
000001c0: 2c0e 2d3d 2aa9 2abb 754d 81bd 367e 86bb
000001d0: 3a72 61bd 965c a5bc e93f 203d 9f21 88bc
000001e0: b142 1cbd c94d f5bc b099 a3bc 5e68 2abd
000001f0: 43ef 73bd 169a bbbb af09 67bd 077d a6bb
00000200: 2923 813b 8a46 41bd 6213 28bd d6a4 2bbd
00000210: 403c 223d b750 943d 1fc3 5cbb d075 1cbd
00000220: 7eaa 0bbd 04c0 95bc cc83 49bc ac2c 96b8
00000230: b5a7 653b 3b62 27bc 0b4b bdbc 692e 95bc
00000240: 8405 463c c796 693c b0d8 2dbd d359 10bd
00000250: 0531 e1bc 6dfe 6cbd 649b 14bd 6ece 7ebd
00000260: f2d4 a5bd ab31 dabd 019b 68bd 8e65 84bd
00000270: 342a febc b1a8 7cbd 6809 45bd 9049 82bd
00000280: c524 b2bd 8247 babd 86f9 80bd ea93 8abd
00000290: 2916 f1bd 7039 2ebd 8d74 88bd b13e 8abd
000002a0: 2a14 913c dbef acbd f253 c1bd be11 4cbd
000002b0: e2ee 383d b5af 0c3d 4fb9 cf3d e3bc b6bc
000002c0: 2df2 43bd 562a 31bd 1564 01bd 6a6a 203d
000002d0: 0a42 df3c dfc5 33bd d252 fcbc 8bf8 c9bc
000002e0: 2ef9 edbc b6c8 29bd 1c84 3439 26fc 1c3d
000002f0: a4a8 5cbc b18c 6ebd baa4 6abc 1ec4 19bc
00000300: 59f4 84ba 2059 b2bd 1e65 94bd 6bd4 b6bc
00000310: ef72 07bc ad27 98bd c0ef d9bc 392f 49bd
00000320: fd37 07bd e020 a7bc c5f3 82bd e4e3 343d
00000330: 0bd2 fb3c 152a 03bd 6ac1 0ebd 644d 60bc
00000340: 154d 30bd 6190 d2bc 892a 07bd d1cf 1bbd
00000350: 0333 94bc 0289 dcbc 5060 e6bc 8535 843c
00000360: f91a 673a cf5f 003c 096c 63bb e69b e53a
00000370: 1018 61bb 80df 9dbc 2008 f8bc 5aee 673c
00000380: dd9c 973c f935 48bc 4093 e1bc 7394 303b
00000390: 76f2 a2bc 0e47 01bd 6412 15bd 09d8 b73c
000003a0: 1a33 46bd 33ec 7d3c 494c e5bc 1516 42bc
000003b0: 5238 eaba dcc6 143c 91c5 96bc 8a69 fa3b
000003c0: eb03 6fbc 2170 9ebc c2fa e3bb 2815 023c
000003d0: ad3e 0ebd af61 2bbd 0cf1 073c 3ad6 04bd
000003e0: 426b a63c ed14 45bd c4a5 54bd 5219 7e3c
000003f0: 8d8e 29bd ae46 58bd b0ea 9bbd fc44 d5bd
-0.0129558435 0.02703719 0.039826088 -0.0017449165 -0.013729515 -0.041523296 -0.033304404 0.037458885
-0.02090452 -0.03799233 -0.0523722 -0.08525789 -0.03018669 -0.033382304 -0.036730617 -0.011885292
-0.05451545 -0.06403234 -0.016174322 0.002529684 -0.018766072 -0.00692796 -0.015254612 -0.02070688
0.010125947 -0.05316152 -0.02278161 0.010096709 0.007296604 -0.013252567 -0.016754601 0.031358823
-0.02249929 -0.009271604 0.026550885 -0.014966129 -0.00041224726 -0.0310582 0.025678981 0.024476822
0.031937156 0.03972594 -0.032600958 -0.02654337 0.03107829 0.010689402 -0.004321361 0.012272865
0.0016709678 0.028457297 0.013444496 -0.0075914776 -0.0064879027 -0.030870656 -0.05733874 -0.032729387
0.0046922225 0.05946728 -0.12095602 -0.17240934 -0.140566 -0.05729448 -0.030954638 0.018062485
-0.021484926 -0.07266143 -0.09863487 -0.03551138 -0.031256057 -0.0033117423 0.013379067 -0.006502358
0.011402841 -0.038358506 -0.12160368 -0.07793851 -0.015174898 0.027959635 0.009232819 0.0058736205
0.027750269 -0.016421149 -0.0828875 -0.049706396 0.021429913 -0.03605601 0.022934848 -0.0077312165
-0.042797618 -0.016472358 -0.016345657 0.026392406 -0.008736215 0.0016853272 -0.027002042 0.026350394
0.0023932816 0.028786777 -0.020625543 0.014040278 0.046281844 0.02821943 0.015421035 -0.020774852
0.009244746 -0.03140883 0.0074063097 -0.0008597074 -0.051235106 -0.047589503 -0.042938005 0.0068404027
0.042249843 -0.002604077 -0.06313602 -0.004104401 -0.055040576 -0.02018575 0.03912345 -0.016617594
-0.03814954 -0.029944317 -0.019970745 -0.04160344 -0.05955435 -0.0057251556 -0.05640572 -0.0050808224
0.003940959 -0.047186412 -0.04103411 -0.041905247 0.03960824 0.07241958 -0.0033685637 -0.038198292
-0.03409814 -0.018280037 -0.012299489 -7.160878e-05 0.0035042588 -0.010216291 -0.023107072 -0.018210607
0.012086276 0.0142571395 -0.042442977 -0.035241913 -0.027489195 -0.057859827 -0.036281005 -0.062208585
-0.08097257 -0.10654005 -0.05678845 -0.064646825 -0.031025983 -0.061684314 -0.048104674 -0.06361687
-0.086984195 -0.0909567 -0.06297593 -0.067664936 -0.11771805 -0.042535245 -0.06662855 -0.06750239
0.01770981 -0.08444186 -0.094398394 -0.049821608 0.04514969 0.034347255 0.10142767 -0.022306865
-0.04783838 -0.043253265 -0.031589586 0.039163984 0.02725317 -0.043889876 -0.03080121 -0.024654647
-0.029049482 -0.04145118 0.00017215352 0.038326405 -0.013467941 -0.058239643 -0.0143215 -0.009385137
-0.0010143622 -0.087084055 -0.07245849 -0.022318086 -0.008267148 -0.074294426 -0.02660358 -0.0491173
-0.03301238 -0.020401418 -0.063941516 0.044162646 0.030739805 -0.032022554 -0.034852423 -0.013690326
-0.04304226 -0.02570361 -0.03299955 -0.038039986 -0.01809073 -0.0269208 -0.028122097 0.016138801
0.000881597 0.007835343 -0.0034701845 0.0017517775 -0.0034346618 -0.019271612 -0.030277312 0.014155949
0.018507415 -0.012219899 -0.027536035 0.0026943951 -0.019891005 -0.031561904 -0.03639449 0.02244188
-0.048388578 0.015498209 -0.027990477 -0.011846085 -0.0017869568 0.009080615 -0.018404754 0.007641976
-0.014588336 -0.019340577 -0.006957383 0.007939614 -0.03472774 -0.041841205 0.008297216 -0.032430865
0.020314816 -0.04811566 -0.0519159 0.0155089665 -0.041395713 -0.05280178 -0.076131225 -0.10413548

blocks.6.synapse.weight f4 [10, 128, 1, 1, 1]
00000000: b321 f83c 521b 423c 605f df3b e8a3 fabc
00000010: 28a8 733b c67b d73d d9a9 5ebc cb8d 053a
00000020: c4fc bb3c 9b81 6fbb 8b75 533c 4d6b a3bb
00000030: 3d36 4c3c 95dc f1bc 9b0d e43c 613f e5bb
00000040: 5fcb 853c b5a0 d83b ebcf 50bc 9ab6 1cbd
00000050: 81c4 5cbd c34a 91bb ad3e acbb 1dab 743c
00000060: d566 18bc 3b00 243c b1b7 a6bb fb33 003d
00000070: d87b 3bbc 37f7 763b f287 b83c 278a 87bc
00000080: 368d 39bb 8302 9ebd 272d 663c c596 9bbb
00000090: 4aef 6ebc e910 8f3c e63a 0b3c 8605 293c
000000a0: 6818 2e3c 5ff7 a33c fb23 47bd 7cf0 37bb
000000b0: 8a7b 64bd 8e80 083c 0479 52bd 8d1c 203c
000000c0: d7de 58bd 60e7 2dbc 59c2 e63b 665d ec3a
000000d0: ff51 08bc d880 423c 6d21 cdbc f185 b8bc
000000e0: fcda 0dbc 82e5 a43c 468a 7d3c 4478 3abd
000000f0: d942 753c 2fd9 e4bc 3c25 fdbb f087 d23a
00000100: 4e25 24bc d97c 823d 4bc3 6a3c 814d 68bc
00000110: 0aa9 483c 7641 0bbd deef e33b be93 04bc
00000120: 52cd ad3c 20fb 21bb d7a0 243d 3cbf 1cbc
00000130: 1cf6 8a3c e6c2 ffbc 8ccb 6ebc b95f 08bd
00000140: 7cfe 84bc 592a 4abc e852 013d d848 453c
00000150: 4201 c9bc 8c44 97bb 3042 823b b4eb d83b
00000160: 7d9d 063d b366 9dbc d1b2 333c 5ae4 8cbc
00000170: 22e0 25bc f165 33bc 951b 81bc 2196 863b
00000180: 46e4 9fba e427 1d3d d5e2 763c 8442 bd3c
00000190: 2e1b e43b 1368 7c3b 65ba 03bc 71b4 7a3c
000001a0: 15f1 9f3b 5a40 88bc a14f 8dbd 0f06 053d
000001b0: 7b52 fbbb 7c09 12bc 7d88 aebc 5841 96ba
000001c0: c615 98ba 69ca 253d e69e 8b3d 25c0 91bb
000001d0: 6101 1e3c 724d 1abd bafb 70bc e853 223d
000001e0: c55b 6dbb 9f2f c7bc c21d 77bc de3b 353d
000001f0: 4fe1 28bd 7820 a739 d9be 7a3c a6e4 393d
00000200: dc2c 42bd 0fd9 71bb ef61 0fbc fe77 f4ba
00000210: 8535 aabc 091b 6e3c 5759 67bc 0578 0338
00000220: 32d7 153c 776e 103c 2138 87bc 13c0 1cbc
00000230: f651 e7bb 979a a0bd 7ed1 2a3d 74da 90bb
00000240: 8a1c 0e3c 91ea 293c 90f4 6bba 718e b2bc
00000250: 32ca 88bd f58c 9a3b d738 bc3a bb31 71bd
00000260: b72a 22bc 6ae7 41bc f783 183c 875f d23c
00000270: ef1f 563c 12dc b7bc fc07 0dbc f234 bfbb
00000280: a308 c5bc 382b 3cbc 70f9 87bc d4bf 59bc
00000290: e27c 503c f531 53bb e5e8 4cbb fbec a137
000002a0: be29 8fbc 3ffc c8bc 752c fcbc 9f24 1dbc
000002b0: 1cf2 9dbb 22e2 f83d 7d30 92bc c08b 553c
000002c0: 495e 4cbd 23ca 2fbd 7be2 12bc f33a 46bb
000002d0: 834c 473c 10c3 673c ea00 943d 9de2 da3b
000002e0: 971b e53b 7df1 983b c74d 033c 8378 623c
000002f0: 3406 a2bc 9d9f d53c 9d02 38bb b0ed 14bb
00000300: f124 6e3d 97c9 363a bbd1 503c 05ea 113d
00000310: a84f 803c a944 303d a2ec 57bc 6c80 83bc
00000320: 1490 7b3c 451b 723c b518 813c 08fa b0bb
00000330: e238 4a3d 2ad6 2a3c cb30 4eb8 8711 b7bd
00000340: 41c7 703c b18c fbbb 5a7d 9c3c 0d9b 4e3c
00000350: 8654 043c 8c3b bcbd 559c 353c 71e7 ea3a
00000360: 80dd 3b3b dd37 bf3c 34bb 533c d65c 3eba
00000370: b53a 5fbc eb4b 8c3c a9f8 e7bb 84ca 6fbc
00000380: 9ad1 a53b 6cc5 97bd 211c 8cbc e7af f0bc
00000390: cb35 053c 21a2 36bc a5ae 1d3c d26c 373c
000003a0: d823 92bc d3be 213c af91 aabd b95a a63b
000003b0: 4436 88bc e66c 55bb 3ed4 f13c 5824 b93c
000003c0: a010 ccbb 5dd9 3fbd 2e89 343d dfb7 40bc
000003d0: a009 e53b fdef 143d 6f1f 373b 62c1 0b3c
000003e0: 7ad5 83ba ccfd 19bb 4246 223c b251 d83b
000003f0: 80c4 78bc 68bd 0eba 7527 7a3c 992e 4cbd
0.030289507 0.011847334 0.0068167895 -0.030595735 0.0037179086 0.10521655 -0.0135902995 0.0005094676
0.022947676 -0.0036545757 0.012906442 -0.0049871565 0.012464103 -0.029524127 0.027838519 -0.0069960807
0.016332326 0.0066109546 -0.012744884 -0.03826008 -0.05389834 -0.004433961 -0.005256495 0.014933375
-0.009301861 0.010009821 -0.0050878157 0.031299572 -0.011443101 0.0037683973 0.022525761 -0.016545368
-0.0028312928 -0.07715323 0.014048851 -0.0047481977 -0.014583418 0.017464118 0.008497929 0.010316258
0.010625936 0.020015417 -0.048618298 -0.0028066924 -0.05578188 0.008331431 -0.05138494 0.009772432
-0.05294689 -0.010614246 0.007042211 0.0018033206 -0.008320331 0.011871539 -0.025040353 -0.022524806
-0.008658167 0.02012897 0.0154748615 -0.04552485 0.014969551 -0.027935592 -0.007725386 0.0016062241
-0.01001866 0.06371469 0.014328788 -0.014178635 0.012247333 -0.033997975 0.0069560846 -0.008091865
0.021216068 -0.0024716333 0.04019245 -0.009567078 0.016963057 -0.031220865 -0.014574897 -0.033294413
-0.016234629 -0.012339198 0.031573206 0.012041293 -0.024536733 -0.0046163257 0.0039751753 0.006619895
0.032865036 -0.01921401 0.010967926 -0.01719873 -0.010124238 -0.010949598 -0.015760222 0.004107252
-0.0012198768 0.03836812 0.015068729 0.023103006 0.006961248 0.0038514182 -0.008040045 0.01530181
0.004881034 -0.016632248 -0.06899954 0.03247648 -0.0076697445 -0.008913394 -0.021305317 -0.0011463566
-0.0011603169 0.040476236 0.06817417 -0.0044479542 0.009643883 -0.037671514 -0.014708454 0.0396308
-0.003621803 -0.0243147 -0.015082778 0.044246547 -0.041230496 0.00031876913 0.015304291 0.04538407
-0.047406062 -0.0036903059 -0.0087513765 -0.0018651483 -0.020777473 0.014532813 -0.014120421 3.134461e-05
0.009145545 0.008815399 -0.016506257 -0.009567278 -0.007059331 -0.07841986 0.041703694 -0.004420573
0.008673796 0.010370866 -0.0009000981 -0.021796437 -0.06679191 0.0047165104 0.0014360201 -0.058885317
-0.009897879 -0.011834959 0.009308807 0.025680317 0.013069137 -0.022443805 -0.008607861 -0.005835169
-0.02405197 -0.0114849135 -0.016598433 -0.013290364 0.012725087 -0.0032225822 -0.0031266746 1.9303048e-05
-0.017475959 -0.024534343 -0.030782918 -0.009591251 -0.0048201215 0.121525064 -0.017845387 0.013033807
-0.049894605 -0.042917382 -0.00896513 -0.0030247539 0.012164238 0.014145628 0.07226737 0.0066798464
0.0069918144 0.0046674595 0.008014149 0.013822678 -0.019778349 0.026077086 -0.002807773 -0.002272468
0.0581407 0.0006972788 0.012745316 0.03562357 0.015662983 0.04303423 -0.013178976 -0.016052447
0.015354175 0.014777009 0.015758852 -0.0054009 0.049370654 0.010427037 -4.915967e-05 -0.0893889
0.014695943 -0.007676684 0.019102741 0.012610209 0.008076793 -0.09191045 0.011084636 0.0017921758
0.002866596 0.023342067 0.012923051 -0.00072617584 -0.013624837 0.017126044 -0.007079203 -0.014635686
0.005060387 -0.07410702 -0.017103257 -0.029380752 0.008130501 -0.011147053 0.009624158 0.011195378
-0.017839357 0.009872156 -0.08328568 0.005076733 -0.016627438 -0.003256613 0.02952015 0.022600338
-0.006227568 -0.046838153 0.044076137 -0.011762588 0.006989673 0.036361683 0.002794232 0.008529993
-0.0010058128 -0.0023497222 0.009904446 0.0066015357 -0.015183568 -0.0005445094 0.015268196 -0.049849126
