MNIST/00:06:10:Apr-07-23/network.pt (torch, 265425 bytes, 14 tensors)

blocks.0.synapse.weight_g f4 [64, 1, 1, 1, 1]
00000000: 0bb5 223f babc 0b3f 8a0d d63e dc06 9e3e
00000010: 732f ce3e 86bd 193f 1bd2 0a3f d00b f83e
00000020: e57e 2d3f ab43 313f 6366 283f 76e4 e23e
00000030: 81cb 253f 9395 063f 7058 223f ab65 063f
00000040: 1d10 1f3f bf1f 123f 3886 ff3e b746 1c3f
00000050: 7478 de3e 8576 3b3f 0eff 233f 810f 0c3f
00000060: 18ac 013f ef51 093f 81c3 063f 079b f83e
00000070: 3e2e 123f d89e 1e3f 5cc4 0a3f aca2 043f
00000080: 2168 153f be28 1f3f 3560 0c3f 8cc8 123f
00000090: 86d7 ed3e c7f1 063f b98c 133f 57a2 143f
000000a0: e3d0 153f 5201 113f d23d 273f 4617 0d3f
000000b0: 716c 2e3f fcad 233f 0b92 1e3f 2b3f 063f
000000c0: 1675 183f bee7 0d3f 0b62 0a3f 34b8 163f
000000d0: f55c 093f eff2 f13e b592 fe3e 9d2d 1a3f
000000e0: 8201 183f dbac 1a3f baaa 223f 0bce e83e
000000f0: 0e22 253f dec4 143f 9286 ef3e 1994 1a3f
0.635575 0.5458485 0.41807204 0.30864608 0.40270576 0.60054815 0.54226846 0.48446512
0.6777175 0.6924388 0.6578123 0.44314927 0.6476365 0.5257198 0.63416195 0.52498883
0.6213396 0.5707969 0.49907088 0.610454 0.43451273 0.7322772 0.6406106 0.5471116
0.5065322 0.53640646 0.52642065 0.48555776 0.5710181 0.61961126 0.5420587 0.5181072
0.58362013 0.6217154 0.548343 0.5733726 0.46453494 0.5271267 0.576366 0.5806021
0.5852186 0.5664264 0.65328705 0.5511364 0.6813422 0.63937354 0.61941594 0.52440137
0.5955366 0.55431736 0.5405585 0.5887482 0.53657466 0.47255656 0.49721304 0.6022585
0.593773 0.60420007 0.6354176 0.45469698 0.6450509 0.58112895 0.46782357 0.6038223

blocks.0.synapse.weight_v f4 [64, 1, 3, 3, 1]
00000000: b1b7 9abe eae2 7bbe 5c36 403e 2c22 163e
00000010: ae23 60be 5103 99be 558c 65be 5219 ab3d
00000020: 3cb8 0abc 7e2f febd 0e74 993e 0ac0 ea3b
00000030: 2782 77be e769 02be 2f97 b63c c01d 2a3e
00000040: a160 863e 5a94 193e d4a0 ce3d 89b6 16be
00000050: f268 203e fa50 073e 14d9 a33d d473 213e
00000060: 4fae 7fbe db36 5b3c 7aaf a4bd b4aa 193e
00000070: 78fa 10be 32a9 d13d 0d96 f6bd 00b7 753c
00000080: cd05 283d 089d ae3d 5807 07be 675f 54bd
00000090: 883e d73d 9a95 0ebe 0c1f 97bd 3234 043d
000000a0: 90de 213d 5585 a4be fd59 96bd 6a15 f5bd
000000b0: a9f5 903c 34ed 013e 186f 0cbe 3ede 9e3e
000000c0: b741 c13d a8dc 5abd f6c0 1e3e 1f17 05bd
000000d0: 943d 993e 8904 a5be 7aeb 51be 5117 cd3c
000000e0: 095c 113e 190c 45bc 9f7e a8bc 5900 163d
000000f0: b17b 92be 7c0e 5e3e 7714 a2be 603c f93d
00000100: 63bc a13d 6b5b b5bd 124e 3e3e b0e4 a9be
00000110: 3739 573d cbb3 873d 0785 44be 331e 0bbe
00000120: 2c94 8dbe e210 aa3e 272a 8bbd bbcd 993d
00000130: a8eb a7be 38fb 9a3e 7245 0dbd 5974 35be
00000140: a005 31be 1b8b 7cbe 9dec 623e 5da5 7bbe
00000150: b251 5ebe d777 90be 8701 02be f391 9a3e
00000160: b0da a5bd 2416 853e 398c 7ebe df20 3bbe
00000170: 1ccc 843e 2245 873e 9e14 723d d23a acbd
00000180: 65d3 8d3e f013 c43d b6b8 a4be e09a dabd
00000190: 6a74 a53e 8cb3 f83d c4dc 88bc 20d6 2c3e
000001a0: 40be f63c 296c 5abd af97 03be b240 043e
000001b0: fbd8 97be 19da 53be ecc0 283e 397c b93d
000001c0: a54e 753e cf36 a2be 33aa 13be 2275 2c3e
000001d0: 2a27 5a3e 6a86 40be 2326 b9bd 8ea0 0d3e
000001e0: 926f 573e c001 483e 6fb4 333e ee81 57be
000001f0: 1078 133e 97a5 40be 974d bfbd d8ca 733e
00000200: 3dda bfbd 0e5c 61be a157 9c3e dabf 77be
00000210: ef5c 73be 27cc 873e a658 b1bb e40d 76be
00000220: b7fb 3abe 58bf 35be b8aa fc3d d954 1f3e
00000230: a4af f9bc 946d 383e ebc2 6bbc aeee 91be
00000240: 1606 44be da5d 4d3e c06a 98bc 486b 96be
00000250: 550c cbbd 117d 64be ad9f 973e a7d9 2fbe
00000260: 571a 593e 7a47 913d 2a24 4ebe 45f5 79be
00000270: 9fd8 bcbd a3f7 89be c092 4dbe 2966 e73d
00000280: 79ed 5abe daf8 51be b3ac 103e a755 8abd
00000290: aa91 5c3e 6140 3bbe a9f4 b43d 360e f53d
000002a0: 5cbe 493e 7e53 943e 5e6e cdbc 87a7 933e
000002b0: 1306 8abe 82f8 18be 2bea 3d3d f4b6 05bd
000002c0: 56a0 1f3e ca75 8bbe 24c0 9cbe b609 933c
000002d0: 55f2 793d 663f f53d 958a 803e 0922 403e
000002e0: 308a 623d a09e d3bd 5f76 66bd 2484 e5bd
000002f0: a4b2 53be e7c2 a1be 8487 87be 1988 e63d
00000300: e811 943e 63a7 a53d 0d25 8a3e 585d 723e
00000310: 18c8 9f3e c69b 41be 98f9 e53d 0037 143e
00000320: 4c79 473e a152 9a3e 28aa 99bd aefe 8fbe
00000330: 8ec3 48be 23ab 58be 10c1 91be 2673 8fbe
00000340: fbfa 023e 3d89 34be d7bf c3bd 9152 443e
00000350: c4d6 173e 4ada 1dbd 4ea5 c9bd 241c 9cbe
00000360: 37a9 0dbe 026f 6fbc a0e3 233e c27a 5f3e
00000370: 4649 0f3e f62e 9c3e e5eb 5cbe 97fe 94bd
00000380: ab87 05bc f055 f2bd f79c f53c 7d63 fc3b
00000390: 8da2 8e3e 977b 5fbe e98c 403d f91e 513d
000003a0: dd54 733e 3cf9 96be 996c 98bd c889 9fbc
000003b0: 2e7c 563d 2721 a1be 03ad fabd 4100 3cbe
000003c0: 515c 023e d644 9c3e d787 e53d 85d3 ca3d
000003d0: ddfe ea3c 0397 b63d bcb1 863e dabd 9ebe
000003e0: 51c6 efbd 02ee 86bd c56d 3f3e fee8 903b
000003f0: 2f73 9fbe e61e ae3c aa08 e03d e080 a03d
-0.3021827 -0.2459828 0.18770736 0.14661473 -0.2188861 -0.29885343 -0.22416814 0.08354439
-0.008466776 -0.12411402 0.29971355 0.007164006 -0.24170743 -0.12735711 0.022288887 0.16612911
0.26245597 0.14997998 0.10089269 -0.14718069 0.15665033 0.13214484 0.08000389 0.15766841
-0.24968837 0.013379778 -0.08041282 0.15006524 -0.14158046 0.102373496 -0.12040339 0.014997244
0.041021157 0.08526045 -0.13186395 -0.051848795 0.10509974 -0.13924256 -0.073789686 0.03227634
0.039518893 -0.32132974 -0.07341383 -0.11966975 0.017695265 0.12688142 -0.13714254 0.31028932
0.09436362 -0.05343309 0.15503296 -0.032492753 0.29929793 -0.32230023 -0.20499983 0.025035532
0.14195265 -0.01202681 -0.02056819 0.036621425 -0.28609994 0.21685213 -0.31656238 0.12169719
0.0789726 -0.08855327 0.18584469 -0.33182287 0.0525448 0.0662609 -0.19191371 -0.13585739
-0.2765211 0.33216006 -0.06795149 0.07509943 -0.3279698 0.3026979 -0.034490056 -0.17720164
-0.17287302 -0.2466244 0.22160573 -0.245748 -0.21710852 -0.2821643 -0.12695895 0.30189475
-0.08098352 0.25993454 -0.24858178 -0.18274258 0.25936973 0.26419932 0.059101693 -0.084096566
0.27700344 0.09574115 -0.32172173 -0.10674071 0.3231538 0.12143621 -0.016706832 0.16878557
0.030120015 -0.053325806 -0.12850831 0.12915304 -0.2965773 -0.20688666 0.16479844 0.09056897
0.23955782 -0.3168244 -0.14420395 0.16841558 0.21304002 -0.18801275 -0.09040477 0.13830778
0.21038654 0.19531918 0.17549299 -0.21045658 0.14401269 -0.18813168 -0.09340971 0.23807847
-0.093677975 -0.22007772 0.30535606 -0.2419428 -0.2376592 0.26522943 -0.005412179 -0.24028736
-0.18260084 -0.17748773 0.123372495 0.1555971 -0.03047926 0.1801055 -0.014389734 -0.2850241
-0.19142947 0.20055333 -0.01860559 -0.29378724 -0.099144615 -0.22313334 0.2961401 -0.17172872
0.21201454 0.07093711 -0.20130983 -0.24409969 -0.09221005 -0.26946744 -0.20075512 0.112987824
-0.21379651 -0.20505086 0.1412838 -0.06754618 0.21539941 -0.18286277 0.08835728 0.11965601
0.19701523 0.2896995 -0.025077041 0.2883875 -0.2695776 -0.14938548 0.046365898 -0.03264518
0.15588507 -0.27238303 -0.30615342 0.017948966 0.06102212 0.11974983 0.2510573 0.18762983
0.055307567 -0.1033299 -0.05626523 -0.112068444 -0.20673615 -0.3159401 -0.26470578 0.11256427
0.2891991 0.08088567 0.26981393 0.2366842 0.31207347 -0.18907079 0.11229247 0.14474106
0.19479865 0.30141166 -0.07503158 -0.28123993 -0.19605848 -0.21159033 -0.28467607 -0.2801754
0.12791054 -0.17630477 -0.09558075 0.19172122 0.1482802 -0.038538255 -0.098459825 -0.3049022
-0.13834082 -0.014613869 0.16004801 0.21824172 0.13992795 0.30504578 -0.21574362 -0.07275122
-0.008150022 -0.118327975 0.029982073 0.0077022896 0.2785839 -0.2182449 0.047009382 0.05105493
0.23762842 -0.29487026 -0.07442588 -0.019474879 0.05236452 -0.31470606 -0.122400306 -0.18359472
0.12730528 0.30521268 0.1120755 0.099036254 0.028685981 0.08915522 0.26307476 -0.3100422
-0.11707748 -0.06588365 0.18694218 0.004422306 -0.31142566 0.021254968 0.109391525 0.07837081

blocks.1.synapse.weight_g f4 [128, 1, 1, 1, 1]
00000000: 37b3 263f ee01 f73e 72c5 2a3f cdc8 153f
00000010: 5d7d e53e e710 033f df30 0e3f a5a7 083f
00000020: d782 e23e 5e13 163f 5d3a 013f e5f4 cf3e
00000030: fb6e 1c3f 8f7e 1f3f dad2 193f 2dfa 253f
00000040: 592a fb3e 3168 203f f9a7 243f 9020 343f
00000050: b096 fb3e 2382 0e3f a499 213f c4f1 1a3f
00000060: 18f2 1a3f 3cfd 273f 371f 0f3f 94b3 fb3e
00000070: db2a 123f c6ec 0a3f f5ec f53e e15b 123f
00000080: c484 033f 18ae df3e 6743 043f 07fd 223f
00000090: d069 143f 8268 133f 2dfd 0c3f 9bd9 1e3f
000000a0: a544 953e 8406 2e3f 7557 253f de12 133f
000000b0: 9a63 0a3f 7bca 223f ac23 e23e f774 2e3f
000000c0: a561 413f 7869 1a3f 1166 0e3f e5e3 033f
000000d0: 59e3 1e3f f8a9 ec3e 8273 173f d596 153f
000000e0: 0baa 203f 7566 0f3f ffb3 043f bb63 2d3f
000000f0: d867 163f c9a5 003f c810 193f cc25 043f
00000100: f5dd 013f 19c8 333f 3024 263f c60d 233f
00000110: 86f2 103f c923 283f 1da2 013f 58f7 173f
00000120: 3b4c d33e 8c0c 113f fbc2 193f 86d0 1b3f
00000130: 2770 cd3e 62b3 003f e046 033f 18eb eb3e
00000140: 3123 eb3e 2d5c 1c3f ec0b 2c3f 6974 123f
00000150: 6ad2 083f 084a 1f3f f00b 103f 5501 343f
00000160: be8b 113f 53b9 103f 9c82 213f 5b5b 213f
00000170: 9901 1d3f 2883 0e3f a7a0 f53e dc2b fd3e
00000180: c2cb 003f 4353 db3e 72b5 2d3f c4d4 273f
00000190: 3551 1e3f 00ae 0d3f 884a c93e acb2 2f3f
000001a0: 28f5 0b3f 3dca 2f3f a29b 473f c652 373f
000001b0: 297b 113f 2eb4 0d3f 1072 073f 2123 153f
000001c0: 4152 003f 2dbe fa3e a29f 0b3f f779 e33e
000001d0: 1cf1 da3e 6867 423f 55a5 113f aad9 0a3f
000001e0: c23a fa3e fedc 1e3f 3442 273f 64db f23e
000001f0: b8b7 063f ce0b 2f3f 15bc 293f 4060 023f
0.6511721 0.4824366 0.6670753 0.5850952 0.44822207 0.51197666 0.5554332 0.53380805
0.44240448 0.586233 0.5047968 0.40616527 0.6110684 0.6230249 0.6008736 0.6483486
0.49055746 0.62658983 0.64318806 0.70362186 0.49138403 0.5566732 0.6312506 0.60525155
0.60525656 0.6562078 0.55907005 0.49160445 0.5709664 0.5426754 0.48032346 0.57171446
0.5137446 0.4368751 0.5166535 0.6366734 0.5797396 0.5758134 0.55073816 0.6205079
0.29153934 0.6797869 0.64586574 0.57450664 0.5405823 0.6359021 0.4416784 0.68147224
0.7553962 0.6031718 0.5562449 0.51519614 0.62065655 0.46223426 0.59160626 0.58433276
0.62759465 0.5601571 0.5183715 0.677303 0.58752203 0.5025297 0.5979123 0.51620173
0.50729305 0.702272 0.6489897 0.6369289 0.5662006 0.65679604 0.5063799 0.5936179
0.41269097 0.5665977 0.6006314 0.60865057 0.40124628 0.50273716 0.5128002 0.460778
0.45925286 0.6107815 0.6720569 0.5720888 0.53446066 0.6222234 0.56268215 0.7031453
0.56853855 0.5653278 0.6308992 0.6303002 0.6133056 0.5566888 0.4797413 0.49447525
0.5031091 0.4283696 0.6785499 0.6555903 0.6184266 0.5534363 0.39314675 0.68632007
0.54670954 0.68667966 0.7797185 0.7161068 0.5682855 0.5535306 0.5290842 0.5825673
0.5012551 0.48973218 0.54540455 0.4442899 0.42762077 0.75939035 0.568929 0.5423838
0.48872954 0.6205596 0.6533539 0.47433007 0.5262408 0.6837739 0.66302615 0.50928116

blocks.1.synapse.weight_v f4 [128, 1, 3, 3, 1]
00000000: 92ec a73e 6e8a 873e 8790 97be 6a80 f73d
00000010: 24f0 2ebe 968e ccbd f61d 65bd bcb9 23be
00000020: f9ae 8c3e b0c9 1e3d e505 1fbe cba1 073d
00000030: 6948 85be 31a9 0dbe 05de 6a3d 537b 8cbe
00000040: bd57 4dbe 1968 98bc c7bf 843e e286 a13e
00000050: ba69 5b3e 48c4 a73d 01f5 903e 2555 cfbd
00000060: 00e8 1bbe c2d4 cd3b 0e70 aabe dde3 a33e
00000070: fe1a 443e dce8 ef3c 569c de3d 6e3f a5bd
00000080: 7765 82be 34ae 8cbd 5e36 43be 8996 8f3e
00000090: 5c7c 9b3d 87d0 753e 3e81 b5bd bd91 ffbd
000000a0: 509e 61bd c0d9 e23d 550c 84be ff6a 32be
000000b0: 51d0 0f3d 5cce 363e 4c11 69bc 549f a1be
000000c0: f706 983d 7e20 053e 7892 063e 72be 8abd
000000d0: e95c 88be eff5 ea3d 63c8 dfbc 5ad6 bd3d
000000e0: f501 383e 3800 d4bd dba7 b13c ea21 9d3e
000000f0: ff18 9b3e eef8 84be ee84 543d 34ae 26be
00000100: 20d6 843e 253a 903e 4221 81be 24f3 413e
00000110: 65d4 01bc f46d 0d3d e962 bbbd a70e 863d
00000120: b2d7 fbbc ca19 b4bd e76e e9bd 78a6 07be
00000130: 2605 1a3e 4d8b f7bd e21c 823d d2ec 02be
00000140: 571b a13e 30b7 2cbe 396b 8abd eff6 2f3e
00000150: bd79 8c3d 22ed 9e3e 827f 6d3e 03f8 b93d
00000160: ae58 b63d 7c93 a93e a9b0 a6be f7ee 013e
00000170: 20a9 0a3e 2660 173e 9d30 733e e80f 82bd
00000180: 4bf3 fdbd 8a55 07be e937 78bc b68b 833c
00000190: 5c32 fc3d 091b c0bd dcf9 04be e468 ca3d
000001a0: 1ee6 73bd 1ef1 163e 81f3 1bbe 30b8 813e
000001b0: ef45 863e 4298 993e f806 27be 4e8f 89bd
000001c0: 43bc 883e 6890 87bc 53fa 8a3c 17c8 25bd
000001d0: ca7f aa3e 26ce f63d f417 e4bd 8029 84be
000001e0: b477 0fbe 0e8c 9ebe dbe4 b6bd cff6 6a3e
000001f0: 909d 36be c5f0 98be 3248 78be 3efd 91bd
00000200: 0f5c 6a3e 2dce 0c3e 6ddc 6e3b 5eb3 573e
00000210: 5299 943e f190 273e 63c9 893e 639a 7d3e
00000220: 853e f2bd aa0d 7ebe 88f5 e6bd 4041 74be
00000230: 3adf 3abe 2e2f e03d d6fa 9cbe 8414 8ebe
00000240: 6d58 573e 4358 91be 07c8 523e 26ec e0bb
00000250: de41 463e ed56 bc3d 9474 3e3c 8045 ccbd
00000260: abb5 0bbe bf5f a6be 49b7 32bd 7a53 883e
00000270: f6bd 993e cc13 1ebe de34 fd3c f9b0 f8bd
00000280: acd6 04be 5810 84be b744 f0bd 55cb 8ebd
00000290: 53f6 5ebe 5231 b1bd 8c20 933e d3ef cbbd
000002a0: 5e56 893e aebb 823e c142 a9be bc47 a6be
000002b0: 10a4 0e3d a9da 8d3e 3ac3 3c3e 8034 a43e
000002c0: 87a6 823e d96e a23e 43c3 413d 19dc 8cbd
000002d0: 44bf 40bd bc69 6dbe c24b d23d 2edc 9e3d
000002e0: 189c d4bb e092 0bbe c173 a73e af40 0e3e
000002f0: 61b6 193e 86fb 2abe 88a6 7cbd 439d a33d
00000300: 7a07 493e e630 883e b4ac 7bbe 2086 0ebe
00000310: 08e2 8d3e e4df 923d c7a3 b83d 86d0 89be
00000320: 8ba9 59be 8e07 a23e 5557 09bd 95d2 563e
00000330: 5738 44be 7fb5 82be 9f1d 1d3e 6431 86bd
00000340: 9b8f a4be 1ee0 eebd f17a 8abd bbc1 1cbe
00000350: 6d6b d8bd 959f 933e 7af0 aabe 2e29 ccbd
00000360: a6ca fabd 81f9 70be 6aff 8ebe 80c3 5e3e
00000370: d346 d83d d748 223d 5592 8a3e e223 5f3e
00000380: 48f4 45be 46ae a9be e935 c73c b74e 92be
00000390: bfbc 8d3d e4e1 7ebe d6bc cbbd ee53 9bbe
000003a0: 1dc8 0dbc 63b5 853e 1678 4d3b d82b 32be
000003b0: 1bfb 923e 5ea9 57be b0e4 6dbe 5392 423e
000003c0: 1359 be3d e4de ef3c 9197 74be fc51 5ebd
000003d0: 83bc 2bbe a58b 913e 1cd1 0dbe d88b aebd
000003e0: cfed c3bd 7c33 5cbe 0d7a 5dbe e7fb e5bc
000003f0: 7fca 633e eedc 6ebd 03cc 943e eb16 223e
0.32797676 0.264728 -0.29602453 0.1208504 -0.17083794 -0.099881336 -0.055936776 -0.15988821
0.27477244 0.038766563 -0.15529592 0.033113282 -0.26031807 -0.13834073 0.05734064 -0.2743784
-0.20053001 -0.018604325 0.25927565 0.3154822 0.2142705 0.081917346 0.28311923 -0.10123662
-0.1522522 0.006281466 -0.33288616 0.32009783 0.19150922 0.02928584 0.108696625 -0.08068739
-0.25468037 -0.06869164 -0.19063708 0.28044537 0.07592079 0.24005328 -0.088625416 -0.12478969
-0.05508262 0.11076689 -0.2579066 -0.17423628 0.035110775 0.17852157 -0.014225315 -0.3156687
0.074232034 0.13000676 0.13141811 -0.06774606 -0.26633385 0.11472689 -0.027317232 0.092694
0.17969497 -0.10351604 0.021686485 0.30689937 0.30292508 -0.25971168 0.051884584 -0.1627739
0.25944614 0.2816936 -0.25220686 0.18940407 -0.007924174 0.034528688 -0.09149725 0.065457635
-0.0307425 -0.087939814 -0.11398106 -0.13247097 0.15041026 -0.120871164 0.06353165 -0.12785652
0.3146617 -0.16866755 -0.06758732 0.17184041 0.06859157 0.31040293 0.23193172 0.090805076
0.08903633 0.33120334 -0.32556656 0.12688814 0.13541079 0.14782771 0.23749013 -0.0635069
-0.1239992 -0.13216224 -0.015150049 0.01605783 0.12314293 -0.093801565 -0.12985939 0.098832875
-0.05954563 0.14740416 -0.15229608 0.25335836 0.2622523 0.29998976 -0.16311252 -0.06716786
0.26706132 -0.01654835 0.016965067 -0.040474024 0.3330062 0.120510384 -0.11137381 -0.25812912
-0.14010507 -0.30966228 -0.089303695 0.22945713 -0.17833543 -0.29871193 -0.2424629 -0.0712838
0.2288668 0.13750525 0.0036447302 0.21064517 0.29023224 0.16363885 0.26911458 0.24765925
-0.11828331 -0.248099 -0.112773 -0.23853016 -0.18249217 0.10946499 -0.30660123 -0.27750027
0.21029826 -0.2838765 0.20584117 -0.0068640886 0.19361064 0.09196267 0.011624474 -0.099741936
-0.1364352 -0.32494923 -0.043631826 0.26626188 0.3002774 -0.1543724 0.030908998 -0.1214313
-0.12972516 -0.2579372 -0.11731856 -0.06972376 -0.21773653 -0.08651985 0.2873577 -0.09957852
0.26823705 0.25533813 -0.33058742 -0.32476604 0.03482443 0.27705887 0.18433848 0.32071304
0.25517675 0.31725195 0.047305357 -0.06877918 -0.047057405 -0.23184866 0.10268356 0.0775684
-0.0064883344 -0.13630247 0.327055 0.13891862 0.15010978 -0.16697511 -0.061682254 0.0798898
0.19631758 0.26599807 -0.245776 -0.13918352 0.2771151 0.0717161 0.09015613 -0.26916903
-0.21256082 0.3164639 -0.033530552 0.20978768 -0.19162117 -0.25529096 0.15343331 -0.06552389
-0.32140812 -0.11663841 -0.067617305 -0.15308277 -0.10567365 0.2883269 -0.33386594 -0.09968792
-0.12245683 -0.23532678 -0.2792924 0.21754265 0.10560384 0.039620247 0.27064767 0.21791032
-0.19331467 -0.33140773 0.024317699 -0.2857568 0.06920766 -0.24890858 -0.09948127 -0.3033747
-0.008653668 0.2611495 0.0031352094 -0.17399538 0.28707203 -0.21060702 -0.23231769 0.19001131
0.09294333 0.029281087 -0.23885943 -0.054277405 -0.1677113 0.28426853 -0.138493 -0.08522767
-0.09566843 -0.21504015 -0.2162859 -0.028074218 0.22245215 -0.058316164 0.290619 0.15829055

blocks.2.synapse.weight_g f4 [256, 1, 1, 1, 1]
00000000: efde 1d3f 5d71 1e3f 9754 1e3f b419 103f
00000010: 261a 0a3f 979d 113f 0d3b 113f e9ac 013f
00000020: 0c51 173f 6e52 f23e 9691 063f 9fb7 0f3f
00000030: 2b3a 0d3f 317e ef3e 4cba 143f 9bf3 e53e
00000040: 07b6 063f ce8e 0d3f 2adb 1b3f e0e2 1c3f
00000050: 1e83 363f 2c3b 253f de5d f23e 2f0e 303f
00000060: 9365 133f eada 073f 5220 b13e 93f4 013f
00000070: 7444 c73e 0f69 133f 38df 193f 2948 0b3f
00000080: 2377 043f b6ba 033f 94d8 bb3e 1c00 0f3f
00000090: d0a9 043f cd43 1a3f 9fde 1f3f a72d 0b3f
000000a0: 6c3a 2d3f 2b60 c53e 8809 2f3f 7738 093f
000000b0: 6e23 213f 3f21 263f cfa7 2b3f 89f7 0f3f
000000c0: fb95 043f c972 133f aac6 063f 59d7 073f
000000d0: c4f9 e23e 1a89 243f a5bf 1a3f 205d 083f
000000e0: 9963 173f 4306 1f3f 8350 333f f02f fb3e
000000f0: ff10 223f c7b2 093f d260 153f 2662 ff3e
00000100: be44 263f 7cd4 e83e d33b e13e 3548 023f
00000110: 7b7f ad3e 8839 123f d781 1e3f d30d 293f
00000120: 2795 143f e142 123f a34f 263f 9b53 0f3f
00000130: 3418 f43e 8808 cb3e d6d2 253f f579 003f
00000140: 620c 273f aa94 2b3f ee29 f23e 6b9f f53e
00000150: 8a4c 273f 997c 1a3f ab7c 0a3f 795f 113f
00000160: db38 383f 0d70 143f 2ddb 2f3f 12ca 1e3f
00000170: 0aa0 1a3f 3f7e 103f 3cef 243f c965 f03e
00000180: 192f 433f 7214 c23e fbf3 353f a612 3d3f
00000190: a685 1d3f b202 0f3f b363 183f 26d6 3e3f
000001a0: 7505 063f 41c9 023f 3ffa 0e3f 2c31 143f
000001b0: 0ad9 1c3f 4dbb 1c3f fa80 3c3f a386 163f
000001c0: e38f 1c3f 4060 1e3f 5992 023f 9b0a 033f
000001d0: 33e0 0c3f 2668 1c3f 2158 173f 642b 283f
000001e0: 2342 043f ee5b fe3e 7b8f 033f 0bd3 0c3f
000001f0: 22e7 123f a90f 223f 860d 273f 110c 2f3f
00000200: 1c4c 013f e710 143f d887 1c3f 4e06 383f
00000210: 20d5 093f c69a 123f 7a22 ec3e c750 103f
00000220: 2ce7 d83e b9c4 0d3f 8000 1b3f 676e 253f
00000230: 57bb 3d3f 0650 253f 4810 ba3e f8b9 253f
00000240: 37f2 313f fe29 1d3f a575 063f 8e46 1b3f
00000250: 3734 313f 9bf8 d93e e134 2e3f d31b 1f3f
00000260: 167d 2f3f 738c f73e a3ab f53e f9e4 da3e
00000270: 8df6 333f 0b23 b83e 0472 193f cb0c 1e3f
00000280: 23ce ef3e c93e 1b3f 174c 253f 7ce6 353f
00000290: 0d27 023f 8181 103f c200 0e3f b43d 0a3f
000002a0: 82f4 cc3e 0187 1d3f 5acb 413f efd6 0b3f
000002b0: a4d4 ec3e e64c 1e3f e281 133f a9f1 113f
000002c0: c4e4 273f 64a3 193f 16aa 063f 1e29 1f3f
000002d0: 7314 3b3f 49d9 113f dc13 1d3f 34ed 113f
000002e0: 872a 0b3f 400f 213f 47ee d63e 2728 203f
000002f0: 0eb7 003f 1305 203f b0ee e23e d398 213f
00000300: 48d1 2d3f 21b3 053f ab98 053f ca8d 1f3f
00000310: 338f 043f 0dc6 303f 2c45 3e3f fd73 ea3e
00000320: 1893 2a3f 563a 1c3f 4d5c db3e 6f8c 1c3f
00000330: 206b 3b3f 6897 1c3f bc42 033f c5f7 0d3f
00000340: 53e0 413f 2841 293f 3f68 1e3f 804b 093f
00000350: 2357 333f f64e 133f 1bd4 eb3e bdd2 123f
00000360: 5e49 fd3e d14f 123f e1bb 193f 2e90 103f
00000370: 8182 f03e f8dd db3e ac7c 083f 89d1 103f
00000380: dd10 1f3f 0d0d 1b3f 2f81 1f3f 1188 c83e
00000390: ae5c 0e3f 5da2 133f 3270 0c3f bf26 0f3f
000003a0: b279 123f 1c63 0a3f d397 233f 1d40 223f
000003b0: 664c 0b3f 7449 ed3e c1a7 133f eb0f ad3e
000003c0: bf8f 113f 0dec 2a3f 6962 023f cd24 063f
000003d0: f975 9b3e 5a89 0d3f 0237 ee3e 3012 243f
000003e0: 0014 1f3f 31a7 ef3e ad0e 3a3f 3231 343f
000003f0: 6778 223f bd12 1c3f 43dc 2a3f 6422 133f
0.61668295 0.6189173 0.61847824 0.5628922 0.5394615 0.5688109 0.5673073 0.50654465
0.5910804 0.47328514 0.52565897 0.5613956 0.5516688 0.46775964 0.58096766 0.4491242
0.526215 0.5529603 0.6088129 0.61283684 0.7129382 0.64543414 0.4733724 0.6877164
0.57576865 0.5306841 0.3459497 0.50763816 0.38919413 0.5758218 0.6010623 0.5440698
0.5174429 0.51456773 0.36688673 0.5585954 0.51821613 0.60259706 0.6244907 0.54366535
0.6766727 0.38549933 0.6837392 0.53601784 0.62944686 0.6489448 0.6705293 0.56237084
0.5179135 0.57597023 0.5264689 0.5306297 0.4433118 0.642717 0.60448676 0.532671
0.5913635 0.6211893 0.70044726 0.4906001 0.63307184 0.5378842 0.5835086 0.4987957
0.6494864 0.45474613 0.43990955 0.5089143 0.33886322 0.57119036 0.6191687 0.6603672
0.5804009 0.571333 0.64965266 0.55986947 0.47674716 0.39654946 0.64774835 0.5018609
0.6525327 0.6702372 0.47297615 0.4797319 0.65351164 0.6034637 0.5409648 0.56786305
0.71961755 0.57983476 0.6869381 0.62027085 0.6040045 0.56442636 0.6442754 0.46952656
0.7624374 0.37906224 0.7107541 0.7385658 0.61532056 0.5586349 0.5952713 0.74545515
0.52352077 0.5108834 0.55850595 0.5788753 0.61268675 0.612233 0.736343 0.5879919
0.61157054 0.61865616 0.5100456 0.5118806 0.550296 0.6109642 0.5911885 0.6569121
0.51663417 0.49679512 0.5139081 0.55009526 0.5738393 0.63305146 0.6525501 0.68377787
0.5050676 0.5783829 0.6114478 0.7188462 0.5384083 0.57267416 0.46120054 0.56373256
0.4236387 0.553783 0.6054764 0.64621586 0.7411398 0.6457523 0.36340547 0.6473689
0.69510216 0.613922 0.5252326 0.6065453 0.692203 0.42572483 0.68049437 0.6215183
0.6855024 0.48349342 0.4798251 0.42752817 0.7029808 0.35964236 0.599396 0.6173827
0.46836957 0.6064268 0.6456923 0.71054816 0.50840837 0.5644761 0.55469906 0.540004
0.40030295 0.61534125 0.75700915 0.5462484 0.46255982 0.6183609 0.5762006 0.5700937
0.65583444 0.6001494 0.5260328 0.62172115 0.7307808 0.56972176 0.6135843 0.5700257
0.54361767 0.62913895 0.41978666 0.6256127 0.5027932 0.6250774 0.4432273 0.63123816
0.6789746 0.52226454 0.5218608 0.6232573 0.51781005 0.690522 0.743243 0.45791617
0.666307 0.61026514 0.42843857 0.61151785 0.73210335 0.6116853 0.51273704 0.5545619
0.75732917 0.66115046 0.61877817 0.5363083 0.70054835 0.5754236 0.4606026 0.5735281
0.49470037 0.5715304 0.60052305 0.5647 0.46974567 0.42942786 0.53315234 0.56569725
0.62135106 0.6056679 0.62306494 0.3916631 0.5561017 0.5766962 0.54858696 0.55918497
0.5721694 0.5405748 0.6390354 0.6337908 0.5441345 0.46345103 0.5767785 0.33801207
0.56859964 0.66766435 0.5093141 0.52399904 0.30363443 0.55287707 0.46526343 0.6409025
0.6213989 0.46807244 0.72678643 0.70387566 0.6346497 0.6096609 0.6674234 0.5747435

blocks.2.synapse.weight_v f4 [256, 1, 3, 3, 1]
00000000: 52db 573e b754 413e 7710 25bb 5e82 8cbe
00000010: 32b0 8ebe d616 373e 4cee 05be 4697 99be
00000020: 83da b63d 145e 993e 07d9 9b3e c68c a73d
00000030: dfd1 863e 003d 243d c73d 9c3e 5391 193e
00000040: 2b49 753d 76d7 7d3d ab2a f4b9 b68e 69be
00000050: 8e7a 4f3e 962b a43e 5223 903e 063a 913d
00000060: 56f2 b93b 8689 463e 5241 823e f6f2 18bd
00000070: 83b8 363e 001c 4dbd be35 8ebe 0350 4abe
00000080: eecc 7d3e deeb 6fbe 167c 613e 80b6 2bbc
00000090: 6b70 5d3e e033 71bd 66eb e5bd c0ed 743d
000000a0: 6f20 893e f460 a2be 40c4 9ebc 4879 4d3e
000000b0: 861d ddbd e74d 6fbe a37b 44be 256b 4e3e
000000c0: ed40 983d 2d48 25be 4b4b 69be 00e3 48bd
000000d0: f45d d03c bd72 a43e c34b 40bd 48ed d13d
000000e0: 0283 853e 8be2 8ebe 0bbe 6f3c 66b9 55be
000000f0: 69a6 83be 9643 72be 5efc 3ebb 6238 9cbe
00000100: 6832 dabd 6640 0d3d 54a1 4f3d 8d90 243e
00000110: b1b9 73bd 98b7 9ebe 08ca 09bd 1552 15be
00000120: e3bf 12be 7d69 b4bd 1f4b 83bd 1b29 453e
00000130: d91c b1bd 693d 2c3e 817d 55be 6f90 aabe
00000140: c112 9bbe 9482 3d3d 781d 943e 512e ea3d
00000150: eb52 29be 4c8b af3d 72e0 fb3c 7f30 473e
00000160: f728 63be 8251 8d3c ee87 1c3d ed34 d1bd
00000170: cba2 f13d c6b9 3fbe 1e17 7f3e b54b 1d3e
00000180: 6041 f63c 833e 80be 9b76 823e ae7d 49bd
00000190: adb8 063e 04ab 243e 4cc5 3c3e 2465 693e
000001a0: 1f75 12be 8c93 a3be 6840 763e 440f 8b3d
000001b0: 7351 173c 6800 743e 9b0c 4bbd 4081 9c3e
000001c0: af9b 683e 9508 ad3a 2d46 673e a771 3abe
000001d0: 8f09 08be 3b54 203e 27dd 28bc 43f3 01be
000001e0: 7e31 763e 0f94 a53d 9fbd 1a3e f44d 2dbd
000001f0: 7b20 8c3e f39f fdbd 2a28 ed3d 06db 72be
00000200: fcb2 9dbe ad55 8abd d21e 91be a19d cfbc
00000210: 78c8 d33d c03d 44be 6c4e 53be 7a78 bbbd
00000220: a3bd 563c ce2e 873e 19ab c63d c429 4c3e
00000230: 1ebc 673c 5d62 253e f0eb 57be 9ed1 22bd
00000240: 2838 a03a bd08 f43d 0db9 e13d 499c 81be
00000250: 40ff 253d 02e3 543e 1588 13bd 5ed4 8dbe
00000260: 601e 813e 519f a13c d80a 833e bf53 20be
00000270: b398 86be 1e22 153e 9415 113e 6671 1b3e
00000280: 4fc1 51be 8af4 4c3e c287 4b3e 35d3 c6bd
00000290: 55f2 103e f400 c53d ec66 03be 8711 683e
000002a0: 6688 873e 3219 56be 9220 aabe 9348 bfbd
000002b0: b18f 3e3d beed debc 6f7b 6a3e db78 a73e
000002c0: 8e11 9b3e f6e2 0f3e 883c 993e 32b1 3ebd
000002d0: d58c ebbd cede 4abe 647d 9a3e 17ef 923e
000002e0: b9f4 2f3e 3820 90bc dcb7 9abe cde0 9d3e
000002f0: 5fc0 813e 8f6a d03c 7c08 87be b14f 573e
00000300: 45de 133e 02cd 44be 4492 88be a716 59be
00000310: 8845 fe3d cd26 aabe 6acd b3bd 9702 f23c
00000320: 4457 583d 463e 6fbd 6771 193d 7752 d2bd
00000330: 9597 6cbe 4095 97be 4d3c 70be f4f5 a5be
00000340: 4e24 b13d d148 923e 67a7 16be 509a 5d3e
00000350: 4b75 8fbe 441e 9e3e 9bd8 3d3e 890d d23a
00000360: 3816 603e 62b2 d6bd cc3c 3fbd fa46 2c3e
00000370: dbda 613e 0ca6 9c3e 857c 5a3e 9867 59bd
00000380: a82f 6dbe ac71 a93e 9780 14be 60e7 a8bd
00000390: 4a13 0abe 1185 8a3d c8a1 963e a0e1 15be
000003a0: a9ab fb3c a000 d83d 7195 00bd 4ad7 3cbe
000003b0: 63ef ee3c 6b62 8c3d d618 30be c833 37bd
000003c0: 9b7f 9b3d 7023 4ebe 1bb8 673c f223 4cbc
000003d0: a1e7 d5bd 0442 7bbe 7623 a63e 4a6d a73d
000003e0: 1444 853c 1837 8abc 38f4 9fbc ea6b 8cbe
000003f0: d086 be3b 8d43 3c3b 85db 05be 542c d63d
0.21079758 0.18879972 -0.0025186816 -0.27443212 -0.278688 0.17879805 -0.13079184 -0.29998225
0.089283966 0.29954588 0.30439016 0.08181147 0.26331994 0.040097237 0.30515882 0.14996843
0.05988423 0.061973058 -0.00046571097 -0.22808346 0.20261595 0.32064503 0.28151947 0.07091145
0.0056746406 0.19388399 0.2544046 -0.03734108 0.17843823 -0.05007553 -0.27775377 -0.19757085
0.24785206 -0.2342982 0.22019991 -0.010480523 0.21624915 -0.058887362 -0.11226539 0.05979705
0.26782557 -0.31714594 -0.019380689 0.20065796 -0.10796647 -0.23369561 -0.19187789 0.2015806
0.074342586 -0.16140814 -0.22782628 -0.04904461 0.025435425 0.32118788 -0.046947252 0.10250336
0.26076514 -0.27907214 0.014632712 -0.20871505 -0.25712898 -0.23658594 -0.0029142122 -0.30511767
-0.106541455 0.034485243 0.050690964 0.16070767 -0.05950326 -0.30999446 -0.033639938 -0.14582093
-0.14331011 -0.08809183 -0.064108126 0.19253962 -0.086480804 0.16820301 -0.20848657 -0.3331332
-0.30287746 0.046267107 0.28928733 0.114346154 -0.16535537 0.08571491 0.030746672 0.19452094
-0.22183596 0.01725078 0.03821557 -0.10215173 0.117986284 -0.1872321 0.24911162 0.15360911
0.03006047 -0.25047693 0.25481114 -0.049192123 0.13156386 0.16080862 0.18434638 0.22792488
-0.1430249 -0.31948507 0.24048007 0.06790021 0.009235728 0.2382828 -0.04957257 0.3056736
0.22715639 0.001320141 0.22585364 -0.18207417 -0.13284896 0.15657131 -0.010306633 -0.12690453
0.24042317 0.080848806 0.15111397 -0.04231067 0.2736853 -0.123840235 0.11579926 -0.23716363
-0.30800617 -0.067546226 -0.28343827 -0.025343718 0.10340971 -0.19164181 -0.20635384 -0.091538385
0.013106736 0.26402897 0.09700603 0.19937807 0.014143972 0.16150804 -0.21086097 -0.039750688
0.0012223767 0.11915729 0.11021624 -0.2531455 0.04052663 0.20789722 -0.03601845 -0.27701086
0.25218487 0.019729288 0.2559421 -0.15656947 -0.26288375 0.14563796 0.14168388 0.15179977
-0.20483898 0.20015159 0.19876006 -0.09708253 0.14154942 0.096193224 -0.1283223 0.22662936
0.2647125 -0.20908049 -0.33227974 -0.09340014 0.046523754 -0.027212974 0.22898649 0.32709393
0.3028683 0.14051422 0.29928994 -0.046555705 -0.11501471 -0.19811556 0.3017379 0.28698036
0.17183198 -0.017593488 -0.302184 0.30835572 0.2534208 0.025441436 -0.2637366 0.21026494
0.14440258 -0.1921883 -0.26674092 -0.21200047 0.12415606 -0.33232728 -0.08779414 0.02954225
0.052817598 -0.058408998 0.037461665 -0.10269635 -0.23104699 -0.29606056 -0.23460503 -0.3241421
0.08649503 0.2857118 -0.14712296 0.21640897 -0.28019175 0.30882466 0.1853966 0.0016025762
0.21883476 -0.104832426 -0.04668884 0.1682395 0.22056143 0.30595434 0.21336563 -0.05307731
-0.2316271 0.33094537 -0.14502178 -0.08247256 -0.1348392 0.06763662 0.29420304 -0.1463685
0.030721502 0.10546994 -0.03139252 -0.18441501 0.029166883 0.06854709 -0.17196974 -0.044727117
0.07592698 -0.20130706 0.014143015 -0.012459742 -0.1044457 -0.24536902 0.3244893 0.08175142
0.016267814 -0.016871974 -0.019525632 -0.27426082 0.0058144107 0.0028726787 -0.13072021 0.10457674

blocks.3.synapse.weight_g f4 [256, 1, 1, 1, 1]
00000000: 958a 013f 753d 1d3c c0dc 293e 6034 653d
00000010: 629a 7c3f 247f 3b3f 9d36 5c3f 3017 313e
00000020: 76e1 6e3f 3947 6c3f 9fbe dd3c f652 713f
00000030: 20ad f63e 32fd 593e 6af0 593f ebc0 593f
00000040: 0816 0a3e d4b6 e93e 99af 233e 0fae 313f
00000050: d044 3a3f f0ce 563f ca73 2f3f 7508 443f
00000060: 0257 303d dd80 b73d 4049 003e c6e5 9d3e
00000070: 697c 513e f393 e03d d8c9 bb3e 8277 af3d
00000080: 88ab 4c3e 24de b23e be94 663f a48e 143f
00000090: 7cae 853d fbbb be3e 0764 463f daa5 283f
000000a0: 8522 403e 724e 6f3f 4531 533f cae5 f83e
000000b0: b403 6e3f 2cc2 e73e 404b 9e3e ec00 013f
000000c0: 6523 6d3f 9842 a53e 073f e53b 590b 543f
000000d0: 4425 513f c0a1 c63d 1f50 3d3f 92ba 753f
000000e0: 0489 5b3f 0925 2c3f e722 173f a7dc 553f
000000f0: a807 dd3e 40be 683d 8a05 843e a337 f83e
00000100: 35a9 6c3e 6af7 103f d77f b83d a921 083f
00000110: ecd9 0a3f a27b 443f 82e8 3a3f 6c3b fa3e
00000120: 612f 9e3e 876e d73e 6c2b d63e 120b 363f
00000130: f2fb 293f e2a7 4c3f fcfd 8b3e e0aa e53e
00000140: 88ae 573f ca16 713f 0086 d23d 8900 583c
00000150: 75ea 1f3f ba3e 103e 579f 873d 9037 c63d
00000160: 3b8a 513f 611f e93e 9848 3c3e 48dd ce3e
00000170: d028 593e 707a 733e 7c55 d03e e812 7e3f
00000180: 0a89 453f 6c84 c53e 722e 393f 7bbb cb3e
00000190: 2a04 283f 424d 663f bc25 5c3f 1733 553f
000001a0: d512 463f 4052 523e 6a2e 593f 01c0 1d3d
000001b0: 2e2d 373f 04f7 353f bcf8 283f 3dbb 5a3f
000001c0: a4d2 e63d 3357 2c3f 1c90 6a3d 0770 c03c
000001d0: 4cc2 ac3e 8c8c 113e 202f f43e c7a8 663f
000001e0: 1166 ff3e a6aa 2e3f cf06 ff3e 7461 343f
000001f0: b1bb 653f 6c34 673f cfaa 593f 105c 493f
00000200: afc9 6a3f b509 6f3f 147d 6d3f 5034 573f
00000210: f9c1 833e e41a bb3e ae76 963e 5af2 173f
00000220: 9e16 6b3f 0036 633e f288 7f3f 1a36 023f
00000230: d428 2a3f 001a 093b 401b 403f 4094 123d
00000240: d880 583e ae64 053f 4e41 2b3f 2d4e 863e
00000250: 7a96 0f3f 69c2 8b3e e05a 043e 9800 033f
00000260: 5b04 e93a 53dc d33e ac44 5a3f 4ee3 313f
00000270: 144f 993e 19ea e13d 1078 b03e 494e 433f
00000280: e8bc f93e 7964 3f3d 3c66 cc3d d066 db3e
00000290: 8629 f73c dfe0 e13d f0e4 3c3f 0651 293f
000002a0: 5592 be3e 1961 f03d 3134 7f3f a495 9a3e
000002b0: 186b 873e efc8 d83e 803f 363f cd9d 183f
000002c0: 4909 2b3f 5868 403e 78a3 6b3e 26bf 1e3f
000002d0: 2037 b83e 2c15 7b3f 1be5 ca3e c900 443f
000002e0: 4ee0 403f 9325 0a3e 6d21 de3e db8f 0b3e
000002f0: 31d9 bc3e 434b 0f3f d1bf c93e fd0b 543f
00000300: 4dda 4e3d ff7a cd3d b63d 093f 2e60 383d
00000310: 9b37 bf3e b1c6 223f 6c86 443f 6e7f 043f
00000320: 3a99 083f 1ce9 0c3f d372 b13e 0341 e63c
00000330: ce63 423f b078 083f 6460 4b3f 406e 0d3e
00000340: ce14 963e dd1d 223f 2c8d 783f d1e7 fd3e
00000350: 940f 1f3e 5835 303e 0c7d 133e 347c f63d
00000360: 3ba1 653f 1cfc d73e 2284 f63e 44c9 693f
00000370: 0047 d23c 571a 673f 54fc 403f e099 943d
00000380: 28fc 143e e107 803e 1e77 2d3f 4cf6 a23e
00000390: 87a8 b93d 80fb 2c3e e5b4 6e3f 00c3 443f
000003a0: 1614 823e cc8b 253d ee5b 103f 34c7 b73e
000003b0: 4ace 5f3f 5a2c 3c3f af4d 4a3d 007b ee3d
000003c0: 2af2 7a3f bc00 5f3f 20f9 063f 7988 713f
000003d0: ff2b dd3d 0dd3 143e 179e 783f 8c1e c93d
000003e0: 2018 263f 2f23 1d3f 9e88 153f d4a9 f03e
000003f0: 2ded 963e ccc4 543f efab 6e3f 434c 563f
0.50602084 0.009597172 0.16588116 0.05595815 0.9867307 0.73240876 0.86020833 0.17294002
0.93312776 0.9229618 0.027068434 0.94267213 0.4817896 0.21287993 0.8513247 0.85059994
0.13484967 0.456473 0.15984954 0.6940622 0.7276125 0.8390951 0.68536055 0.76575404
0.043051727 0.089601256 0.12527943 0.30839366 0.20457615 0.10965719 0.36677432 0.08567716
0.19987309 0.34935105 0.9007071 0.5803015 0.06527421 0.37252793 0.7749638 0.6587807
0.18763168 0.93479073 0.82497054 0.48612815 0.929744 0.4526533 0.30916786 0.5039203
0.9263213 0.3227737 0.006996039 0.82829815 0.8169749 0.0969882 0.7395038 0.9598781
0.85755944 0.6724401 0.5903763 0.83539814 0.43169904 0.05682206 0.25785476 0.48479947
0.23111422 0.56627524 0.090087585 0.5317636 0.5423877 0.7675115 0.7301103 0.4887346
0.30895522 0.42076513 0.41830003 0.7111064 0.66400063 0.7994367 0.27342212 0.4485693
0.8425069 0.941754 0.10279465 0.013183721 0.6246713 0.14086428 0.066221885 0.096785665
0.8185155 0.45531753 0.18387067 0.404032 0.21206975 0.23777175 0.4069022 0.992476
0.7716223 0.38577592 0.72336495 0.39791474 0.65631354 0.89961636 0.8599508 0.8328108
0.77372485 0.20539188 0.8483645 0.038513187 0.71553314 0.7108004 0.6600454 0.8544195
0.11270645 0.67320555 0.05726634 0.023490919 0.33741987 0.1421377 0.47692204 0.90101284
0.49882558 0.6822914 0.49809882 0.704612 0.8973952 0.90314364 0.8502626 0.786561
0.91713995 0.93374187 0.9276898 0.840642 0.25733927 0.36543953 0.2938742 0.59354174
0.91831386 0.22188568 0.99818337 0.508638 0.6646855 0.0020920038 0.7504158 0.035785913
0.211429 0.5210675 0.6689652 0.26231518 0.56088984 0.2729676 0.12925291 0.5117278
0.0017777787 0.41379032 0.85261035 0.69487464 0.29943144 0.11030979 0.344666 0.7629133
0.48776937 0.046726678 0.09980437 0.42851877 0.030171167 0.11029219 0.7378683 0.66139257
0.37221017 0.1173727 0.9968901 0.30192292 0.26448894 0.423408 0.71190643 0.59615785
0.66811043 0.18789804 0.23011577 0.6201042 0.35979557 0.9807918 0.3962792 0.765637
0.7534226 0.13490896 0.43384877 0.13629095 0.36884454 0.55974215 0.39404157 0.8283079
0.050501157 0.10033225 0.5360979 0.0450136 0.3734711 0.6358443 0.7676761 0.5175694
0.53358805 0.55043197 0.34657916 0.028107172 0.7593354 0.53309155 0.79443955 0.13811588
0.29312748 0.6332682 0.9709041 0.49590924 0.15533286 0.17207849 0.1440317 0.120354086
0.89699143 0.42184532 0.48147684 0.9132273 0.025668621 0.90274566 0.7538502 0.07255912
0.14549315 0.2500601 0.67759883 0.31828535 0.09065347 0.16892815 0.93244773 0.76860046
0.2540595 0.040416524 0.56390274 0.35894167 0.8742415 0.73505175 0.04939049 0.11644554
0.98025763 0.87110496 0.52723885 0.94348866 0.10799407 0.14533634 0.97116226 0.098202795
0.6488056 0.6138181 0.58411586 0.4700457 0.29477826 0.8311279 0.932311 0.83710116

blocks.3.synapse.weight_v f4 [256, 1, 1, 1, 1]
00000000: 9089 01bf 8096 21bc c0dc 29be 6034 65bd
00000010: 629a 7c3f 003e 3b3f 8a77 5c3f 3017 313e
00000020: 76e1 6e3f b687 6c3f fc92 d5bc d811 713f
00000030: cc2f f73e a8fe 5a3e 6af0 59bf 4083 593f
00000040: 0816 0a3e 4ccc e9be 88d1 223e 5e80 31bf
00000050: 4b03 3a3f 6600 57bf ca73 2f3f ac49 44bf
00000060: c06d 34bd 9f7b b53d 4049 00be 0868 9ebe
00000070: a081 52be 04a0 e23d d64c bc3e 104f b03d
00000080: 88ab 4cbe 24de b23e be94 663f a48e 14bf
00000090: 4fa2 83bd fcec bebe 7aa5 46bf b667 28bf
000000a0: d0cd 403e 7e8d 6fbf 7c72 533f b162 f83e
000000b0: 84c2 6dbf 3b3f e73e 404b 9e3e ccbf 003f
000000c0: 5264 6dbf d5bf a4be 00d9 e73b 84ca 53bf
000000d0: e864 51bf 4b97 c4bd bc21 3dbf 62e0 75bf
000000e0: ab47 5bbf ade3 2bbf eee5 16bf 061b 56bf
000000f0: a807 ddbe 40be 683d 1471 84be 604b f83e
00000100: f0a4 6b3e eab8 10bf 4081 b6bd 74e1 07bf
00000110: ecd9 0a3f a27b 44bf 82e8 3abf 6c3b fa3e
00000120: 49b2 9e3e e7f0 d7be 6c2b d63e 120b 36bf
00000130: f2fb 293f e2a7 4c3f fcfd 8bbe e0aa e53e
00000140: 88ae 57bf ca16 713f 0086 d2bd 00b0 633c
00000150: fba8 1fbf 3b39 0f3e d393 85bd 9037 c6bd
00000160: b483 51bf 47a2 e93e 8042 3bbe 48dd ce3e
00000170: d028 59be 707a 73be 7c55 d03e e812 7ebf
00000180: 8a47 453f 6c84 c5be aaed 38bf c43c ccbe
00000190: 9c45 28bf db0b 66bf bc25 5cbf cc68 55bf
000001a0: 2c51 463f 4052 52be 6a2e 593f 7fce 213d
000001b0: 5e68 37bf 8838 363f 0e39 29bf c0f9 5abf
000001c0: 6cde e8bd 9298 2c3f 6978 66bd 4048 b8bc
000001d0: 2c43 ad3e 888b 10be acb0 f4be 7e67 66bf
000001e0: f80b ff3e de69 2e3f 8c89 ffbe 4d20 343f
000001f0: 527a 653f ae75 67bf 2dec 59bf 9a1a 493f
00000200: 7499 6a3f 49c8 6e3f 7bbe 6d3f 2cf3 563f
00000210: 8826 84be e41a bbbe 84f8 963e dab0 173f
00000220: 9e16 6b3f 0036 63be c247 7fbf dc76 02bf
00000230: d428 2a3f 001a 09bb 401b 403f 4094 12bd
00000240: d880 58be cca5 05bf 6080 2b3f d8cb 853e
00000250: 7a96 0fbf 6041 8c3e c85d 053e 18c0 02bf
00000260: e018 4c3a 6c5f d43e ac44 5a3f 9224 32bf
00000270: 144f 99be 28f6 e33d 1078 b03e bc8f 43bf
00000280: de3f fa3e 474e 3b3d 615b cabd d066 db3e
00000290: 8307 efbc 5cd6 dfbd f0e4 3cbf 0651 293f
000002a0: f8fe bebe 4055 f23d ac75 7f3f 1c18 9bbe
000002b0: 186b 873e e845 d83e fb80 363f 22df 18bf
000002c0: d5c7 2a3f 5868 40be 15a9 6c3e c47d 1ebf
000002d0: 2037 b83e 9956 7bbf c367 cb3e 58bf 433f
000002e0: d2a0 40bf 012b 0bbe 049f ddbe ba95 0c3e
000002f0: f85b bd3e 680c 0fbf f02e ca3e 94ca 533f
00000300: c3cf 4a3d 2686 cf3d c2fd 083f 816c 3c3d
00000310: 8cb3 bf3e 1008 233f f049 44bf 9c3e 043f
00000320: 3a99 083f aea7 0c3f c3f5 b1be b271 eebc
00000330: ce63 42bf b078 083f 6460 4b3f 406e 0d3e
00000340: 5079 963e 60dc 213f f44b 783f 74e9 fd3e
00000350: af09 1ebe 5835 30be 7582 14be 307a f83d
00000360: bee0 65bf 017f d83e 8701 f6be a20a 6abf
00000370: 0047 d2bc 44dc 66bf 54fc 40bf e099 943d
00000380: 28fc 143e 281f 803e 1e77 2d3f 4cf6 a23e
00000390: e2b2 bbbd 80fb 2cbe 6b73 6e3f aa81 44bf
000003a0: 2a91 813e a2a0 293d 6d9d 103f dc48 b8be
000003b0: 4ace 5f3f 5a2c 3c3f 405c 4ebd 007b ee3d
000003c0: 74b1 7abf bc00 5f3f 20f9 063f 18c8 713f
000003d0: 204f dbbd 00cf 13be ac9f 78bf c0c2 ca3d
000003e0: 8c53 263f 6ce2 1c3f 1aca 15bf ab2c f13e
000003f0: 2f70 973e ccc4 54bf 64ed 6ebf df0a 56bf
-0.5060053 -0.009862542 -0.16588116 -0.05595815 0.9867307 0.7314148 0.861199 0.17294002
0.93312776 0.9239458 -0.026071064 0.9416785 0.48278654 0.21386206 -0.8513247 0.84965897
0.13484967 -0.4566368 0.15900242 -0.693365 0.72661275 -0.8398498 0.68536055 -0.76674914
-0.04404998 0.088614695 -0.12527943 -0.30938745 -0.2055726 0.11065677 0.3677737 0.0860883
-0.19987309 0.34935105 0.9007071 -0.5803015 -0.06427442 -0.3729018 -0.7759625 -0.6578325
0.18828511 -0.93575275 0.82596564 0.48512796 -0.9287493 0.4516543 0.30916786 0.5029266
-0.927312 -0.32177606 0.007075429 -0.8273089 -0.81794596 -0.09599169 -0.738796 -0.96045506
-0.8565623 -0.6714428 -0.58944595 -0.83634984 -0.43169904 0.05682206 -0.25867522 0.48495007
0.23012137 -0.56532156 -0.08911371 -0.5307839 0.5423877 -0.7675115 -0.7301103 0.4887346
0.30995396 -0.4217598 0.41830003 -0.7111064 0.66400063 0.7994367 -0.27342212 0.4485693
-0.8425069 0.941754 -0.10279465 0.013896942 -0.6236722 0.13986675 -0.06522336 -0.096785665
-0.8184159 0.4563162 -0.18287086 0.404032 -0.21206975 -0.23777175 0.4069022 -0.992476
0.77062285 -0.38577592 -0.72237647 -0.3989011 -0.65731215 -0.8986184 -0.8599508 -0.8336303
0.7746761 -0.20539188 0.8483645 0.03950357 -0.71643627 0.7118001 -0.66102684 -0.8553734
-0.113705486 0.67420304 -0.056267176 -0.022495389 0.3384031 -0.14115727 -0.4779104 -0.90001667
0.4981382 0.6813029 -0.49909627 0.7036179 0.8963977 -0.9041394 -0.85126 0.78556216
0.916404 0.9327436 0.92868775 0.839648 -0.25810647 -0.36543953 0.29486477 0.5925423
0.91831386 -0.22188568 -0.9971887 -0.50962615 0.6646855 -0.0020920038 0.7504158 -0.035785913
-0.211429 -0.5220611 0.6699276 0.26132083 -0.56088984 0.27393627 0.13024056 -0.5107436
0.0007785689 0.4147905 0.85261035 -0.6958705 -0.29943144 0.11130935 0.344666 -0.76391196
0.48876852 0.045728948 -0.098807104 0.42851877 -0.029178387 -0.10929558 -0.7378683 0.66139257
-0.373039 0.118326664 0.9978893 -0.30291831 0.26448894 0.42240834 0.7129056 -0.59715474
0.6671117 -0.18789804 0.23111375 -0.61910653 0.35979557 -0.9817901 0.397276 0.7646384
-0.7524539 -0.13590623 -0.43285382 0.13728991 0.3698423 -0.55878305 0.39488935 0.82730985
0.049514543 0.10133009 0.53512204 0.046001915 0.3744167 0.6368418 -0.7667532 0.51658034
0.53358805 0.5494336 -0.34757814 -0.029106949 -0.7593354 0.53309155 0.79443955 0.13811588
0.2938943 0.6322689 0.96990895 0.49592173 -0.15433381 -0.17207849 -0.1450289 0.121326804
-0.89796054 0.42284396 -0.4804804 -0.91422474 -0.025668621 -0.9017985 -0.7538502 0.07255912
0.14549315 0.2502377 0.67759883 0.31828535 -0.091649786 -0.16892815 0.93144864 -0.7676035
0.25306064 0.041412957 0.5649021 -0.35993087 0.8742415 0.73505175 -0.050380945 0.11644554
-0.9792702 0.87110496 0.52723885 0.94445944 -0.10708451 -0.14434433 -0.9711864 0.09900427
0.6497123 0.6128299 -0.5851151 0.4710439 0.29577777 -0.8311279 -0.9333098 -0.8361034

blocks.4.synapse.weight_g f4 [64, 1, 1, 1, 1]
00000000: 6ed5 6c3e d500 b73e 9839 3d3f 823c 243f
00000010: 4b36 bb3e 736e 163f 5284 f53e fe95 043f
00000020: 8f54 203f c9c7 073f 6db3 223f 1961 093f
00000030: 03a8 c13e e118 f83e c98a 0a3f 0206 153f
00000040: 26d7 2a3f dd95 173f 203b 383f ed99 073f
00000050: b842 3b3f 14b9 2e3f e395 123f 2082 013f
00000060: faa8 ce3e f0ca c13e 2ba1 013f f2b2 073f
00000070: 7293 3b3f 0bdb 0d3f 4258 023f c21f 453f
00000080: 4c38 213f c309 6a3f ea65 093f bba1 363f
00000090: 1eec c43e 05fc 9e3e ac6e 383f 5b84 063f
000000a0: 40d2 0a3f 9c6d 463f decb 243f 726d 463f
000000b0: 09c5 d83e 9af8 083f cc9a f53e b17a 0d3f
000000c0: 69dc 3b3f 72ab 603f c63e 393f 19be b93e
000000d0: 3c0f 113f 3814 283e 7af0 2c3f 8d19 243f
000000e0: bbe5 413f 8547 1e3f 7800 a03e a677 1d3f
000000f0: 8daf 1c3f 44e3 3a3f e5e7 033f fe64 343f
0.23128292 0.35742822 0.73916006 0.6415483 0.3656486 0.5876228 0.47952515 0.5179137
0.62629026 0.5303922 0.6355503 0.53663784 0.37823495 0.4845648 0.5411802 0.5821229
0.6673454 0.5921305 0.7196522 0.5296925 0.7314868 0.68251157 0.5725996 0.5058918
0.40363294 0.37850142 0.5063655 0.53007424 0.7327186 0.5541236 0.5091592 0.77001584
0.6297653 0.91421145 0.53671134 0.7134053 0.38461393 0.3105165 0.7204387 0.5254571
0.54227066 0.77511 0.64373577 0.7751075 0.42337826 0.53504336 0.47969663 0.5526534
0.73383194 0.87761605 0.7236141 0.36277846 0.5666387 0.16413963 0.6755444 0.6410149
0.75741166 0.6182788 0.31250358 0.61510694 0.6120537 0.7300303 0.5152572 0.704666

blocks.4.synapse.weight_v f4 [64, 4, 1, 1, 1]
00000000: 18ba 03be cc4b 283e a00d afbd 90e7 513d
00000010: 11ac 9aba 4fe1 84bd 948e a8be 14bf ff3d
00000020: b39f 12be 3a45 f2be 3095 fa3e 5d33 79be
00000030: a9a2 bd3e d311 803e 6ca3 ea3e b18c 7fbd
00000040: f12d 773d 20b8 c1bc 760d 8cbe 9046 6f3e
00000050: 1f1b b4be 48e0 e3be 00ab e33d 2dda c5bd
00000060: 1675 d33e c9a8 963d 1bb2 1abe 061c 2fbe
00000070: 75ef e8bd d875 b93e 6754 293e b71e a13e
00000080: 8086 4abe 843e eabe e06c a33c 90e4 c1be
00000090: cc1c a8be b066 3c3e 50a1 bd3e a0fb 4bbd
000000a0: eaa3 f2be 7153 e63c 55bb 84be 2b32 a93e
000000b0: 3730 ff3d 6308 3dbe c4da f5be c024 9f3d
000000c0: f057 943e 909c 053e c84f bfbd 7c0b 3b3e
000000d0: 8465 b73e 5c5c 75be 607b 81bd 986f 593e
000000e0: 8214 813e b259 f03e 183f 9d3d 5051 62bd
000000f0: d8a5 d7bd 88f5 30be 6496 70be 123e fc3e
00000100: 1e73 99be 7582 a23e 1c7a 163e bfdd f53e
00000110: 90e4 c93d b4cf abbe 826f ad3e 3287 ac3e
00000120: d985 f0be e23a f23d 070f c83e c092 ba3e
00000130: b066 b4be 58a3 953e d061 46bd cc29 863e
00000140: e8fa a9be 40a6 8c3e 8c0a efbe 669b b93e
00000150: 01be 883e d841 43be 72e9 c5be 7520 e8be
00000160: 8e8a 9cbe 6c30 cbbe dc1f 8fbe 1dcb 8f3c
00000170: e80c 113e 8028 a0bc 3ed9 e0be b066 533e
00000180: 8518 7dbe eb7f 45be 52c8 7fbe 868c ff3c
00000190: 5ecb a8be a410 303e 682b 83bd 005b f7bc
000001a0: fdef 5fbd 1e48 f1bb fce7 edbe 50f3 4b3e
000001b0: 1df1 f03d b9f2 b63e 6a11 0dbe b6db b2be
000001c0: 6fa8 d23e b459 7bbe dace c8be 4ccc ca3e
000001d0: bc8b b63e 0bde b03d 5493 33be 7cdd c1be
000001e0: 7d18 5b3e d25c 99be 191f 563e 1919 8f3e
000001f0: 5593 df3e 184d 143e 189c c83e 03ea f33e
00000200: 1196 35be 0272 dbbe 12ac cf3e 8fef ffbd
00000210: 19a6 fd3e e892 efbe bc8c f7be c62c bb3e
00000220: 065d 8bbe 2ccb 763e 487b c43e e01d bebd
00000230: de93 85be 58a4 c73e 7426 4b3e fcbb ff3e
00000240: afb5 233e c1f0 4ebd b4dc ae3e 9037 7bbd
00000250: 645b b6bd 5d8d 7dbe a27b 9f3d 345d 163e
00000260: 0dcf 19be c0c0 ee3e b7eb 97be 9614 e1be
00000270: 9e45 f63d 5fdd 7d3e aaae 89be 528c b8be
00000280: 0ed5 e9be 7df4 823e f06d f43d 161e aa3d
00000290: b28c f63e 8efb ba3e fe63 d2be bc37 843e
000002a0: 351f 2a3e a0b0 fcbe 0a34 9bbe 577e 6d3e
000002b0: 9a73 d93e c5a5 f5be 756c cd3e 8940 273e
000002c0: 5cfb 8ebe f6c5 d4bb 0dc5 45bd 472b a03e
000002d0: a37a e63e a0b7 363e c2e6 47be 3e80 d83d
000002e0: 2a1c b83d 0f9b 8b3e 4fae 9dbe 8062 6fbe
000002f0: fa47 913e 2d27 a83e 93ec 24be e4c9 98be
00000300: 5449 ebbe 75b6 63be 3064 9e3e c1b6 d8be
00000310: dab5 ffbe 79b9 af3e 0053 dd3e d823 f0be
00000320: 3f21 1d3e 26a4 d6be 78b6 e03e 4d06 b83e
00000330: e8ab d2bd 70ec 5abe 000b 1c3b 8882 8cbe
00000340: 089b 4d3d ff1e b4be ee44 863d a5b8 de3e
00000350: 6812 e9bd c01f 1abc 001b 583d 70f2 d7bd
00000360: d548 04be a76a 95be 61e8 d73e 37db d8be
00000370: 6e8d cebe 2842 163e cc7c b03e 8a1a a8be
00000380: 46c3 f33e 9cbd 3d3e 3237 9ebe a69a ee3e
00000390: 1c6d e73e 01b7 683e ba9f a0be 15da 233e
000003a0: 3349 50be b7f3 823d 4294 6a3e aaa4 afbc
000003b0: b865 8abd 0c1d cb3e c06e b1bd 6804 ea3e
000003c0: c2da dabe dd6b 813e 816e 923d 49f0 b4be
000003d0: e8d7 083e fefc eb3e a085 8fbe be5b f23e
000003e0: 444f 633d b935 2fbe ea0f f83e 458d c4bc
000003f0: fca5 9f3e 407e b13e 798f f8be 3372 5cbe
-0.12863958 0.16435164 -0.08547521 0.051246226 -0.0011800547 -0.06488287 -0.32921278 0.12487617
-0.14318733 -0.4731844 0.48941946 -0.24336 0.37038162 0.250136 0.45827806 -0.062390033
0.060346548 -0.023647368 -0.2735402 0.23366761 -0.35176942 -0.4450705 0.111166 -0.09660754
0.41300267 0.07356412 -0.15107004 -0.17100534 -0.11373798 0.3622272 0.16536103 0.31468746
-0.1977787 -0.4575082 0.019949377 -0.37869692 -0.3283447 0.18398547 0.37037134 -0.049800515
-0.47390682 0.02811596 -0.25924173 0.33046088 0.12460368 -0.1846023 -0.48018467 0.077706814
0.2897334 0.13048005 -0.09341389 0.182661 0.35819638 -0.23961014 -0.0632236 0.21233976
0.2521096 0.46943432 0.0767805 -0.055253327 -0.10529679 -0.17281163 -0.2349487 0.49266106
-0.2997064 0.31740156 0.14695019 0.4802074 0.09858048 -0.33556902 0.33874136 0.33696896
-0.46977118 0.11827637 0.39073965 0.36440086 -0.35234594 0.29226184 -0.048433125 0.26203763
-0.3319924 0.2747059 -0.46687734 0.36251372 0.2670746 -0.19068086 -0.38654667 -0.45337263
-0.3057446 -0.3968538 -0.27953994 0.017552907 0.1416508 -0.019550562 -0.43915743 0.20644641
-0.24716385 -0.19287078 -0.2497876 0.031194936 -0.32967657 0.17193848 -0.064047635 -0.03019476
-0.05467223 -0.0073633334 -0.46466053 0.19917035 0.11764739 0.35732058 -0.13776174 -0.3493325
0.4114413 -0.24545938 -0.39220315 0.3960899 0.35653484 0.08636101 -0.1753667 -0.37864292
0.2139606 -0.2995363 0.209103 0.27948835 0.43667093 0.14482534 0.3918159 0.47639474
-0.17733027 -0.4286042 0.40560967 -0.12496864 0.49540785 -0.46791768 -0.4834956 0.36557597
-0.2721941 0.24100941 0.38375306 -0.09283042 -0.26089376 0.38992572 0.19838887 0.49948108
0.15987276 -0.05052257 0.34152758 -0.061332285 -0.0890415 -0.24760957 0.07787253 0.14683992
-0.1502039 0.46631432 -0.29672024 -0.43961018 0.12024997 0.24791478 -0.2689107 -0.36044556
-0.4567036 0.25577155 0.119350314 0.0830652 0.48154217 0.36520046 -0.41091913 0.25823772
0.16613467 -0.49353504 -0.3031314 0.23192726 0.4247101 -0.47978035 0.4012181 0.16333212
-0.27926147 -0.0064933253 -0.048283625 0.31283018 0.4501544 0.17843485 -0.19521621 0.10571335
0.08989747 0.27266738 -0.3079705 -0.23377419 0.28375226 0.3284239 -0.16105871 -0.2984153
-0.45954382 -0.2223757 0.30935812 -0.4232693 -0.4994343 0.34321192 0.43227386 -0.46902347
0.15344714 -0.4192211 0.43889213 0.35942307 -0.10286695 -0.21379256 0.0023810267 -0.27443337
0.050196677 -0.35179898 0.06556116 0.43500248 -0.11380464 -0.009406984 0.052760124 -0.10544288
-0.12918408 -0.29182932 0.4216948 -0.42354748 -0.40342277 0.14673674 0.34470212 -0.32832748
0.4760992 0.18529361 -0.30901486 0.46602362 0.4520043 0.2272606 -0.31371862 0.1600116
-0.20340423 0.06394141 0.22908118 -0.021440823 -0.067576826 0.39670599 -0.08663702 0.45706487
-0.42745024 0.25277606 0.07149983 -0.35339573 0.13363612 0.46091455 -0.28031635 0.4733562
0.055495515 -0.17110337 0.4844964 -0.023993144 0.31181324 0.34666634 -0.4854696 -0.21527939
