MNIST/20:16:35:Apr-12-23/network.pt (torch, 430575 bytes, 6 tensors)

blocks.0.synapse.weight f4 [16, 1, 3, 3, 1]
00000000: c723 c5bf 587f 8bbe c07f f13e aa92 e6bf
00000010: 96cf b3bf ec8c 843e 9318 76bf f6f0 a9be
00000020: 5c28 4ebe 488a 4f3e 95a2 2f3f a46e ad3e
00000030: 0f3b e3bd b6ce 7c3e a2e4 09bd cf1c 88be
00000040: bf55 d1be c060 b4be beb3 0fbc 3754 1a3f
00000050: 2747 e13e e85f 373d 8b12 013c 608a 36be
00000060: de75 c7bd 6b5f 49bd 9043 86be 4dfb a4bf
00000070: 9601 82bf 9f29 893e 3ac6 d6bf c3a6 71bd
00000080: 94a1 083f 0a6d 38bf fb78 57be eb0d c73e
00000090: 3e12 d53c 2a9e babf 0527 7cbf 5b4c d0bc
000000a0: e76e afbf c3cd b0bf 88b7 00be 5ee5 e3be
000000b0: 19b5 23bf d10e 4d3e 6c55 c83e 5f8b b03d
000000c0: 533f 283e a61b e6bd 5f1f c7be d9f4 febc
000000d0: 9ad6 aebe 4453 21bf 46be b23e 1822 4cbf
000000e0: 9dc1 d5bf ab7c 713d cb05 93bf 32ac e7bf
000000f0: bb3b a2bd 026a 2bbf 6d41 83bf 5dd8 543e
00000100: a6ca dcbf f145 0dc0 d457 353d 9a23 c9bf
00000110: b9b3 00c0 1893 8c3e ad7d 8ebf 6426 50bf
00000120: e61c 4b3e 0a6a adbf efcf e9bf 9309 14bf
00000130: c944 16c0 c8fe bebf 7ad9 15bf fd3f 97bf
00000140: 4616 65be c4b5 bebe f89e 79be 0793 33bf
00000150: dfc9 023e 4891 1cbf 6079 11bf f1df 0cbe
00000160: d453 2ebf 88d3 0cbe c7a4 b0bf 8aed dabf
00000170: a9a8 9ebe cca7 a4bf c259 50bf 326b d33e
00000180: e70c 33bf 3b38 72be 9253 c73e f417 1d3e
00000190: 7f79 2d3f a0e9 7d3e ae21 923e aa0b 3b3e
000001a0: 7870 393d e5fe edbc 1433 11be 4db1 a3be
000001b0: f4f5 70bf 7251 97bf bbb0 4e3d 72e0 60be
000001c0: 1bee 76bf 5319 53bf 104e 0e3f cb1e 283f
000001d0: 4889 8c3e cd32 2d3e b92d 123e 75de db3e
000001e0: c0de c83e 30f1 f03e 0bf1 713c 8525 67be
000001f0: 1ea6 8a3c d17e e6bb b00c 053e 3a58 c13e
00000200: 6043 193f e09a 453e 7a00 8f3e 3cdd 373e
00000210: 7f0c b6be 1f36 9cbe c741 d63e 7385 713e
00000220: bcf6 c23e e742 a03e 56df 383e b246 fa3d
00000230: 79f0 323b cc05 eebe 3edf c5be d0e7 8cbe
-1.5401543 -0.27245593 0.47167778 -1.8013508 -1.4047725 0.25888765 -0.9613125 -0.3319165
-0.20132583 0.20267594 0.68607455 0.33873475 -0.11095249 0.24688229 -0.033665307 -0.2658448
-0.40885732 -0.35230064 -0.008770881 0.6028475 0.43999597 0.044769198 0.007877956 -0.17826223
-0.09739278 -0.049163263 -0.2622342 -1.2889191 -1.0156734 0.26789567 -1.6779244 -0.058996927
0.5337155 -0.7204138 -0.21042244 0.38877806 0.026009675 -1.4579518 -0.9849704 -0.025427034
-1.370572 -1.3812793 -0.12570012 -0.4451093 -0.6394821 0.20025183 0.39127672 0.08620333
0.16430406 -0.11235742 -0.38891122 -0.031122612 -0.34148103 -0.6301768 0.34910792 -0.7973952
-1.6699711 0.058956783 -1.1486143 -1.8099425 -0.07921549 -0.6695863 -1.0254341 0.20785661
-1.7249343 -2.207394 0.044273213 -1.571399 -2.0109694 0.27455974 -1.1132103 -0.8130858
0.19835243 -1.3547986 -1.8266581 -0.5782711 -2.3479483 -1.4921503 -0.5853497 -1.1816403
-0.22371778 -0.3724805 -0.24377048 -0.7014622 0.1277232 -0.6115918 -0.5682583 -0.13757302
-0.6809666 -0.13752568 -1.3800286 -1.7103741 -0.30988052 -1.2863708 -0.8138696 0.4129272
-0.6994156 -0.23654263 0.38930947 0.15341169 0.67763513 0.24796152 0.2854132 0.18266168
0.045273274 -0.029052207 -0.14179641 -0.31971207 -0.94125295 -1.182173 0.050461512 -0.21960619
-0.9645707 -0.82460517 0.55587864 0.65671986 0.27448487 0.1691391 0.14275254 0.4294316
0.39232445 0.4705901 0.014766942 -0.22572906 0.016924914 -0.0070341607 0.12993121 0.37762624
0.5986843 0.19297361 0.2793005 0.17955488 -0.3555641 -0.3051004 0.4184706 0.23586063
0.38078868 0.31301042 0.18053946 0.12220515 0.0027303977 -0.46488798 -0.38646883 -0.2752061

blocks.1.synapse.weight f4 [16, 16, 2, 2, 1]
00000000: 944a 1cbe fd2d acbe 8158 15bf 82cd d3bd
00000010: c8a2 9d3d d082 843e dcd8 d63d 36fd a43d
00000020: e47b dc3c 434f 4c3d a767 81be d780 debc
00000030: 33fd 07bf 8d26 e5be 875c bfbe bcbe 6cbe
00000040: adba b7bc e130 c03d 75af 22be 2937 0ebd
00000050: bf3b c2be 9a6d f2bd 6a82 84be b274 72be
00000060: 705d 92be 9624 c2be 3fcd efbe c61a a4be
00000070: 3801 0cbf c417 20be 2160 c9be 5461 5fbe
00000080: 1de0 823d 5804 92be dcca 26be d266 82be
00000090: c3c2 ae3d 51a9 b9bd b511 3cbe 1692 52be
000000a0: cf1b 5dbe dbe6 7cbe 3186 3cbe 22bf 44be
000000b0: a3e6 a3be aabe eebd faf1 94be 50b9 c6bd
000000c0: 8fa7 b3bd bc5a 6e3e 307b 0f3d 7113 4a3e
000000d0: e2ed f9be 052b 9abe 24e4 23be 1cb5 76bd
000000e0: 8695 473e 40c1 b53e 1b37 613e 04cd 563e
000000f0: 497e 7d3d e065 6e3e aa3e c3bc 8b15 433e
00000100: 021b c7be b6a3 17bf a5d8 a5be 063c afbe
00000110: bc19 37bf 914a 95bf 3947 c3bf 09f7 aabf
00000120: 8e28 9ebe a34b 9fbe 05ca d2be 2f32 53bf
00000130: efe6 12bf b96a 0fbf 5069 4bbe d80c fa3d
00000140: 4437 83bd be43 9ebd da67 a73c 044e b8bd
00000150: 71ac bebe bc1d c1be 4780 06bf de00 d9be
00000160: 87eb ecbd f05a 6cbe dc6b 35be eeff 94be
00000170: c978 bdbe 406b 85bd 51d1 8abe a3ea d7bc
00000180: 3fbf 983e f2af 2e3e 5468 b9bd ae7a 87bc
00000190: ff2c 1bbd eb92 57bd 47bf 74bd 963a 11be
000001a0: 77a5 8bbe 5443 a8be 4204 193d 1d15 593c
000001b0: e8de b4be 7dd2 74bf 1c80 2abf 1ff2 51bf
000001c0: d3ba 19be 9a90 6ebd db04 1f3e b907 ab3e
000001d0: 4420 86bf e046 79bf aa19 f1be a23c 09bf
000001e0: 9db5 cdbf b3a4 64bf 4427 79bf 68e9 aebe
000001f0: 2687 40bf 9d30 59bf 23f6 85bf b00b 90bf
00000200: a120 4cbe 2a85 52be bbbb b03e 5373 bebc
00000210: 5ffe f4be 88ad cabf 239d c7bf 4bb5 7cbf
00000220: 00d5 2fbf 0b5c 6abf 7ee3 4bbf 1366 40be
00000230: a59e d73e aca8 533e 41cf f73e fe0d 663e
00000240: 0c37 f1bb 3d62 bb3d ca0d 8b3d b50b 093e
00000250: cbb2 9c3d 508d 27bf c8ac 0bbe bf9a 80be
00000260: 1702 bd3e c806 dfbd a60a bbbd dbb9 54be
00000270: 8aba e53d cd12 633e d711 61bd 5020 af3e
00000280: 7a10 083f 7067 3b3e 67b3 d93c 8420 283e
00000290: 9943 f33d 7253 95bc 1e07 2fbe 351f 063e
000002a0: f145 1a3f 2fc5 a43e 43c8 1a3f 9140 f13e
000002b0: 610e 10bf 48b4 c6bf 5f2f e2be 932b cbbe
000002c0: a565 813d 79d9 223e cfe6 1a3e 3f68 cd3e
000002d0: 99ce 18bf 63c1 91be da37 8fbd 398f da3d
000002e0: 2704 bfbe 02bd 62be 9331 cb3d 82e1 273d
000002f0: c32f 8abd 7ec4 9ebf d284 8bbf 5709 2cbf
00000300: 6fef 103f c186 1a3f 7519 323e 63d5 833e
00000310: 3241 c43d f942 343e efd5 33bf 0fc6 99be
00000320: af74 8d3e adc5 a13e 5aa7 1abf 2ae2 efbd
00000330: cd68 ab3e cae9 be3e 1e05 be3e 455b 883e
00000340: 3df7 4ebc 8886 833d 1d65 66be 9485 213e
00000350: 6699 913e 8d16 fb3e f32f 263e 2283 7a3c
00000360: 55e8 a2bd bbce 1f3f e4d4 09bc 8c59 823e
00000370: 8715 403d 88be e83e 1587 e73d 2252 c93e
00000380: 8dcf c83e e074 823e 1efa 25be 9e71 5d3e
00000390: a365 e0bc cadb 453d 4c9c 3bbe 8720 6f3d
000003a0: fa81 053f a858 f23e a4c6 bb3e 27fb 0c3f
000003b0: e837 ebbd 2ae0 f1bd 694f 70be 9704 01be
000003c0: 7e29 053f 0847 1a3f 6423 193f 435d 0e3f
000003d0: 5c1b 01be 023d 57be 0d10 873a f176 2e3e
000003e0: 6a6a c63d 7267 3a3e d08c 3b3d bc54 1e3e
000003f0: 9d63 a83d f99e 6e3e a2fa 48be a648 48be
-0.15262824 -0.33628836 -0.5833817 -0.10341932 0.07697064 0.25881052 0.104905814 0.08056109
0.026914544 0.049880277 -0.25274393 -0.027161045 -0.53120726 -0.44755974 -0.3737528 -0.23119634
-0.022427881 0.09384323 -0.15887244 -0.034720574 -0.37936208 -0.11837311 -0.25880748 -0.23677328
-0.28586912 -0.37918538 -0.46836278 -0.32051677 -0.5468936 -0.15634066 -0.39331153 -0.21814471
0.063904025 -0.2851894 -0.16288322 -0.2546907 0.085332416 -0.09065498 -0.1836613 -0.2056354
-0.2159264 -0.2469744 -0.18410565 -0.19213536 -0.320119 -0.1165746 -0.29090863 -0.09703314
-0.08772194 0.232768 0.03502959 0.19733979 -0.48814303 -0.30110946 -0.16004997 -0.060231313
0.19490632 0.35499 0.21993677 0.20976645 0.061888013 0.2328105 -0.023833591 0.19051187
-0.38887793 -0.5923418 -0.3239185 -0.34225482 -0.7152364 -1.1663381 -1.525611 -1.3356639
-0.30890316 -0.31112394 -0.41169754 -0.8249845 -0.57383627 -0.5602222 -0.19864392 0.12209481
-0.064070255 -0.077277645 0.020435262 -0.08999255 -0.37240937 -0.37717998 -0.52539486 -0.42383474
-0.11568361 -0.23081565 -0.17716926 -0.2910151 -0.37006214 -0.06514597 -0.2711282 -0.026357
0.2983341 0.17059305 -0.09053102 -0.01653799 -0.03788471 -0.052630346 -0.05975273 -0.14182505
-0.27274677 -0.32863867 0.037357576 0.013249663 -0.35326314 -0.9563368 -0.6660173 -0.8201007
-0.15012674 -0.05824337 0.15529196 0.3340433 -1.0478597 -0.9737377 -0.47089893 -0.53608143
-1.6071049 -0.8931381 -0.9732554 -0.3416245 -0.7520622 -0.84839803 -1.046574 -1.1253567
-0.19934322 -0.2055861 0.34518227 -0.02324835 -0.4785032 -1.5834208 -1.5594829 -0.9871413
-0.6868439 -0.91546696 -0.79644 -0.18788938 0.42113224 0.20669812 0.4840031 0.22466275
-0.0073612984 0.09149597 0.067897394 0.13383372 0.076512896 -0.6545 -0.1364013 -0.25118062
0.36915657 -0.10889965 -0.091328904 -0.20774023 0.1121722 0.2217514 -0.054948654 0.3420434
0.5315014 0.18301177 0.026574804 0.16418654 0.118781276 -0.018228266 -0.17092559 0.13097842
0.6026297 0.3218169 0.60461825 0.47119573 -0.5627194 -1.5523767 -0.44176766 -0.39681682
0.06318215 0.15903272 0.15127109 0.40118596 -0.59690243 -0.28467855 -0.06993075 0.10671849
-0.37307855 -0.22142413 0.09921565 0.040986545 -0.06747391 -1.2403715 -1.0899909 -0.6720175
0.56615347 0.6036187 0.17392524 0.2574874 0.095827475 0.17603673 -0.7024831 -0.3003392
0.27628085 0.31596127 -0.6041161 -0.11713059 0.33478394 0.37287742 0.3711328 0.26632133
-0.012632188 0.06422144 -0.22499509 0.15773612 0.28437346 0.49040642 0.16229229 0.015290054
-0.0795447 0.6242482 -0.0084125735 0.25458944 0.04689553 0.45457864 0.11305062 0.39320475
0.3922085 0.25479794 -0.16208693 0.21625373 -0.027392214 0.04830531 -0.18321341 0.05838063
0.52151453 0.47333264 0.36674988 0.5507073 -0.11485273 -0.11810334 -0.23467793 -0.12599407
0.5201644 0.60264635 0.59819627 0.55611056 -0.12608093 -0.21019366 0.0010304466 0.1703756
0.096882656 0.18203524 0.045788586 0.15462011 0.08222125 0.23302831 -0.19626859 -0.19558963

blocks.2.synapse.weight f4 [16, 16, 3, 3, 1]
00000000: b79e 5b3d d271 353d 4d92 fa3d 54c8 0ebe
00000010: b2c2 67bd 1324 803e 6830 4b3d e394 8fbc
00000020: 57e0 be3a 03f4 9a3e 2e32 95bd 1891 9abd
00000030: f8b3 9abb 651e 7fbe 78f8 f53c 1f7e 8bbe
00000040: a5e8 2c3d f01e bbbd a5bd a33e 4d4c 21be
00000050: e7c1 dbbe 3082 583e f987 073e 266c 4c3d
00000060: 8376 e5bc 7c93 983d 167e d93d 33ab 453e
00000070: 7ad8 713d b16f 33bd 387f 9cbc fe96 de3e
00000080: 4bd8 273e 82f5 54bd f0dc cf3d 0c50 4c3d
00000090: 4d55 dcbd 5e0b 163e eda4 2b3e d6fd 8dbe
000000a0: cbbb 15be b9f6 d5bd a84c 673d 3724 0abe
000000b0: 434a 51be 8302 c6be b0a2 8d3d ae5a a6bd
000000c0: 7eea 12bf f341 3fbf ce13 15bf 603d bb3d
000000d0: 6b40 2c3d 9f43 cbbe e63a 95bb 99a6 5a3e
000000e0: 16de b03d d245 8dbe cc3c 423e b7dc 413e
000000f0: f4dd e03d ef09 2ebe e724 a4be d549 d3bd
00000100: 5bd2 b73c 9abb 513e 1f71 863c c7a0 89bd
00000110: c15f cb3c d8d3 a6bd 6349 8abd c0b5 2f3e
00000120: e3f6 1bbf d1e7 6ebe 56cf 9dbd d6c5 82be
00000130: 55e9 2abe be23 33bf f0d7 96bd e420 5ebe
00000140: f3bc 37be 712b c5be 1547 4f3d 0d39 343e
00000150: ff58 6abe c6b8 b1bf 2881 21bf bd12 e6bb
00000160: f91b ee3c 6d8a 65be e91b 98be 8d85 81bc
00000170: 9278 f93c 8d04 08be d203 95be 772d a5be
00000180: 5c9c 16be ea0d 2fbd 31f7 87be f459 a4bd
00000190: fefa 3e3e 5947 193e 4faf 27be 4b66 3cbd
000001a0: 3b1d df3b 1150 45bd 2377 02bd 1f8e e73b
000001b0: b3ce 09be e335 833e 0109 333e edff eabe
000001c0: cedc 09bf e8fd 86be 4b0a eebc 73d6 143d
000001d0: 73f6 74bd f908 0dbe 3f4b 433e 384d 373e
000001e0: 803e 93bc 32b3 4cbd 86b0 efbd e17a d03d
000001f0: 6963 b23d 37f3 bb3d 2092 0b3a 4f89 a73d
00000200: 2043 ef3d fb8a 8dbe 844a 053d ebea 993e
00000210: 6884 803d fa62 143d 001a 17be 2b29 d6bc
00000220: b85c 533d f774 f83d b6c0 26be dbd9 3abd
00000230: 151c 813d 57da 38bd 170a 02be 3c09 61bd
00000240: 81f4 b7bd 7f85 9abf 3505 b1bf 2971 f4be
00000250: a515 96bf 0d6c 9cbf 9557 40bf 8428 50bf
00000260: e473 27bf ea66 82be 5ba5 15bc 9429 0ebe
00000270: 7042 8cbd 5ee4 a9bd 22c5 44bd 2264 8abd
00000280: 5e11 febb e523 0fbe a9df 813d b8ae bd3d
00000290: b46b a6be 01a6 fe3d c974 d0bd 12e1 8b3e
000002a0: e40a adbd 73e0 1a3e ab53 d63d d7dd 153e
000002b0: edc8 a63d 043d 16bf 82e7 13be 3bce 83be
000002c0: 99cd e63d 09e5 843e 59da bdbe 09b4 973d
000002d0: a7af d53d 3779 b7bf 63b0 03c0 74bf 1cbf
000002e0: 59ac f8bf 047b 03c0 d758 a5bf 1ec3 f2bf
000002f0: 7084 1ebf bcc2 9a3e 9244 8dbf 7374 e1bf
00000300: 6332 c7bd 7854 e4bf bc22 0abf 1fd2 d1bd
00000310: 37c6 c4bf 8beb 933d c20d 853c be38 7bbf
00000320: e79f 94bf 214e e9be eb72 99bf 83d5 b3bf
00000330: 73ab 55bf 532a a4bf 3a08 87bf 4980 bd3d
00000340: eae2 a7be 1eff 54be 4cb6 80be 717e d3be
00000350: 7ea9 53bd 89f4 9abe ec66 c4be 465e 2cba
00000360: 920f bf3b 08b3 b4bd 8959 bfbd 00c6 21be
00000370: 3dff 14be 09f8 3f3e 7bab edbc e233 edbe
00000380: 6195 fdbd 47e9 ac3d d14e 12bf aee1 68bf
00000390: 8aa3 12bd d6fb 82bf e153 c3be 5b95 a5be
000003a0: 8710 a0bf 81dc 1cbe cc3e 4fbd 0257 a8be
000003b0: 1dc1 04bd 603c d2be 5de9 3fbe b014 b83d
000003c0: 91ee 42bf 3f4e dfbe 52c8 31be e3b5 4dbe
000003d0: 6072 72bf c4d3 c9bf 1501 5dbf 7f68 cbbf
000003e0: fa03 a8bf c0d2 29bf 1df5 84bf b0c1 24bf
000003f0: 9b1a d3bd cd52 e7bd 047b 4bbf d0dd e83b
0.05361816 0.044298 0.12234936 -0.13943607 -0.05658216 0.25027522 0.04960671 -0.01752705
0.0014562708 0.3026429 -0.07284962 -0.07547206 -0.004721161 -0.24913938 0.030025706 -0.2724466
0.042214055 -0.0913676 0.31980625 -0.15751763 -0.42921373 0.21143413 0.13235463 0.049907826
-0.028010612 0.074500054 0.10619752 0.19303589 0.05904434 -0.04380769 -0.019103631 0.43474573
0.16391103 -0.051991947 0.10149562 0.049881026 -0.10758457 0.14652774 0.16762133 -0.27732724
-0.14622419 -0.10447449 0.05646959 -0.13490377 -0.20438485 -0.3867379 0.06915796 -0.081227645
-0.57389057 -0.74710006 -0.58233345 0.09142566 0.04205362 -0.39700028 -0.0045541404 0.21352614
0.086361095 -0.2759233 0.18968505 0.18931852 0.10979834 -0.16995977 -0.32059404 -0.10316817
0.022439172 0.2048172 0.016411362 -0.06720119 0.024825932 -0.08145875 -0.06752279 0.17159176
-0.60923594 -0.23330618 -0.07705562 -0.25541562 -0.16690572 -0.69976413 -0.073654056 -0.21692234
-0.17943172 -0.38509706 0.0506049 0.17599888 -0.22885512 -1.3884513 -0.630877 -0.0070212767
0.029066073 -0.22416086 -0.29708794 -0.015810752 0.030453 -0.13282986 -0.29104477 -0.3226125
-0.14708084 -0.04273788 -0.2655578 -0.0802497 0.18650433 0.14968623 -0.16375469 -0.04599599
0.0068089045 -0.04817206 -0.0318519 0.0070665027 -0.13457756 0.2562705 0.17483903 -0.4589838
-0.53852546 -0.2636559 -0.029057642 0.036337327 -0.059805345 -0.13772954 0.19071673 0.1790055
-0.017974138 -0.04997558 -0.11703591 0.10179687 0.08710367 0.09177249 0.00053242035 0.081804864
0.11682725 -0.27645096 0.032541767 0.3006204 0.062752545 0.036227204 -0.14756012 -0.026142677
0.051602095 0.12131684 -0.16284451 -0.04561792 0.06304184 -0.0451301 -0.12699161 -0.054940447
-0.08982182 -1.207199 -1.3829714 -0.47742584 -1.1725355 -1.2220474 -0.7513364 -0.8131182
-0.6541121 -0.25469142 -0.009133662 -0.13883048 -0.068486094 -0.08295511 -0.048039563 -0.0675738
-0.007753535 -0.13978536 0.06341488 0.092618406 -0.32504046 0.124340065 -0.10178525 0.27320153
-0.08449343 0.15124683 0.10465177 0.14635406 0.08143792 -0.5868685 -0.14443782 -0.2574328
0.112696834 0.2595599 -0.3708065 0.07407386 0.10433894 -1.4333867 -2.0576408 -0.61229634
-1.9427596 -2.0543833 -1.2917737 -1.8965795 -0.61920834 0.30226696 -1.1036551 -1.7613662
-0.097264074 -1.7838278 -0.5395925 -0.102451555 -1.537299 0.07222661 0.016241912 -0.98133457
-1.1611298 -0.4556742 -1.1988195 -1.4049534 -0.83464736 -1.2825416 -1.0549386 0.09252984
-0.3279031 -0.20800444 -0.2513908 -0.41307405 -0.051675312 -0.3026469 -0.38359773 -0.0006575327
0.0058307135 -0.0882321 -0.09343249 -0.15798187 -0.1455049 0.18746962 -0.029012432 -0.46328646
-0.123820074 0.084429316 -0.57151514 -0.9096936 -0.035800494 -1.0233104 -0.38149932 -0.32340512
-1.2505044 -0.1531849 -0.050596997 -0.32878882 -0.03241073 -0.41061687 -0.18741365 0.08988321
-0.76145273 -0.43614385 -0.17361572 -0.20088916 -0.9470577 -1.5767751 -0.86329776 -1.5891265
-1.3126214 -0.66337204 -1.0387303 -0.64358044 -0.10307809 -0.1129509 -0.7948458 0.0071065202

blocks.3.synapse.weight f4 [16, 16, 2, 2, 1]
00000000: 97ce a3be 96b4 18bd ea23 f43b 1a89 683d
00000010: 263d 353d 8585 0c3d 0ad0 fb3c cb6a 5d3d
00000020: 940c c3bd 53da ccbd d54d 17be b9cd 5ebb
00000030: 3d04 1bbf aa89 c13a 024b d5ba ac76 f5bd
00000040: ac6b 993e 97d8 ea3d 5f5b cb3d da85 7abe
00000050: 496e 383b 51e4 87be acc7 183e 016c ae3c
00000060: 8525 88be efc1 cabd 6b8e 9abb 0ae7 4c3d
00000070: 3851 0cbd 86c5 713d 6ff8 043e b271 3bbd
00000080: d826 ccbd d0e9 5fbd 233b 60be f6c1 88be
00000090: 9695 15bc 4dda 0cbd c7f1 2ebd c6a4 81bf
000000a0: c5df 4bbf 1a7b d7be 0d80 98be 2275 8dbe
000000b0: 6251 873d 64ca 49bd 8ed3 01bd b8e2 fcbd
000000c0: 8302 733d aa58 16bc 4e5e a13c 0a42 ebbb
000000d0: 9f1a df3c 922d 97bd da4a 2b3d f05a be3d
000000e0: d021 6fbe cb62 51bc dda6 693c 24fd 03bd
000000f0: e893 15be 85e7 74bf c7af 04bf 6d77 30bf
00000100: d899 403d fd52 1f3c 0d65 1d3d 2856 ac3c
00000110: 00a8 dabd 5d65 dabe 89ab e23c 4782 bfbe
00000120: d750 75bd f999 24bc c962 853a a1de 2ebd
00000130: 99ce 973d 223d 1f3e c14a 23bf 43c2 8a3c
00000140: 7e90 9d3c 39be 3a3e d1c3 ac3c 47f0 703d
00000150: 11d8 9cbd 44f0 563d d9a1 6dbe 4d55 f73d
00000160: 7733 b3bd 154f b13d d4bf bbbe 4391 31be
00000170: 70a5 023d fd05 a0bc cd1b 85be d5c3 a8bd
00000180: 2b67 02bd a991 76bd 1b28 88bc 4845 483d
00000190: 1a0c c8bd 3338 dfbe 2306 7ebe 2bb1 91be
000001a0: 6ac8 5ebc 19e8 6f3c 363f f53c 2866 d23c
000001b0: 5407 03bb f363 acbc 6eda f7be 73e7 0dbf
000001c0: 2187 bdba 11cd b5bb 92d4 fb3c afc3 0e3d
000001d0: 276a 2abd 8e62 2c3e 095f 77bd e6d4 9e3d
000001e0: 9b12 83bd 3675 eebd e47d 52be 3687 b5bd
000001f0: 38b8 1cbf 195e 42be 6609 38bb e9d1 073e
00000200: 1ef7 93be c8b6 cdbe 07e9 2abd 8d88 5abe
00000210: 2e9e 0d3d bb1e 783d 376f f6bb 314c cfba
00000220: 109d 103d 385b dd3d 1199 0ebf 27be e1be
00000230: fe1b 633d 9f73 bf3d a0c6 02bd 36e0 cdbc
00000240: fb10 7ebc 6044 833c 99a3 6cbd 9af1 833d
00000250: 91ef c23c 6574 543e fa9f 433d 5d19 ba3d
00000260: 8d4b 15bc 293a 1d3e 9f6f 8fbc 51ad 363d
00000270: cc53 f0bb 4e8b c1be 996a 4a3c 095c b0bc
00000280: 0a2c 5ebd a1bb 243d defe 633a b88f c0bd
00000290: c308 84be 14b0 75be e49d ecbb 27d6 003c
000002a0: 726d 22be 7c12 43bd 0bcb 0dbe b32d a3bd
000002b0: 3ed6 0dbf cc09 15bf dc85 03bf e990 09be
000002c0: f17a 2b3c 2887 38bc 35e7 17be bd1b 5fbe
000002d0: ca85 bebd 96eb 063e b42e 91bc 0a9d afbd
000002e0: f601 fb3c 550a 6ebb 60be 683d d933 8e3c
000002f0: 2b35 033e 98de 523d 2c0e ff3d 02fd 4e3d
00000300: a11c b5bc 47b7 a33b 13e7 b93c 2e74 5e3c
00000310: c8d2 14be 9a4d 2bbe 9c3b 8fbe 29b7 683c
00000320: bcaa 52bc 5b78 bdbc 33ea 15bf 0400 f2be
00000330: 01bc 56be be26 273d f020 3abd 0d0b 3d3d
00000340: 1cc0 63be 35ef 0fbc 2acd af3d 1bfb 5dbd
00000350: 4bbc 23be 842b 673c f21c ba3d f89e 97bc
00000360: 63d1 cdbe ff0e 1a3d 8dea 09be 4473 bc3c
00000370: d093 cbbd 394d 83bd b032 afbd e1c8 c0bc
00000380: bedf d4bc ab28 7ebd 9a95 19bd f2f6 04bb
00000390: b2b3 fbbd f666 3c3a 9452 dcbd b1bc 86bc
000003a0: dacc e5ba 17d9 063d 82a3 163d 1ce0 593c
000003b0: be9a 12bd 352c 03be 53d3 323d 87b0 78bd
000003c0: 6b3b cabd f479 56be d65e 9b3c 1134 193b
000003d0: 0fff 69be 7147 5f3d 116b 28be 1a87 213e
000003e0: b9c7 8cbe 4748 2fbd 0307 a8bd e0ba 70bc
000003f0: 5c5c 63be e705 cebd f219 3ebe ed23 92bd
-0.31993553 -0.037281595 0.0074505704 0.056771375 0.04424777 0.03430702 0.03073885 0.054056924
-0.095238835 -0.100025795 -0.14775784 -0.0033997132 -0.6055334 0.0014765759 -0.0016272964 -0.119855255
0.2996496 0.114670925 0.09929537 -0.24465123 0.0028141907 -0.2654138 0.14919919 0.021291735
-0.26591125 -0.09900271 -0.0047166846 0.050025024 -0.034257144 0.059026264 0.12985395 -0.045762725
-0.09968346 -0.05466634 -0.21897559 -0.2671048 -0.009129902 -0.034387875 -0.042711046 -1.012841
-0.7963832 -0.42086107 -0.29785195 -0.27628428 0.066073194 -0.04926528 -0.031695895 -0.12347931
0.059328567 -0.009176413 0.019698288 -0.0071795033 0.027234374 -0.07381739 0.04181943 0.09294689
-0.23352742 -0.012779902 0.014260975 -0.032223836 -0.14607203 -0.9566577 -0.51830715 -0.6893223
0.047021717 0.009724376 0.038426448 0.021037176 -0.10676575 -0.4265546 0.027669685 -0.3740408
-0.059891548 -0.010046476 0.0010176535 -0.042692784 0.07412452 0.15550664 -0.6378594 0.016938334
0.019233938 0.18236627 0.021089466 0.058822896 -0.07658399 0.05247523 -0.23206271 0.12076817
-0.087500505 0.08657662 -0.3666979 -0.17340569 0.031896055 -0.019534105 -0.25997773 -0.08240477
-0.03183667 -0.060197506 -0.016620686 0.048894197 -0.09767933 -0.43597564 -0.24807028 -0.2845548
-0.013597587 0.014642739 0.029937368 0.025683478 -0.0019993382 -0.021043753 -0.48408836 -0.5543129
-0.0014459827 -0.0055481275 0.03074101 0.034854587 -0.04160514 0.1683447 -0.060393367 0.07755451
-0.06400033 -0.1164345 -0.20555836 -0.0886368 -0.61218596 -0.18981208 -0.0028081774 0.13263668
-0.28899473 -0.40178514 -0.04172614 -0.21341152 0.03457468 0.06057618 -0.007520582 -0.0015815553
0.035306036 0.10808414 -0.5570231 -0.44090387 0.055446617 0.09348225 -0.031927705 -0.025131326
-0.015506978 0.016023815 -0.057773206 0.06442566 0.023795875 0.20747526 0.047759987 0.09086869
-0.009112251 0.15354218 -0.01750928 0.04459888 -0.007334208 -0.37801594 0.012354516 -0.02152826
-0.054241218 0.040218 0.0008697341 -0.09402412 -0.25787935 -0.2399295 -0.0072209705 0.007863558
-0.15862063 -0.04762505 -0.13846986 -0.07967701 -0.5540503 -0.58218074 -0.5137613 -0.13434185
0.010466323 -0.0112626925 -0.14834292 -0.21787925 -0.09302862 0.13175806 -0.017722465 -0.08574875
0.030640583 -0.0036322076 0.05682218 0.017358707 0.1281325 0.051481813 0.12453875 0.050534256
-0.022108378 0.0049962136 0.022693193 0.013577504 -0.14533532 -0.16728821 -0.27975166 0.014203825
-0.012858089 -0.023128679 -0.58560485 -0.47265637 -0.20970155 0.04080843 -0.045441568 0.046153117
-0.22241253 -0.008785059 0.08584054 -0.05419455 -0.15989797 0.014109496 0.09087552 -0.01850842
-0.40198812 0.037611958 -0.1346838 0.023004182 -0.09940302 -0.064112134 -0.0855459 -0.023533287
-0.025985595 -0.062050503 -0.037496187 -0.0020288792 -0.122901335 0.0007186973 -0.10757938 -0.016447397
-0.0017532364 0.032921877 0.036777027 0.013298061 -0.035792105 -0.12809832 0.043658566 -0.060715225
-0.09874614 -0.20944959 0.01896612 0.0023376981 -0.22851203 0.05451149 -0.16447093 0.15774193
-0.27496126 -0.04279354 -0.082044624 -0.014692992 -0.22203201 -0.100597195 -0.18564585 -0.071357585

blocks.5.synapse.weight f4 [128, 784, 1, 1, 1]
00000000: e53d f4bc 426a 05bd ed09 d33c f6b0 1abd
00000010: dfe9 333b 62ba fd3c f8aa fe3c 65e2 cf3c
00000020: 1c03 d0ba 2e1a ebbb d39e 46bc c9c5 4c38
00000030: b65b 09bc 03fe 1b3d 8495 a93c 10c3 17bd
00000040: d6b0 a23c 8f54 63bc e89e 1dbd 7b08 ae3b
00000050: 995d 02bd 4eb0 7b3b 05ef 8e3c b98c e73c
00000060: 34c1 193c f1cc 4fbb c057 e33b 604b c9bc
00000070: 65c5 be3c 79f5 e4bc 178c 7ebc f470 2fbc
00000080: 2eeb 883c a55d 91bc a0a8 5bbc 0157 2dbd
00000090: a14d aabb d1aa 083d 0ae7 6f3c 516e f63c
000000a0: 6caf 7dbb 4d78 c3bc be46 7e3c c493 c23c
000000b0: e70a 50bc caca 4cbd 79a4 75bd 859a 42bc
000000c0: e30a a73c b98d 10bd 475b bebc 2678 18be
000000d0: 7c96 37be 4343 b7bd 7d29 24bc bc5d a33d
000000e0: 886e 40bd a3cf 99bd 2572 eebd 158c 01be
000000f0: 4c14 58be 2908 83bd e466 2e3b b1ba 5239
00000100: 2fcc 35bc 3115 c3bc eeed 9d3c 23b3 10bd
00000110: 9131 ccbd 767a 26bd 1c9a 0fbd e2c4 97bd
00000120: 367e b8bc 6c72 cfbd fd98 f6bc a5ea eebc
00000130: cb8f 7cbd 07ce a93c 5ae9 06be 82f9 7dbd
00000140: 08d9 d2bd c532 6bbc 2c48 a5bc 2a28 933c
00000150: f110 ebbc e169 03be 0e4f 13be c413 bebc
00000160: 6a58 b7bd d385 99bd 4c38 c6bb 12e0 cdbd
00000170: 61e5 69bd a385 d2bd 2e39 dbbd 1eaf e7bc
00000180: 0f1a 38bc 7a9c 88bc c898 1dbd c821 133c
00000190: 6e45 15bc ac26 243d 1db2 c33c f3bf 59bd
000001a0: 265c c9bc 0fb3 ca39 3fb5 dbbc c751 38bd
000001b0: 76b6 16bd 0bf0 9abc 5687 503c a17c 25bd
000001c0: bee7 46bd e59f 95bc c135 14bc ae8a 0a3c
000001d0: a280 4a3c 4534 0e3d 91a5 193c 5313 c93c
000001e0: ad25 923c 6912 8ebc 6e56 48bc c815 12bc
000001f0: 71ad 6b3c a636 c4bc d69a b439 b341 02bd
00000200: f65c f1bb c5f7 853c a2d5 51bd 5bf3 78bc
00000210: 6403 c73c 1855 d9bb ac3b 233d 98b3 28bb
00000220: 4a55 8fbc 8640 1ebd 6410 c4bc 6076 3ebd
00000230: eaa8 24bd 6542 46bd 29ed da3c 130e f9bc
00000240: 0714 08bd 1e00 2dbd da13 a9bc 1330 d93b
00000250: d25b 6dbd 64be 0dbd 0649 623d c13e e0bb
00000260: 4281 bdbb c6ea ef3b 1b8a 51bd 5fef 2d3c
00000270: 56a9 91bd 4563 7dbd 514a 4fbd 8fb2 6ebd
00000280: 10f0 363d 8eff 1dbd 86f0 673d 5321 4bbc
00000290: 08e5 633c df05 ad3c a106 ddbc 85f0 75bd
000002a0: 968d 263c 2564 0abc e01b 963b bab0 20bd
000002b0: 8ac5 0dbc 8b2f 16bd 14fc 33bd b6ea aa3c
000002c0: 1582 babd 90db 943b 312c 00be 0c80 01be
000002d0: 0a2d a238 9288 6abd 70bf 6dbb 1d48 dfbd
000002e0: 2c77 cc3c 2e37 e0bd acb4 52bc 2d81 d53b
000002f0: 84d8 3b3c 2117 183d 1f37 4e3c 3a19 e4bc
00000300: 1701 d5bd 9a5d 08bd b8d0 80bd 99fa 2bbc
00000310: 6dfb c2bd 262f 29bc 0424 c3bc fde6 0bbd
00000320: 09d4 0ebd fde0 dd3c fdd1 04bd b7f5 5b3b
00000330: b8e9 78bd 812b 62bd 146c d1bd efbf 89bd
00000340: 758a a9bc a3d7 81bc d76c 11bd af06 95bd
00000350: c1a0 51bd 918e 13be 4a5a bcbd 4049 993c
00000360: 949d 7f3b 41dc 9b3a 33b8 87bd fa22 cdbd
00000370: 0e5e 0f3c c526 16bd 3d04 81bc d7c0 193c
00000380: 9b2a ddbc 016f e9bc 2d3c dbbd c888 f6bd
00000390: 336b 1abe 8fad b23b 6c7e dabc 9cc5 58bd
000003a0: 4aaf 70bd 0342 a4bb 7720 98bb bb73 97ba
000003b0: 6047 97bd 9607 e53a cda3 1b3d f104 76bd
000003c0: 33d8 f439 13ed 99bc f5d7 34bd 2235 f93c
000003d0: ec0b e73c e0db 4fbc a63b a23c fc1d 60bd
000003e0: 3b76 153d b5ce 1abd 2da1 333d acf0 39bd
000003f0: eaea a1bc b56b e8bc 24eb 3cbe f609 0abe
-0.02981467 -0.03257204 0.025761569 -0.03776642 0.002745263 0.030972663 0.031087384 0.025376508
-0.0015870067 -0.0071747517 -0.012122828 4.8821592e-05 -0.008383682 0.03808404 0.020701177 -0.03705126
0.019859713 -0.013875141 -0.038481623 0.0053110695 -0.031827543 0.0038404646 0.017447958 0.028265344
0.009384442 -0.0031707848 0.006937951 -0.024572074 0.023287484 -0.027949082 -0.01553633 -0.0107080825
0.016713705 -0.017744849 -0.013406903 -0.0423193 -0.0051972424 0.03336603 0.014642486 0.0300819
-0.0038709296 -0.023861075 0.015519796 0.0237521 -0.012697912 -0.049998082 -0.059971306 -0.011877661
0.020390933 -0.035291407 -0.023236884 -0.14889583 -0.17928499 -0.08948376 -0.010019657 0.07976863
-0.04698041 -0.07510307 -0.11642865 -0.12651093 -0.21101493 -0.06398041 0.002661162 0.00020096709
-0.011096044 -0.023813816 0.019278493 -0.035327088 -0.099703915 -0.04064413 -0.03505908 -0.07410599
-0.02252112 -0.10129246 -0.030102247 -0.029164622 -0.06166057 0.020728124 -0.13174954 -0.062005527
-0.10295302 -0.014355366 -0.020176016 0.017963488 -0.028694602 -0.12833358 -0.14385626 -0.023202784
-0.089524105 -0.07496228 -0.0060491916 -0.10052504 -0.05710352 -0.102793954 -0.107042655 -0.028281745
-0.011236682 -0.016676176 -0.03847578 0.008980222 -0.009110792 0.040075943 0.023888642 -0.053161573
-0.024580073 0.0003866185 -0.026819823 -0.044999864 -0.036795102 -0.01891329 0.012727579 -0.04040206
-0.04856085 -0.01826472 -0.009046019 0.008455915 0.01235977 0.034717817 0.009377853 0.024545347
0.01784023 -0.017342763 -0.012227638 -0.008916326 0.014384613 -0.02395184 0.00034447637 -0.031800937
-0.007365818 0.016353497 -0.051229127 -0.015194739 0.024293609 -0.0066324584 0.03985183 -0.0025741812
-0.017496724 -0.038635753 -0.023933597 -0.04649961 -0.04020015 -0.048403163 0.026724415 -0.030402219
-0.033222225 -0.04223644 -0.020639349 0.0066280453 -0.057948895 -0.0346054 0.05524542 -0.0068434183
-0.005783231 0.0073216883 -0.0511571 0.010616153 -0.071123764 -0.06186225 -0.050607983 -0.058275755
0.044662535 -0.038573794 0.056625865 -0.012398082 0.013909586 0.021120964 -0.0269807 -0.06004383
0.010165593 -0.008446728 0.0045809597 -0.03923104 -0.008653054 -0.036666434 -0.043941572 0.020863872
-0.091068424 0.0045427755 -0.12516858 -0.12646502 7.733151e-05 -0.05725915 -0.0036277436 -0.109024264
0.02495917 -0.10948025 -0.012860458 0.006515643 0.011465196 0.037131432 0.012586384 -0.02784406
-0.104005985 -0.03329239 -0.0628981 -0.010496759 -0.09520612 -0.0103261825 -0.023820885 -0.034155834
-0.03487018 0.027084822 -0.032426823 0.0033563206 -0.060769767 -0.05521727 -0.102256924 -0.067260616
-0.020695904 -0.015849894 -0.03550419 -0.072766654 -0.051178697 -0.14409854 -0.09196909 0.018711686
0.0039003836 0.0011891202 -0.0662693 -0.10016437 0.008750452 -0.036658067 -0.015749091 0.0093843555
-0.026997855 -0.028495314 -0.10704837 -0.12037808 -0.15079956 0.0054528187 -0.02667161 -0.05292283
-0.05876092 -0.005012752 -0.004642542 -0.0011554876 -0.073866606 0.0017473574 0.03799801 -0.060063306
0.00046700388 -0.018789804 -0.044151265 0.030420844 0.028203927 -0.0126867 0.019803833 -0.054716095
0.036489706 -0.037794787 0.04385488 -0.04539554 -0.019765336 -0.028371671 -0.18449074 -0.13480362

blocks.6.synapse.weight f4 [10, 128, 1, 1, 1]
00000000: f48c 2cbb 8606 58bd a7ac 4bbc 7666 d13b
00000010: 36bf fe3b 787b 803c 63d0 97bc f430 e9b9
00000020: d930 34bc 6b79 843c 0b1d 253b bb0c 713c
00000030: 3c71 db39 d0ab abbb 1912 88bd 3b5a 67bc
00000040: 8b31 2a3c 71aa 43bd 66b9 84bc b047 0c3c
00000050: 8aa0 dfbc fa21 20bc f6a2 96bc e58f f23b
00000060: 897e 2b3d bdd3 4bbc f805 cab7 c8ec de3b
00000070: 93bc 92bc 7684 793c a8c8 80bc a4f0 723c
00000080: 22f1 b13c d3ae 46bc 3f5b 90bc a96d ebba
00000090: bbaa dbbc 49af ebbc 0c36 73bc ee65 cbbc
000000a0: b52f 48bd e2ed 853c 5b0e 683d c692 57ba
000000b0: 09a4 f63c 1d8d f03b 854e d2bc 2294 cf3b
000000c0: fa09 1ebd a72c 83bc 79cc 133c 0bb8 bbbb
000000d0: a126 383c 2091 9cbc 3d33 1a3c 6dd7 6d3c
000000e0: 9bc6 92bc c769 4cbd f97d 9c38 2d5d 91bc
000000f0: 287d e3bb ef8a b3bc 77d2 3d3c 4abe 8bbc
00000100: a83d 403d 0675 84bb 2658 93bc 93f1 fd3a
00000110: 25c6 083c 704a abbc 420f 523c 17cf 373c
00000120: 54d2 4b3c 9c98 a6bc 3bcf 90bc c787 dfbc
00000130: 6bb6 423b ea20 c1bc 3429 37bc baef cb3c
00000140: 7ddc 613c e97b 453b 157c 9bbc 0a1d 48bd
00000150: 9553 0f3e 1b61 e43c c493 50bc ad3c 77bb
00000160: 271e 033c c89c f8bb 98bb 9cbc eb5c 8abd
00000170: b42d 2ebc 82fd 0dbc 6c54 1b3d 9e42 adbc
00000180: c4c1 8abc 4563 3c3c fd97 213d f9c6 37bb
00000190: fda4 023c f0fe a7bd 836a ecbb 2c03 583c
000001a0: f053 dc3a fcb9 76bc 228e 3fbc a9cf 85bc
000001b0: 533e bbbc 0837 d13a 117a b3bb 6fc0 08bd
000001c0: 0313 4bbd 2470 30bb 583a f03c 3eab c9bb
000001d0: 2422 38bd 3d49 013c 9bba a3bc 3642 08bb
000001e0: d132 2bbd 4ea3 3b3d 4f2b ff3a f056 993a
000001f0: ca18 1c3d 7576 29bb 4da7 8d3c edc7 2b3c
00000200: ccb0 b0bc be4b 853b bd93 5abd da85 2a3c
00000210: 3ac3 5cbb b62c 873c 57e8 e8bc a437 893a
00000220: 991b f93a 3d4a 853c 4b1d 6c3c 6eed 323e
00000230: 61fa 7bbd eb7d d43b b023 0abd 8bdf 893a
00000240: 792d b1ba 8239 96bc 8aba bebc 03e2 abba
00000250: 815b a23b cf34 8fbc eda1 65bc 5a4b 2dbc
00000260: 22c1 4bbd 090c a4bb 0495 503c cf85 94bb
00000270: 6f8b 84bc 4bfd 0abc b446 b63b 1445 1d3c
00000280: 6aad f6bc 439f 073c 3480 8f3b 8439 acbc
00000290: 1740 2ebc 2a69 c03c 2d58 a53c a447 fbbc
000002a0: 0b07 49bd 190b 23bd 18d0 983c 042a 243c
000002b0: 3160 8c3d 2947 2dbd 0a4b c7bc d507 6e3b
000002c0: 8bd5 9d3c e62e d7bb 6529 6c3c 187b 91bb
000002d0: d152 4fbc 06c7 2b3c 726f 02bd 4421 8e3c
000002e0: eaa4 793c 9fe9 3d3d 00d0 c9b9 0509 8ebc
000002f0: b3e0 8c3c 9bba 8e3b 0529 a1bc 01bf 013d
00000300: 8d88 333d af7c 053c 4e8f cb3a b716 7fbc
00000310: e14e 273c 2073 173c e117 133c c06b 823c
00000320: 1abb 14bc a78f 6dbd d9e3 8cbc dd02 87bc
00000330: 0b16 c43b e5c7 8bbc 2c0f 41bc 688d c63c
00000340: 0a1b 3b3c 1a27 90bd 7c7b 0fbc a5fc 2f3c
00000350: 04d2 e43b 80d3 2d3b 0704 9f3b ce81 42bc
00000360: 67be 2d3c 83a9 78bd 7108 a13b cfdf cdbc
00000370: 841d 7f3c a8db ddb9 71f3 8fbc f6d8 77bd
00000380: e06e 4dbd e30a 27bd c1e4 a4bd 3b50 323b
00000390: ed89 9dbc bcee 213d c5b9 27bb 13aa ba3c
000003a0: 5326 a63b 7808 b5bb c4ae c9bb 2531 573c
000003b0: 4b90 c5bb 2e5b 9dbc 8318 8d3c 280e 0b3c
000003c0: ac4e 11bd 2f8d 08bb 27f6 5b3a 9c6f 95bc
000003d0: fa3b 10bd 0b2d 5f3c 8a70 89bc b8ef 83bc
000003e0: d248 30bd 67f6 20bd 619a b3bb 92e1 a6bc
000003f0: 3207 143d bf57 083c 2996 93bd 875d 623c
-0.0026329132 -0.052740596 -0.0124313 0.006390388 0.007774259 0.015683874 -0.018531984 -0.00044477696
-0.010997974 0.016171178 0.0025194313 0.014712508 0.000418553 -0.0052389875 -0.06644077 -0.014120634
0.0103877885 -0.047769967 -0.016201686 0.0085620135 -0.02729823 -0.009773726 -0.018388253 0.0074024075
0.04186872 -0.012440619 -2.4083056e-05 0.006803129 -0.017912185 0.015229335 -0.01572068 0.014827881
0.021721426 -0.012126642 -0.017621635 -0.0017961758 -0.02681481 -0.028770106 -0.014844429 -0.024828877
-0.048873622 0.016348783 0.056654315 -0.000822347 0.030107515 0.0073410408 -0.025672207 0.0063347975
-0.038583733 -0.016012503 0.009020918 -0.0057287267 0.011239679 -0.01911217 0.00941163 0.014516694
-0.017916968 -0.049905565 7.462124e-05 -0.017744625 -0.00694241 -0.021916835 0.011585823 -0.01705851
0.0469338 -0.0040422706 -0.017986368 0.0019374363 0.008348023 -0.020909518 0.012821021 0.011218808
0.012440283 -0.020336442 -0.01767694 -0.027286423 0.002971078 -0.023575265 -0.011179257 0.024894584
0.013785479 0.003013367 -0.018980065 -0.04885582 0.13996728 0.027878335 -0.012730543 -0.0037725375
0.008002794 -0.007587049 -0.01913242 -0.06756004 -0.010631014 -0.008666398 0.037922308 -0.02114993
-0.016938098 0.011498277 0.039451588 -0.002804218 0.007973907 -0.08202922 -0.0072148456 0.01318435
0.0016809683 -0.015058991 -0.011691602 -0.016334372 -0.022856867 0.0015961835 -0.005477198 -0.033386644
-0.049578678 -0.002692231 0.029324695 -0.006154447 -0.044954434 0.0078909965 -0.019986441 -0.0020791418
-0.04179651 0.045810036 0.0019467863 0.0011698883 0.03810958 -0.002585796 0.01729169 0.010484678
-0.021568678 0.004067867 -0.05336355 0.010407889 -0.00336857 0.016500812 -0.0284311 0.0010468853
0.0019005417 0.016270751 0.014411281 0.17473385 -0.061518077 0.006484737 -0.03372544 0.0010518892
-0.001351758 -0.018337969 -0.023282308 -0.0013113621 0.004954756 -0.017481236 -0.014015657 -0.010577047
-0.049744733 -0.0050063175 0.012730841 -0.004532553 -0.016179768 -0.008483241 0.0055626277 0.009598989
-0.030111987 0.008277717 0.0043792967 -0.02102352 -0.010635397 0.023487646 0.020183647 -0.03067381
-0.049078982 -0.039805505 0.018653914 0.010019783 0.068542846 -0.04230419 -0.024327774 0.0036320586
0.019266864 -0.00656687 0.014414166 -0.0044397227 -0.012654022 0.010484463 -0.031844564 0.017349847
0.0152370725 0.046365377 -0.0003849268 -0.017338285 0.017196989 0.004355741 -0.01967288 0.031676296
0.043831397 0.008147403 0.0015530379 -0.0155693805 0.010211677 0.0092437565 0.008977861 0.01592052
-0.009077812 -0.057998326 -0.01719849 -0.016480858 0.005984073 -0.01706309 -0.011783402 0.02423735
0.011420021 -0.07038708 -0.008757468 0.0107413875 0.0069830436 0.002652377 0.004852775 -0.011871768
0.0106044775 -0.060708534 0.0049143364 -0.025131134 0.015571002 -0.0004231606 -0.017572137 -0.060509644
-0.050154567 -0.040781867 -0.08051444 0.0027208466 -0.019230807 0.039534315 -0.0025592905 0.022786176
0.0050704866 -0.005524691 -0.006154867 0.013134276 -0.006029164 -0.019208517 0.017223602 0.008487262
-0.035475418 -0.0020836105 0.00083908666 -0.018241696 -0.035213448 0.013621579 -0.016777296 -0.016105518
-0.043038197 -0.039297488 -0.00548105 -0.020371232 0.036139674 0.008321702 -0.07206375 0.013816244
