MNIST/00:21:39:Apr-26-23/network_0.8130833333333334.pt (torch, 54475 bytes, 4 tensors)

blocks.0.synapse.weight f4 [16, 1, 5, 5, 1]
0	0xbde588a5	-0.112077035
1	0xbe46bdfd	-0.19408412
2	0xbe360796	-0.17776331
3	0xbdd2833c	-0.10278937
4	0xbd6f5b84	-0.058436885
5	0x3de53e9c	0.111935824
6	0xbdadeab0	-0.08492029
7	0xbda58b4d	-0.0808321
8	0x3de6b626	0.11265211
9	0xbcdda9cb	-0.027058503
10	0xbd4cb690	-0.049978793
11	0xbda3ea51	-0.08003677
12	0x3e0f3a7b	0.13987152
13	0xbddabf9a	-0.10681076
14	0x3e036fe8	0.12835658
15	0x3e1aa4b0	0.15101886
16	0x3dcac1cf	0.09900247
17	0x3e26480f	0.16238426
18	0x3badd2b1	0.0053046574
19	0x3c66be13	0.014083403
20	0x3e0d821d	0.13819166
21	0xbd70941d	-0.058735
22	0xbd597041	-0.05308557
23	0x3dcbfa67	0.0995987
24	0xbafee01b	-0.0019445451
25	0xbd3ac1b0	-0.04559487
26	0x3dcd2cd7	0.10018318
27	0xbdcda1b7	-0.1004061
28	0x3e3ee5dd	0.18642373
29	0x3d6c8fe9	0.05775443
30	0x3dddcd19	0.10830135
31	0xbdabf3f0	-0.08396137
32	0xbe30369a	-0.17208329
33	0x3e13c689	0.14431204
34	0xbe102833	-0.14077835
35	0xbcc0ce21	-0.02353579
36	0xbd871067	-0.065949254
37	0xbcced776	-0.025249224
38	0xbd31bf99	-0.043395612
39	0xbe267b18	-0.16257894
40	0xbcbc105d	-0.022957021
41	0xbc490748	-0.012269802
42	0xbe03a24e	-0.12854883
43	0xbe565d66	-0.20934066
44	0x3dcc4a1a	0.09975071
45	0xbd6055f1	-0.05476946
46	0x3e3c2522	0.1837354
47	0x3ddb03a2	0.10694052
48	0xbe2a796a	-0.16647878
49	0xbdcaa560	-0.09894824
50	0xbd984b50	-0.0743624
51	0xbd001646	-0.03127124
52	0xbd819e14	-0.06328979
53	0x3e434fd3	0.1907342
54	0xbdb3cbee	-0.08779131
55	0x3e0eef25	0.13958414
56	0x3ce2b8b7	0.02767597
57	0xbe31a046	-0.17346296
58	0x3e353ea2	0.17699674
59	0x3d06ac66	0.032879256
60	0xbc9dbcdd	-0.019255096
61	0x3dad3721	0.08457781
62	0x3d1be7f4	0.038063005
63	0x3df4c27c	0.119511575
64	0xbd32bd5d	-0.043637622
65	0xbde502e0	-0.11182189
66	0xbdd2efe1	-0.102996595
67	0x3d99520c	0.07486352
68	0x3e3c0c64	0.18364102
69	0x3b92e910	0.0044833496
70	0x3ddb0097	0.10693472
71	0xbe1e2127	-0.15442334
72	0x3e3e43f2	0.18580607
73	0x3e047a2b	0.12937228
74	0x3d7a7137	0.061143126
75	0x3def0dbf	0.11672544
76	0xbcfc9f7d	-0.030837769
77	0xbcd7ec12	-0.026357684
78	0xbc352fde	-0.011058776
79	0xbe5e56fb	-0.21712868
80	0x3db42e72	0.08797921
81	0x3e174e21	0.14775898
82	0x3d9e0d03	0.077173255
83	0xba8524e5	-0.001015809
84	0x3c24d3d5	0.01006027
85	0x3cc83388	0.024438635
86	0x3e2ce8e8	0.16885722
87	0xbe155287	-0.14582263
88	0x3d995e03	0.074886344
89	0x3d54c93a	0.051949717
90	0x3d596345	0.053073186
91	0x3e033771	0.12814118
92	0x3db063da	0.08612795
93	0xbdb76cae	-0.08956276
94	0xbe2e7f1c	-0.17040676
95	0xbc303c16	-0.010756513
96	0x3e1f2553	0.15541582
97	0xbd865407	-0.06558996
98	0x3d0b19d6	0.033960186
99	0x3e381d40	0.17979908
100	0xbe041ca8	-0.12901556
101	0x3c336340	0.010948956
102	0xbda517a9	-0.080611534
103	0x3d7e586b	0.06209604
104	0x3de90d4c	0.11379489
105	0xbe48c5f0	-0.19606757
106	0xbc865ff9	-0.016403185
107	0x3ba22374	0.004948074
108	0xbe1af8d2	-0.1513398
109	0x3d6d010a	0.05786232
110	0xbe07ecc6	-0.13273916
111	0xbcaa815d	-0.020813638
112	0x3d40a827	0.047035363
113	0x3d969320	0.073522806
114	0x3e627098	0.22113264
115	0xbe1a3d1c	-0.15062374
116	0x3da4f1fd	0.08053968
117	0x3b56510c	0.0032702116
118	0xbd9912b6	-0.07474272
119	0x3e3a2fc0	0.18182278
120	0x3d852fd0	0.0650326
121	0x3e38c3e4	0.18043476
122	0x3e4cb236	0.19989857
123	0xbd5f8a66	-0.054575346
124	0x3e070786	0.13186464
125	0xbcf785fb	-0.030215254
126	0x3e6d41a2	0.23169568
127	0xbbfecbae	-0.0077757454
128	0xbe0411d8	-0.12897432
129	0xbd9ab92c	-0.0755485
130	0xbcccc671	-0.024996968
131	0xbd2858ac	-0.04110019
132	0x3bb556f7	0.0055340487
133	0xbe37d3e5	-0.17951925
134	0xbd7605a3	-0.06006397
135	0x3e422d24	0.18962532
136	0x3c9ec950	0.019383103
137	0xbe2bfbf0	-0.16795325
138	0x3ba3c864	0.0049982537
139	0x3c81ddae	0.015852775
140	0xbe35c503	-0.17750935
141	0x3c4a896b	0.012361865
142	0xbe021d9d	-0.12706609
143	0xbd88bc02	-0.06676485
144	0x3d190219	0.037355516
145	0x3de0dfc7	0.10980182
146	0xbdddade9	-0.10824186
147	0x3e205b44	0.15659815
148	0xbde5b754	-0.11216608
149	0x3d508c81	0.050915245
150	0x3dd5a178	0.10431188
151	0xbd3af021	-0.04563916
152	0xbdb74709	-0.08949096
153	0x3e378244	0.17920786
154	0xbcdf1581	-0.027231934
155	0x3d8d7b18	0.06908244
156	0x3e579aec	0.21055192
157	0x3b92294d	0.00446049
158	0x3dc7947d	0.09745119
159	0x3daa8c1a	0.083275035
160	0x3b9857af	0.0046491246
161	0x3e17be0a	0.14818588
162	0xbdcb1437	-0.09915965
163	0x3c71c366	0.014756059
164	0xbdeb83d3	-0.11499753
165	0x3c907548	0.017634049
166	0xbe083004	-0.13299567
167	0xbcb84a3c	-0.022496335
168	0xbd9981f0	-0.07495487
169	0xbe399e53	-0.18126802
170	0x3ca48dcc	0.020087145
171	0xbbc90a04	-0.006135227
172	0x3c9c706c	0.019096576
173	0xbdfd33a7	-0.123633675
174	0xbe4eb2dc	-0.20185417
175	0x3e0f022c	0.13965672
176	0xbd84d5e7	-0.06486111
177	0x3e48d866	0.196138
178	0x3e107ed5	0.14110883
179	0x3e22b826	0.1589056
180	0xbc36a809	-0.011148461
181	0xbe33553a	-0.1751298
182	0x3e3a341e	0.18183944
183	0x3e2b7e0b	0.167473
184	0xbdb1a9a1	-0.08674932
185	0x3df892a5	0.12137345
186	0xbd0d702e	-0.03453081
187	0x3cc91b3d	0.024549121
188	0x3e341a6f	0.17588209
189	0x3e4a5926	0.1976057
190	0xbe4ce7b9	-0.2001027
191	0xbdd3b3d3	-0.10337033
192	0x3c67c03d	0.014144954
193	0xbdfdbbf1	-0.123893626
194	0x3caeaf58	0.021323845
195	0xbcd380bb	-0.02581822
196	0xbe08c4e2	-0.13356355
197	0x3e083f1a	0.13305321
198	0x3e0c48f2	0.13699701
199	0x3e259959	0.16171779
200	0x3d86fc91	0.06591142
201	0xbd4c0a19	-0.049814317
202	0xbc29f9fa	-0.01037454
203	0xbde10e96	-0.1098911
204	0x3e146c1a	0.14494362
205	0x3de5b2ff	0.112157814
206	0x3e20f9db	0.15720312
207	0xbe0e3140	-0.13885975
208	0xbe1118f7	-0.1416968
209	0x3dcef5fc	0.101055115
210	0xbd2f4fae	-0.042800598
211	0x3e429bd5	0.19004758
212	0x3de94f47	0.11392074
213	0xbd1668d3	-0.036721062
214	0xbd62c64f	-0.055364903
215	0xbd841d5c	-0.06450912
216	0x3e19e3b2	0.15028265
217	0xbe0f8873	-0.14016895
218	0xbd5e5158	-0.054276794
219	0xbe13b65c	-0.14425033
220	0x3d5efd10	0.054440558
221	0x3dc6d1ed	0.09708009
222	0xbe0445e4	-0.12917286
223	0xbe022c32	-0.12712172
224	0x3d4d2a9f	0.050089475
225	0x3d65edef	0.056135114
226	0xbd9c2068	-0.076233685
227	0x3d330257	0.043703403
228	0x3de70119	0.11279506
229	0x3e20f06c	0.15716714
230	0x3d7eb8e1	0.062188033
231	0x3e27b133	0.1637619
232	0xbd27827a	-0.040895917
233	0x3de2407e	0.11047457
234	0xbe40e93e	-0.18838975
235	0x3e29dc0e	0.1658785
236	0x3e166e55	0.14690526
237	0xbdf5c47e	-0.120003685
238	0xbde5b0bf	-0.11215352
239	0xbdf4e96e	-0.11958586
240	0xbdf6a191	-0.12042535
241	0x3d8ef06c	0.069794506
242	0xbdbce9fa	-0.09224315
243	0xbca1c707	-0.019748224
244	0xbd88d190	-0.06680596
245	0x3e2a710b	0.16644685
246	0x3d0a5850	0.033775628
247	0x3d0e6630	0.034765422
248	0xbde0e31b	-0.10980817
249	0x3cf7bb4e	0.030240681
250	0xbda72eeb	-0.08163246
251	0xbbff63f9	-0.0077939
252	0xbe464c91	-0.19365145
253	0x3d925c78	0.07146543
254	0xbe52e91e	-0.2059674
255	0xbe38a7ca	-0.18032756

blocks.1.synapse.weight f4 [32, 16, 3, 3, 1]
0	0x3c98d7bc	0.018657558
1	0xbd7d0686	-0.0617738
2	0xbda2c8fa	-0.079484895
3	0xbda8efcd	-0.08248863
4	0xbd36559f	-0.04451525
5	0xbd2b5a33	-0.041834068
6	0x3ceec1da	0.02914517
7	0xbd88cfa9	-0.06680233
8	0x3c44fa38	0.012022547
9	0x3b95f914	0.0045768116
10	0x3d0784f9	0.033085797
11	0x3d0f3f17	0.034972277
12	0xbc986aac	-0.018605553
13	0xbda61ad7	-0.08110588
14	0xbc9b0bc4	-0.018926509
15	0xbd82eb2d	-0.063925125
16	0x3c88b083	0.01668573
17	0x3d89427d	0.06702135
18	0x3d88cffb	0.06680294
19	0xbd4a19f2	-0.04934115
20	0x3c9d4ead	0.019202555
21	0x3d7bfc25	0.06151976
22	0xbc606e6d	-0.013698203
23	0x3c5bdef8	0.013419859
24	0x3c17006a	0.009216407
25	0xbaac9b7f	-0.00131689
26	0xbdba28e5	-0.09089831
27	0xbda92ab4	-0.08260098
28	0xbd2a7920	-0.04161942
29	0x3c1156c4	0.008870784
30	0xbd540f5c	-0.05177246
31	0xbc80a0b3	-0.015701627
32	0x3c6d44fb	0.014481778
33	0xbd4c6780	-0.049903393
34	0x3cb8d0ca	0.022560496
35	0xbd8d1030	-0.06887853
36	0x3c834882	0.016025785
37	0x3d0f5bdd	0.034999717
38	0xbd7e57d7	-0.06209549
39	0x3d3e7bef	0.04650491
40	0xbd5e3174	-0.05424638
41	0x3cf93f1f	0.030425606
42	0xbc75af22	-0.014995368
43	0xbde8676b	-0.113478504
44	0xbdb679b3	-0.08909931
45	0xbb4f0671	-0.0031589533
46	0xbd571622	-0.052511342
47	0x3d642d1c	0.055707082
48	0xba8e087d	-0.001083627
49	0x3ca2ecd3	0.019888317
50	0x3d353945	0.04424407
51	0x3b2bcfd2	0.00262164
52	0xbd9d57c7	-0.07682758
53	0x3d8e890f	0.069597356
54	0xbdab21ed	-0.0835608
55	0xbbc47008	-0.0059948005
56	0xbd0affd0	-0.033935368
57	0xbd9443de	-0.07239507
58	0xbcf65a92	-0.030072484
59	0x3a682bc9	0.0008856622
60	0xbdb773a9	-0.08957607
61	0x3d80bbcb	0.06285819
62	0x3dc772a9	0.097386666
63	0x3cd778a6	0.026302647
64	0xbd9ed445	-0.07755331
65	0xbcc0388a	-0.02346446
66	0x3d8a93b5	0.06766454
67	0x3d5a37c8	0.053275853
68	0xbd9daa5a	-0.076985076
69	0x3d7accfe	0.061230652
70	0xbc4e1413	-0.012578028
71	0xbd2d237e	-0.042270176
72	0x3d42e462	0.047581084
73	0x3c669390	0.014073268
74	0xbcc07c7c	-0.023496859
75	0xbd99138d	-0.07474432
76	0xbd89391c	-0.06700346
77	0x3c9b62c6	0.018967997
78	0x3c21f316	0.009884616
79	0x3cc5995d	0.02412098
80	0x3d568f10	0.05238253
81	0xbc403ef6	-0.011733761
82	0x3d4c3e6d	0.04986422
83	0xbcefeed5	-0.029288689
84	0x3c26d132	0.010181712
85	0xbd1c5c83	-0.038174164
86	0xbcf024d1	-0.02931443
87	0xbc71b66c	-0.014752965
88	0x3cb38816	0.021915477
89	0xbb1d4bc1	-0.0024001452
90	0xbd7cf25e	-0.061754577
91	0x3d283850	0.04106933
92	0xbd8d0933	-0.0688652
93	0xbdd991d4	-0.10623518
94	0x3d0cb604	0.03435327
95	0x3aed73d7	0.0018116188
96	0xbd80e9d0	-0.06294596
97	0xbb603068	-0.003420854
98	0xbc2219b5	-0.009893824
99	0xbb3b79ab	-0.0028606455
100	0xbc16d9d7	-0.0092072105
101	0x3d6fd613	0.058553766
102	0x3ccc169f	0.02491313
103	0xbd9459c6	-0.072436854
104	0xbd413142	-0.047166117
105	0x3d6949f9	0.05695531
106	0x3d65b09d	0.056076635
107	0xbc6bef23	-0.014400276
108	0x3c229d6c	0.009925228
109	0xbd04bdbc	-0.032407507
110	0x3d7c7c21	0.061641816
111	0x3cdd3041	0.027000548
112	0xbd97e4ba	-0.07416673
113	0xbcf7a85c	-0.030231647
114	0x3cac8075	0.021057347
115	0xbd58b022	-0.05290235
116	0x3c456166	0.012047147
117	0xbd6b3e94	-0.057432726
118	0xbcb90853	-0.022586977
119	0xbc179099	-0.009250783
120	0xbcfa7168	-0.030571654
121	0xbad7e5d8	-0.0016471697
122	0xbc8da2f5	-0.017289618
123	0xbc99c41b	-0.018770268
124	0xbd7ae218	-0.061250776
125	0x3da0223e	0.07819031
126	0x3ca5fbbf	0.020261643
127	0xbd5df8e9	-0.054192457
128	0xbd8d0421	-0.06885553
129	0xbca97852	-0.020687256
130	0x3a5dbd8d	0.0008458726
131	0xbcbed335	-0.02329407
132	0x3d0d8e41	0.034559492
133	0xbd336256	-0.043794952
134	0xbc2aa972	-0.0104163755
135	0xbcbbd598	-0.022928998
136	0xbce6e9f9	-0.028187739
137	0x3c86a0a6	0.016434025
138	0x3d554a4e	0.052072816
139	0xbda67d65	-0.08129386
140	0x3d8faf26	0.07015829
141	0xbd654929	-0.055977974
142	0xbdadeb34	-0.08492127
143	0xbd1614e3	-0.036641013
144	0xbcb8f827	-0.022579266
145	0xbd486513	-0.048924517
146	0x3d479fb0	0.048736274
147	0xbcf245e6	-0.029574346
148	0xbb65f769	-0.0035090095
149	0x3cf8b128	0.030357912
150	0x3cfad6d6	0.03062002
151	0xbc2c5ad7	-0.010519705
152	0x3d0c0b32	0.034190364
153	0x3d1cd611	0.038290087
154	0x3d933406	0.07187657
155	0xbccf238a	-0.025285501
156	0x3d4e38c5	0.05034711
157	0x3c0afb47	0.008482761
158	0x3cd5c2ae	0.026093807
159	0x3d1bdf5b	0.038054805
160	0xbd2f7cf9	-0.042843793
161	0xbbd2ea74	-0.0064366404
162	0xbd3d385a	-0.04619632
163	0xbce5edab	-0.02806743
164	0x3d726744	0.059180513
165	0x3b1a0164	0.0023499364
166	0x3d45e5ce	0.048314862
167	0xbc1728b4	-0.009226013
168	0xbd636918	-0.055520147
169	0x3d548583	0.05188514
170	0xbdb39189	-0.08767993
171	0x3ad19f2a	0.0015992869
172	0x3d8cc4a1	0.068734415
173	0xbd266ba3	-0.040629994
174	0xbda0ad7c	-0.078455895
175	0x3d6868cc	0.056740567
176	0xbaf8cb9f	-0.0018981582
177	0x3db090ec	0.08621392
178	0x3d847ba4	0.06468895
179	0xbb555d8e	-0.0032556984
180	0x3bc0fe0c	0.0058896597
181	0x3d18582f	0.037193473
182	0x3d7935ca	0.060842313
183	0xbd8bcc5b	-0.06826087
184	0x3c51504f	0.012775495
185	0x3c7ffc24	0.01562408
186	0xbd85e996	-0.065386936
187	0xbc386f49	-0.011257001
188	0xbd621fc6	-0.055206083
189	0x3c119a8b	0.008886944
190	0x3d94bbbd	0.07262371
191	0x3cae759e	0.021296319
192	0x3c8eff11	0.01745561
193	0x3ccd02d4	0.025025763
194	0x3d486055	0.048919994
195	0x3d2cfd42	0.042233713
196	0x3ceb79b5	0.028744558
197	0x3c632e36	0.013865998
198	0x3c95cd3f	0.018286346
199	0xbc210b5e	-0.00982937
200	0x3db81bcd	0.089896776
201	0xbce09cf9	-0.0274186
202	0xbcd81cf5	-0.026380995
203	0xbc9a10fb	-0.018806925
204	0xbd3818fb	-0.0449457
205	0xbd4952bd	-0.04915117
206	0xbd2f7a2c	-0.04284112
207	0xbd3f8dff	-0.046766277
208	0xbcbaaeaf	-0.022788374
209	0xbc8ae002	-0.016952518
210	0x3ccd7659	0.025080847
211	0xbd6897f1	-0.056785528
212	0xbcfa8760	-0.03058213
213	0xbd7116f8	-0.058859795
214	0xbd46faed	-0.048579145
215	0x3d8a2701	0.06745721
216	0x3d28ca77	0.04120871
217	0xbd2cf9e8	-0.042230517
218	0x3d6c0b6b	0.057628077
219	0xbd8cbc88	-0.06871897
220	0xbda805ab	-0.08204206
221	0x3d522c02	0.0513115
222	0x3c579795	0.013158699
223	0x3cdbb6ae	0.026820507
224	0x3c82485f	0.01590365
225	0xbc1649a3	-0.00917283
226	0xbda2f85a	-0.079575256
227	0xbc02db07	-0.0079867905
228	0x3c44e663	0.012017819
229	0x3c676645	0.014123504
230	0xbc6bdccb	-0.014395903
231	0xbcd407dd	-0.025882656
232	0x3d671cb0	0.056423843
233	0xbd6e2ed1	-0.058150116
234	0xbd7e7ce2	-0.062130816
235	0x3ce4d70f	0.02793458
236	0xbd0fe4dd	-0.03513037
237	0xbd74992e	-0.059716396
238	0x3c946281	0.018113377
239	0xbd682547	-0.056676175
240	0x3c9a3be0	0.018827379
241	0x3dc279b2	0.09495868
242	0xbc9034cc	-0.0176033
243	0xbc567351	-0.013089017
244	0xbd721a75	-0.059107263
245	0x3da4874e	0.0803362
246	0x3d984585	0.07435135
247	0xbd4624ac	-0.048374817
248	0xbcb43610	-0.021998435
249	0x3cc330cb	0.023826977
250	0x3b1cd8da	0.0023932965
251	0xbd3d3620	-0.046194196
252	0xbd6fb7f6	-0.05852505
253	0x3d8f2ad6	0.06990592
254	0x3c6d00b5	0.014465501
255	0xbd83849c	-0.064217776

blocks.2.synapse.weight f4 [8, 32, 3, 3, 1]
0	0x3af8e975	0.0018990474
1	0x3d11c4cc	0.03558807
2	0x3c3a1c6c	0.011359315
3	0x3c5a0897	0.013307712
4	0xbc7815f9	-0.015141957
5	0x3d229c38	0.039699763
6	0xbbff25cb	-0.0077864877
7	0x3c8469b5	0.016163686
8	0x3c888ca3	0.016668623
9	0xbc7a03f5	-0.0152597325
10	0xbcb53cb3	-0.02212367
11	0x3b821a09	0.003970389
12	0x3c85153b	0.016245475
13	0x3c7a20a9	0.015266576
14	0x3c6467a0	0.013940722
15	0x3c7c7b48	0.015410252
16	0x3c7cc118	0.0154268965
17	0xbbaee357	-0.0053371596
18	0x3c5c724e	0.013454987
19	0xbd11748b	-0.035511535
20	0x3c20727a	0.009792918
21	0x3c8a8e3b	0.016913524
22	0x3c866568	0.016405776
23	0xbcacfecc	-0.02111759
24	0xbd1c8c9b	-0.03822003
25	0x3c7ac2aa	0.015305201
26	0x3cc4b4cd	0.024011994
27	0xbd4c8f4b	-0.049941342
28	0xbd47d677	-0.048788514
29	0xbcf79d24	-0.030226298
30	0xbd23ffb5	-0.040038783
31	0xbd5a41f6	-0.05328556
32	0xbdc5f8c1	-0.09666587
33	0x3c8148c3	0.015781766
34	0x3c5e0bea	0.013552645
35	0xbcf9b7ab	-0.030483088
36	0xbc127d9b	-0.0089410795
37	0xbd010ba6	-0.03150525
38	0x3c51dd53	0.012809115
39	0x3be2b768	0.0069188364
40	0xbbb79060	-0.0056019276
41	0xbc7a4256	-0.015274605
42	0xbcb4ecfa	-0.022085655
43	0xbc8922b7	-0.016740186
44	0x3ab07e36	0.0013465348
45	0x3b5686ab	0.0032734077
46	0xbc8c2c34	-0.017110921
47	0xbc76273c	-0.015024003
48	0x3cd00890	0.025394708
49	0xbcc86f3a	-0.0244671
50	0xbafd089e	-0.0019304936
51	0x3c62e9db	0.013849701
52	0xbc45ba4f	-0.012068345
53	0xbd006409	-0.0313454
54	0xbbb7f972	-0.005614453
55	0xbc81cb4b	-0.015844008
56	0x3c72597f	0.014791845
57	0x3bb55a67	0.0055344584
58	0x3c900aea	0.01758333
59	0x3c2212e5	0.0098922
60	0x3bce79ca	0.0063011395
61	0xbc01a462	-0.007912727
62	0x3c2f7698	0.010709427
63	0xbba09a4e	-0.004901207
64	0xbcb4c478	-0.02206634
65	0xbcdda9a7	-0.027058436
66	0x3c70c91b	0.014696385
67	0xbc21e393	-0.009880918
68	0x3cdff03f	0.027336238
69	0xbca803bd	-0.020509595
70	0x3c13f172	0.009029733
71	0xbc4e7fac	-0.012603682
72	0xbd0953c8	-0.033527166
73	0xbd565cdc	-0.05233465
74	0xbd9a1e37	-0.07525294
75	0xbd8a773d	-0.06761024
76	0xbd402432	-0.04690952
77	0xbd5bf1a7	-0.053697255
78	0xbcf7c9cc	-0.030247591
79	0xbc2ed209	-0.0106701935
80	0x3d08abd6	0.033367
81	0x3d02d9fb	0.031946164
82	0xbc3ad836	-0.011404088
83	0x3d3e62b3	0.046480846
84	0xbd770d45	-0.06031539
85	0xbd677e9f	-0.05651724
86	0x3b36f8e6	0.002791935
87	0xbd2e345d	-0.042530406
88	0xbd18e930	-0.03733176
89	0x3bdfe54d	0.0068327547
90	0xbb6b5afa	-0.003591238
91	0xbd4cc5c4	-0.04999329
92	0xbc30145b	-0.010747041
93	0x3bce9348	0.0063041784
94	0x3be97227	0.0071242037
95	0xbd1cc925	-0.038277764
96	0xbcca0ef4	-0.024665333
97	0x3d0e4bcf	0.034740265
98	0xbc6ee306	-0.014580494
99	0x3b9d989e	0.004809453
100	0x3c73c6ab	0.014878909
101	0xbc501f1a	-0.012702728
102	0x3c88ae14	0.01668457
103	0x3c2b92c8	0.010472007
104	0xbb686852	-0.003546257
105	0xbd370272	-0.044680066
106	0x3b05a80a	0.0020394349
107	0xbcbb82ac	-0.022889458
108	0x3d35b3fb	0.044361096
109	0x3a313db7	0.00067612104
110	0x3b15b51b	0.0022843543
111	0xbc4b111f	-0.012394219
112	0xbcb8a1bd	-0.02253806
113	0x3d2f3d0a	0.04278282
114	0xbc820770	-0.015872687
115	0x3c80a490	0.01570347
116	0xbc77d095	-0.015125413
117	0xbd3e5013	-0.046463083
118	0xbd0e3af8	-0.034724206
119	0x3c85d239	0.016335594
120	0xbccf070b	-0.025271913
121	0x3be42fcf	0.006963707
122	0xbc50ad19	-0.012736582
123	0xbd5e505d	-0.05427586
124	0x3c5abe7e	0.013351081
125	0xbbaf28d4	-0.0053454433
126	0x3c8d8583	0.017275577
127	0x3b05b119	0.0020399748
128	0xbc092ac9	-0.008372017
129	0x3c3c018f	0.011474981
130	0x3c6f35e0	0.014600247
131	0x3c8341fe	0.016022678
132	0x3d0df29a	0.03465519
133	0xbbdd0f91	-0.0067462404
134	0x3c6b5071	0.01436244
135	0xbd5bcb8b	-0.05366091
136	0x3c63fe83	0.013915661
137	0xbc34f0f4	-0.011043776
138	0xbc673aa4	-0.014113102
139	0x3cda74d2	0.026667032
140	0x3c7c84c3	0.015412512
141	0x3d242c6f	0.040081438
142	0xbc823ca5	-0.015898058
143	0x3a8884f4	0.00104156
144	0x3c86b03f	0.016441463
145	0x3c6c707e	0.014431117
146	0xbc376568	-0.011193611
147	0x3c725be4	0.014792416
148	0x3b8fec1a	0.004392159
149	0x3cba2be0	0.022726
150	0xbc80365c	-0.01565092
151	0x3c6e2f38	0.014537625
152	0xbc2052e1	-0.009785385
153	0x3d18617a	0.037202336
154	0xbbd06459	-0.0063596186
155	0xbd15fb53	-0.036616635
156	0xbc91f775	-0.017818192
157	0xbc667602	-0.014066221
158	0xbc821ced	-0.015882934
159	0xbccc69a3	-0.024952715
160	0xbbe25cf4	-0.0069080535
161	0x3cbb29e6	0.022847127
162	0x3c8d1f87	0.017226947
163	0x3d12e372	0.03586144
164	0x3d06ce07	0.032911327
165	0x3c7d7f0f	0.015472188
166	0x3d028490	0.031864703
167	0x3d403758	0.04692778
168	0xbc7b98bf	-0.015356242
169	0xbc4512bd	-0.012028393
170	0x3d2ba1e1	0.041902427
171	0xbd2a0e6f	-0.04151767
172	0xbd3cadc1	-0.046064142
173	0x3d3fef8e	0.046859317
174	0x3cd4585b	0.025921037
175	0x3c091667	0.008367158
176	0xbd0c1f2b	-0.03420941
177	0xbcee5299	-0.02909212
178	0x3d3d0987	0.046151664
179	0x3d201869	0.03908578
180	0xbc91634a	-0.01774754
181	0xbc6ebb18	-0.014570974
182	0x3c78c1c0	0.015182912
183	0x3c6f757d	0.014615414
184	0xbc73ecab	-0.014887969
185	0x3c1b0113	0.009460705
186	0x3ca4b103	0.020103937
187	0x3acc4d90	0.001558708
188	0x3d269494	0.04066904
189	0x3ce17b49	0.027524607
190	0x3c545cd9	0.01296159
191	0xbbcb680e	-0.0062074726
192	0xbc5babb5	-0.013407637
193	0x3c3b95f1	0.011449323
194	0x3b483d1b	0.0030554
195	0x3b8f774c	0.004378235
196	0x3c3f10fc	0.011661764
197	0x3c2bfc10	0.010497108
198	0x3ce30fbe	0.027717467
199	0xbbe54b9a	-0.006997538
200	0xbc7857ff	-0.015157699
201	0xbb3834f8	-0.0028107744
202	0x3c7c1a9a	0.015387202
203	0xbcb59d89	-0.022169845
204	0x3c498435	0.012299587
205	0x3c7ed13a	0.015552813
206	0xbc5542d0	-0.013016418
207	0x3cc577e6	0.024105024
208	0x3c821302	0.015878204
209	0x3cb9a90c	0.022663616
210	0x3c59703a	0.013271386
211	0x3c81b5f0	0.015833825
212	0xbc7cf00d	-0.015438092
213	0xbbb3b243	-0.005483897
214	0xbc7a9db8	-0.015296392
215	0x3c7dad60	0.01548323
216	0x3c78746d	0.015164477
217	0xbcd3aa6e	-0.025838103
218	0x3c7b30ee	0.01533149
219	0x3cf0a88b	0.029377243
220	0x3ceb633d	0.028733844
221	0x3c7d3716	0.015455028
222	0x3d14c884	0.03632404
223	0x3b86c08c	0.004112309
224	0xbc1823db	-0.009285892
225	0xbc7356ad	-0.014852208
226	0x3c629cd4	0.013831336
227	0x3c831c04	0.01600457
228	0xbcc0c408	-0.023530975
229	0xbb39efca	-0.0028371685
230	0x3b4c66af	0.0031189134
231	0xbc6c4633	-0.014421034
232	0xbc874596	-0.016512673
233	0xbb4baece	-0.0031079534
234	0x3c80efb0	0.015739292
235	0x3c80cc69	0.01572247
236	0xbc7d49d2	-0.015459495
237	0xbb8c21e3	-0.0042765005
238	0x3c94ab5c	0.018148117
239	0x3d33db8f	0.04391056
240	0xbc528969	-0.012850144
241	0x3c231aec	0.009955149
242	0x3c761fac	0.0150222
243	0xbd046b3e	-0.032328837
244	0xbd46e01b	-0.048553567
245	0x3c5a1f5a	0.013313139
246	0x3c5bb31a	0.0134094
247	0x3b56a8f0	0.0032754503
248	0xbd3260af	-0.043549236
249	0x3aaeab96	0.0013326283
250	0xbca53668	-0.020167544
251	0xbc2eed3a	-0.010676676
252	0x3c11eece	0.008907033
253	0xbd4285fa	-0.04749105
254	0xbd8d791e	-0.06907867
255	0x3c4d5cb0	0.012534305

blocks.4.synapse.weight f4 [10, 512, 1, 1, 1]
0	0x3c7e77af	0.0155314645
1	0x3c80362e	0.015650835
2	0x3c62d6bd	0.013845143
3	0x3c7b00ab	0.0153199835
4	0xbbda5843	-0.0066633536
5	0xbbd63ff5	-0.006538386
6	0xbc323faf	-0.010879441
7	0xbbaa170b	-0.005190735
8	0x3c831946	0.016003262
9	0xbc12cab7	-0.008959464
10	0xbc76b2a2	-0.015057238
11	0xbbdbd147	-0.0067082974
12	0x3ac8fb58	0.0015333695
13	0xbb629f6d	-0.0034579888
14	0xbc5d808c	-0.0135194175
15	0xbbf26c5c	-0.0073981714
16	0xbb86c1cc	-0.004112458
17	0xbc81a48e	-0.015825536
18	0x3c44ccc3	0.01201171
19	0xbc4ae9e9	-0.01238487
20	0x3c29511a	0.0103342775
21	0xbc80667c	-0.015673868
22	0x3aa553fb	0.0012613529
23	0x3c1a5763	0.009420249
24	0x3c7cd226	0.015430963
25	0x3ab2d386	0.0013643361
26	0x3b27661d	0.0025543042
27	0x3c8b1fa8	0.016982868
28	0xbc78d938	-0.015188508
29	0x3c3e640a	0.011620531
30	0x3c842296	0.016129773
31	0x3c668b36	0.014071276
32	0x3c883f39	0.01663171
33	0x3c78c6b6	0.015184095
34	0x3c78953f	0.015172302
35	0xbb88ca5a	-0.004174513
36	0x3c7da0d1	0.015480236
37	0x3d86ca20	0.06581521
38	0x3d80ea20	0.06294656
39	0x3c7b8ff2	0.015354143
40	0x3c9db81b	0.019252827
41	0x3c57dfe5	0.013175939
42	0x3a8c481a	0.001070264
43	0x3c812c7f	0.015768288
44	0x3d43036c	0.047610685
45	0x3da02b5f	0.078207724
46	0x3d32e15c	0.04367195
47	0x3c64ed37	0.013972572
48	0x3bb714c0	0.0055871904
49	0x3c7c4ba1	0.015398891
50	0x3ab8778e	0.0014073716
51	0xbc729dca	-0.014808128
52	0xbb9eda2e	-0.0048477864
53	0x3b17e5f5	0.0023177837
54	0x3a20a578	0.00061281724
55	0xbc73d0b6	-0.0148813035
56	0xbb13e22f	-0.0022565236
57	0x3c01dae5	0.007925724
58	0x3bee32ec	0.007269254
59	0xbc58a345	-0.01322252
60	0xbc7d0659	-0.015443408
61	0xbc888252	-0.016663704
62	0xbc34cebd	-0.011035618
63	0x3b299406	0.0025875582
64	0xbc9a62b8	-0.0188459
65	0xbc766a57	-0.015040002
66	0xbc8555f2	-0.016276333
67	0x3b991638	0.004671838
68	0x3c5d239b	0.013497259
69	0xbc494d1e	-0.012286453
70	0x3aa8aed2	0.0012869483
71	0x3c35b734	0.011091042
72	0xbafbe55b	-0.0019218134
73	0x3b79a845	0.0038094681
74	0x3b4ffb39	0.0031735434
75	0x3c72649b	0.014794494
76	0x3c73d46e	0.01488219
77	0x3c6d2437	0.014473966
78	0x3c7a2ae1	0.015269012
79	0x3bf52c62	0.0074820975
80	0xbc8ca443	-0.01716817
81	0xbc458cd2	-0.0120575
82	0xbc7f0ac3	-0.015566531
83	0xbbe13cbf	-0.0068736966
84	0x3c6773bb	0.014126713
85	0x3cd8d002	0.026466373
86	0x3c8dd73a	0.017314542
87	0xbc0c4f12	-0.008563774
88	0x3bb83133	0.0056210994
89	0xbc52db39	-0.01286965
90	0x3c712f2c	0.014720719
91	0xbc2f22d0	-0.010689452
92	0x3a87eb8c	0.0010369881
93	0x3c882f25	0.016624043
94	0x3c838362	0.01605386
95	0x3c334696	0.010942122
96	0x3a940e92	0.0011295846
97	0x3c48b542	0.0122502465
98	0x3c86ce85	0.016455898
99	0xba5602bc	-0.00081638596
100	0xbc7abaea	-0.015303353
101	0xba2a216e	-0.0006489967
102	0xbc0e1a7f	-0.008673309
103	0x3c80529c	0.015664391
104	0xbc6c90cd	-0.01443882
105	0xbb586120	-0.0033016875
106	0xbc7acd6e	-0.015307767
107	0x3becadd1	0.007222869
108	0xbc647a7d	-0.013945219
109	0xbc52421f	-0.012833147
110	0xbc58e980	-0.0132392645
111	0x3c7d38ce	0.015455438
112	0x3c8fb803	0.017543798
113	0x3c9d6574	0.019213416
114	0xbc482a37	-0.012217096
115	0xbbf9beb3	-0.00762161
116	0xbc527be0	-0.012846917
117	0xbc5f1798	-0.013616465
118	0x3c402242	0.011726918
119	0x3c9f1b03	0.01942206
120	0x3d431a78	0.047632664
121	0x3cac1b3b	0.021009078
122	0x3c82c2a5	0.015961954
123	0x3bfb0ffa	0.0076618167
124	0x3c1d66ca	0.009607026
125	0x3baa5b7e	0.005198895
126	0x3c3c7e3e	0.011504708
127	0x3c837910	0.016048938
128	0x3c8798c7	0.016552342
129	0x3c51e6c1	0.012811364
130	0xbc6456a9	-0.013936677
131	0x3c7c5061	0.015400023
132	0x3c802949	0.015644686
133	0x3c818c33	0.015813923
134	0x3c56716b	0.013088564
135	0x3c676db6	0.014125278
136	0x3c80bea5	0.015715906
137	0x3c29e8b4	0.010370422
138	0xbc74d74f	-0.014943912
139	0xbc2f1562	-0.01068625
140	0x3c7f2491	0.015572683
141	0x3c08a6ef	0.008340581
142	0xbc2a4155	-0.010391553
143	0x3c2917a0	0.010320574
144	0x3bce2446	0.006290945
145	0x3c68231e	0.014168529
146	0x39b90942	0.00035292847
147	0x3c636f2e	0.013881488
148	0xbbd044f0	-0.0063558742
149	0xbb208227	-0.002449164
150	0xbc7a33da	-0.015271151
151	0x3b901c2a	0.0043978887
152	0x3cbc2250	0.02296558
153	0x3c7dcacf	0.015490248
154	0x3be3d5ae	0.006952963
155	0xbac84e45	-0.0015282115
156	0x3c6896b8	0.01419609
157	0xbc59dd25	-0.013297354
158	0xbc6d622c	-0.014488738
159	0x3b512f52	0.0031919074
160	0x3cbf8408	0.023378387
161	0xbc4a9446	-0.012364453
162	0xbc83ec6c	-0.016103946
163	0x3c859ccb	0.016310116
164	0xbcbf1072	-0.023323271
165	0xbc7d5d2f	-0.015464111
166	0x3c6ca6e0	0.014444083
167	0x3c75744b	0.01498134
168	0xbc4e931e	-0.012608318
169	0xbc554335	-0.013016512
170	0x3c3277bd	0.010892806
171	0xbc8f5896	-0.017498296
172	0xbd35cf35	-0.04438706
173	0x3c844bc0	0.016149402
174	0x3c26561a	0.010152364
175	0x3c4596f5	0.012059917
176	0xbb39f5cf	-0.0028375273
177	0xbc85b0bd	-0.016319627
178	0xbc82c4b8	-0.015962943
179	0xbbd5d657	-0.0065257954
180	0xbc308df4	-0.010776032
181	0x3c42d4d7	0.011891565
182	0x3c45050b	0.012025128
183	0x3c71149e	0.014714388
184	0xbbebb87e	-0.007193624
185	0xbc64a6b9	-0.013955765
186	0xbc856c63	-0.016287034
187	0xbc66ee23	-0.014094862
188	0x3c8577d8	0.016292498
189	0x3c61d34c	0.013783287
190	0x3c8359c7	0.01603402
191	0x3c8a8b76	0.016912203
192	0x3ca0f025	0.01964576
193	0x3c7b2af4	0.015330065
194	0x3c83cad6	0.01608793
195	0x3c7bc4b0	0.015366718
196	0x3c80765b	0.015681436
197	0x3c830f2b	0.015998444
198	0x3b910e7f	0.004426777
199	0x3ae18caa	0.0017208059
200	0x3c8c0934	0.017094232
201	0xbab45404	-0.0013757949
202	0x3c4cff5f	0.012512057
203	0x3c70ad0f	0.014689698
204	0xbc706cb9	-0.014674359
205	0x3ba13b4f	0.0049204
206	0x3c6bc110	0.014389291
207	0x3ad2a5b5	0.0016071113
208	0x3c8622f8	0.016374096
209	0x3c805c44	0.015668996
210	0x3c8060cf	0.015671162
211	0x3c3a250c	0.011361372
212	0x3b045329	0.002019117
213	0xbc7d12fd	-0.015446422
214	0x3c267641	0.01016003
215	0x3c4ef5ab	0.012631814
216	0x3d3f3a2f	0.046686348
217	0x3cf6dc8e	0.030134466
218	0xbba4e96b	-0.0050327084
219	0x3c119e04	0.0088877715
220	0xbc8161b1	-0.015793653
221	0xbc797d53	-0.0152276335
222	0xbc145d4d	-0.009055448
223	0x3c787b1a	0.015166068
224	0x3b905f70	0.0044059083
225	0xbc6407eb	-0.013917903
226	0xbc96335a	-0.018335033
227	0x3c513bba	0.012770588
228	0x3c65e41d	0.014031437
229	0xbc45c29f	-0.012070327
230	0xbba25210	-0.0049536303
231	0x3c7b4516	0.015336296
232	0xbbd5fc08	-0.0065302886
233	0x3bccc7de	0.006249412
234	0x3c6de83c	0.014520701
235	0x3c9b04c8	0.018923178
236	0x3c7cbfd5	0.015426596
237	0x3c4a15da	0.012334311
238	0x3a9e6a29	0.0012086082
239	0xbc815bb9	-0.015790807
240	0xbc7d7bb3	-0.015471387
241	0xbb789666	-0.0037931441
242	0x3c375291	0.011189119
243	0x3c818ac0	0.015813231
244	0x3bf9dd1b	0.007625235
245	0x3bfe66e5	0.007763731
246	0xbbc6405b	-0.0060501522
247	0xbc39a93f	-0.011331855
248	0xbc6bf1c1	-0.0144009
249	0x3c6af5ca	0.014340827
250	0xbc8dc6a1	-0.017306628
251	0xbb6aada8	-0.0035809074
252	0xbc68545a	-0.014180267
253	0xbb26280f	-0.0025353467
254	0x3c0eaf81	0.008708836
255	0x3c621936	0.013799956
