MNIST/20:15:59:Apr-12-23/network.pt (torch, 430575 bytes, 6 tensors)

blocks.0.synapse.weight f4 [16, 1, 3, 3, 1]
0	0xbded71bb	-0.11593958
1	0x3c98a516	0.018633407
2	0x3ca4fc6b	0.020139894
3	0xbea77a67	-0.32710573
4	0x3b291600	0.0025800467
5	0x3e8d6a0b	0.27619967
6	0x3e676cce	0.226001
7	0x3e387b5b	0.18015806
8	0xbcbd582b	-0.02311333
9	0x3e5a8e8b	0.21343438
10	0xbe49a97e	-0.19693562
11	0x3dedd6a6	0.116132066
12	0xbe5b60c3	-0.2142363
13	0xbe73dc88	-0.23814595
14	0x3e3dbad0	0.18528295
15	0xbe075570	-0.13216186
16	0xbdadc1ab	-0.08484205
17	0x3dd53d46	0.104120776
18	0x3dc3adfb	0.095546685
19	0x3d9db03b	0.07699629
20	0xbe880daf	-0.2657294
21	0xbdfe33d6	-0.12412231
22	0x3d6bcecb	0.05757026
23	0x3e8e7054	0.27820075
24	0x3e6b60d6	0.22986159
25	0xbe4ab36b	-0.19795005
26	0x3e6b58de	0.22983119
27	0xbe2d4573	-0.16921024
28	0xbe1c9683	-0.1529179
29	0x3e39e128	0.18152297
30	0x3e5edbb6	0.217635
31	0x3e040770	0.12893462
32	0xbd8b9ae0	-0.068166494
33	0x3e4176de	0.18893
34	0xbea25df6	-0.31712312
35	0x3e549556	0.20760092
36	0xbdb90eb0	-0.090360045
37	0x3e996e77	0.2996709
38	0xbe68e26b	-0.22742622
39	0xbea960eb	-0.33081755
40	0x3dde3616	0.1085016
41	0xbea76c98	-0.32700038
42	0xbdbc7af6	-0.092031404
43	0x3d2bee0b	0.041975062
44	0xbea78ce7	-0.32724687
45	0x3e66d0d8	0.22540605
46	0x3e8b087f	0.2715492
47	0xbe8d8b62	-0.27645403
48	0x3e8454b3	0.2584587
49	0x3e47250e	0.19447729
50	0xbe8785c6	-0.2646925
51	0x3ea0908b	0.31360278
52	0x3e80f73f	0.25188634
53	0x3e0adf2e	0.13561699
54	0xbcb2a540	-0.021807313
55	0xbc2fc156	-0.010727247
56	0x3cfe8800	0.03107071
57	0xbdcb2c30	-0.099205375
58	0x3d908f40	0.07058573
59	0xbea64a7f	-0.3247871
60	0xbd9afd40	-0.07567835
61	0xbd8f65a0	-0.07001805
62	0xbe1bd60e	-0.15218374
63	0x3e1bf3c0	0.15229702
64	0x3e24e0c3	0.16101365
65	0xbd90fcd6	-0.07079475
66	0x3e11a33e	0.14222428
67	0x3ea120d8	0.3147037
68	0x3e876546	0.26444453
69	0x3e4fddc0	0.20299435
70	0x3e121113	0.14264326
71	0x3e67d33e	0.22639176
72	0x3db12c96	0.08651082
73	0x3e9c59ee	0.3053736
74	0xbe5df3de	-0.21675059
75	0x3dcd4dbb	0.100245915
76	0xbe91f65f	-0.2850828
77	0x3e778bb6	0.24174389
78	0x3e90350b	0.2816547
79	0x3e91854a	0.28422004
80	0x3e809894	0.25116408
81	0x3c9d6cab	0.019216856
82	0x3dd03d10	0.10167897
83	0xbe6ce816	-0.23135409
84	0xbe95a2cb	-0.29225764
85	0xbe3b2b20	-0.1827817
86	0xbcd7d740	-0.026347756
87	0xbd9ea1bb	-0.077456914
88	0xbe03a2a0	-0.12855005
89	0x3e836b57	0.2566783
90	0x3de6969b	0.112591945
91	0x3e08fb18	0.13377035
92	0xbe139493	-0.14412145
93	0x3e0d0e18	0.13774908
94	0xbe4f8c16	-0.20268282
95	0x3e54585b	0.2073683
96	0xbe14d9d0	-0.14536214
97	0x3c7803d6	0.015137633
98	0xbda04a46	-0.078266665
99	0xbdef361b	-0.11680242
100	0xbd551e8b	-0.05203108
101	0x3ea6d110	0.32581377
102	0xbea33b0a	-0.3188098
103	0x3ea3031b	0.31838307
104	0xbe49524e	-0.19660303
105	0xbe36ba1e	-0.17844436
106	0x3d47e32b	0.04880063
107	0x3e8e92a7	0.27846262
108	0xbe84a457	-0.2590663
109	0x3e3a6bdb	0.18205206
110	0x3e343f03	0.17602162
111	0xbe5baa86	-0.21451768
112	0xbc445556	-0.011983236
113	0xbe760a33	-0.24027328
114	0x3eaa45d6	0.33256406
115	0xbe577cfe	-0.21043774
116	0xbe788590	-0.242697
117	0x3e783ea3	0.24242644
118	0x3e432983	0.19058804
119	0xbdba9ba6	-0.09111719
120	0xbe140cf0	-0.1445806
121	0x3e7f20ce	0.24914858
122	0xbe8f4a9f	-0.2798662
123	0xbdfb65f6	-0.12275307
124	0x3e3a867b	0.18215363
125	0x3c5e3f00	0.013564825
126	0xbcc57440	-0.024103284
127	0xbdc07006	-0.09396367
128	0xbe33e0e0	-0.17566252
129	0xbe326b3e	-0.17423722
130	0x3e92c0c4	0.28662694
131	0x3d3b9a60	0.04580152
132	0x3ea58982	0.32331473
133	0xbcfbe616	-0.030749362
134	0x3e90fd94	0.28318465
135	0x3e545880	0.20736885
136	0x3e949b36	0.29024667
137	0xbe798fd3	-0.24371271
138	0xbe32fe36	-0.17479786
139	0xbdb298ab	-0.08720525
140	0x3e6e2126	0.23254833
141	0xbe642560	-0.22279882
142	0x3c5c8800	0.013460159
143	0xbe7e4cd0	-0.24833989

blocks.1.synapse.weight f4 [16, 16, 2, 2, 1]
0	0x3d8974e0	0.06711745
1	0xbded30c4	-0.11581567
2	0x3da341c2	0.07971527
3	0x3d17f0c4	0.037094846
4	0xbca57c20	-0.020200789
5	0xbdc20802	-0.094741836
6	0xbdcd9f4c	-0.10040149
7	0x3d6b3ec4	0.057432905
8	0x3bd08a00	0.006364107
9	0xbb0b05bc	-0.0021213135
10	0xbdda5482	-0.1066065
11	0x3d81a706	0.06330685
12	0x3df07060	0.11740184
13	0x3daa88de	0.083268866
14	0xbd8fc0ce	-0.070191965
15	0x3da19800	0.0789032
16	0x3dba23f2	0.09088887
17	0xbda08826	-0.07838468
18	0xbca57fe0	-0.020202577
19	0x3c4bcd90	0.012439147
20	0x3cd3bf30	0.025848001
21	0xbda26c7e	-0.079308495
22	0x3db89f88	0.09014803
23	0xbd8439bc	-0.064563245
24	0xbddddac2	-0.1083274
25	0x3af16980	0.0018418282
26	0x3dd02d94	0.10164943
27	0xbdb55056	-0.088532135
28	0x3dfbc140	0.12292719
29	0x3dfeb5c6	0.12437014
30	0x3dbd6268	0.09247285
31	0xbad2bbc6	-0.0016077689
32	0xbc57d778	-0.01317393
33	0x3db8a0f4	0.09015074
34	0xbd3b2ca4	-0.04569687
35	0xbda07e7e	-0.078366265
36	0xbdd7993c	-0.10527274
37	0xbd8bafae	-0.068206176
38	0xbdaee45c	-0.0853965
39	0x3c63dde0	0.01390788
40	0x3c01db30	0.0079257935
41	0x3d1f8f60	0.038955092
42	0xbd85561e	-0.06510566
43	0xbcd83780	-0.026393652
44	0x3cd64e28	0.026160315
45	0xbd85d324	-0.065344125
46	0x3ddee1a8	0.10882884
47	0x3d9fd8e0	0.078050375
48	0x3c9482a0	0.018128693
49	0x3dffcfcc	0.12490806
50	0xbcf16130	-0.029465288
51	0xbd0a96dc	-0.033835277
52	0xbd5ac550	-0.053410828
53	0xbdfa480a	-0.122207716
54	0x3dd2d96e	0.10295378
55	0xbd2667b4	-0.040626243
56	0xbce332c8	-0.027734175
57	0xbdb476fe	-0.088117585
58	0xbde4fb60	-0.111807585
59	0x3da1c9d4	0.07899824
60	0x3dcb5dee	0.09930025
61	0xbd0fa970	-0.035073698
62	0x3cebb4a8	0.028772667
63	0xbdca47ce	-0.09876977
64	0x3d118a24	0.03553213
65	0xbddee9ce	-0.108844385
66	0x3dc7c3d4	0.09754148
67	0x3dbfe22c	0.09369311
68	0xbd7794f8	-0.060444802
69	0xbd12d2cc	-0.035845563
70	0x3cb31e60	0.02186507
71	0x3d8ed796	0.069747135
72	0xbdecbe2a	-0.115597084
73	0x3ddfeb10	0.109335065
74	0xbdfecacc	-0.12441024
75	0xbdd0816e	-0.10180937
76	0x3bc7bfc0	0.0060958564
77	0x3db721c0	0.08941984
78	0x3d5d8684	0.054083362
79	0xbcc151d0	-0.023598582
80	0xbd91981e	-0.07109092
81	0xbbd90540	-0.0066229403
82	0x3ce034e0	0.027368963
83	0x3c58e0d0	0.013237193
84	0xbdefa05e	-0.117005095
85	0x3ddd0c46	0.107933566
86	0x3d6c5cc0	0.05770564
87	0xbde03e60	-0.10949397
88	0x3de6b012	0.112640515
89	0xbd2f0f84	-0.042739406
90	0xbd873ffc	-0.06604001
91	0x3dc546c4	0.09632638
92	0x3cc7fb48	0.024411812
93	0x3dd751e6	0.10513668
94	0xbd2eed84	-0.04270698
95	0xbc899380	-0.016793966
96	0x3d8b385e	0.067978606
97	0x3b9c741b	0.004774583
98	0xbd4abd9c	-0.04949723
99	0x3d2916cc	0.041281506
100	0xbbe8a560	-0.0070997924
101	0xbd8dbb5a	-0.069205
102	0xbdff94ba	-0.12479539
103	0x398323ff	0.00025013086
104	0x3d13bae0	0.03606689
105	0xbda603b8	-0.08106178
106	0xbd8e8342	-0.06958629
107	0x3dbba6ec	0.09162697
108	0x3dfd49f6	0.123676226
109	0xbdd20520	-0.10254884
110	0xbdb686ae	-0.08912407
111	0xbd0d9bd0	-0.034572423
112	0x3dc7c352	0.09754051
113	0x3d26a92c	0.04068868
114	0x3df93b50	0.12169516
115	0x3d982ed2	0.07430805
116	0x3df8c7ae	0.12147461
117	0x3d960222	0.073246256
118	0xbcc921b0	-0.024552196
119	0xbd351210	-0.04420668
120	0xbd004bb8	-0.03132221
121	0xbd41af94	-0.047286585
122	0xbd502e74	-0.05082555
123	0x3c844b50	0.016149193
124	0x3d534dd0	0.05158788
125	0xbdafddf2	-0.085872546
126	0x3d0169d0	0.03159505
127	0xbcc72c18	-0.024313018
128	0xbd93e7c2	-0.07221939
129	0xbda3ea2e	-0.080036506
130	0x3cabc108	0.020966068
131	0x3d0c2ff8	0.034225434
132	0xbd72792c	-0.05919759
133	0xbde974c8	-0.113992274
134	0x3ab82800	0.0014050007
135	0x3d105d38	0.03524515
136	0x3c7b4110	0.015335336
137	0xbd100bf8	-0.035167664
138	0xbde51344	-0.11185315
139	0x3bd1a660	0.0063980073
140	0xbc72db70	-0.014822826
141	0x3dd77eae	0.10522209
142	0xbd9b1fa4	-0.07574394
143	0x3d84dc66	0.0648735
144	0x3d87d440	0.0663228
145	0xbdf0f338	-0.1176514
146	0x3c985008	0.01859285
147	0x3c537070	0.012905225
148	0x3cf2d6df	0.029643474
149	0xbcd1c608	-0.025607124
150	0x3d88bb04	0.066762954
151	0xbdd496ee	-0.1038035
152	0x3de2a228	0.11066085
153	0xbd121a60	-0.035669684
154	0xbd0a5d3c	-0.03378032
155	0xbdedb5a8	-0.11606914
156	0x3c8d1e40	0.017226338
157	0xbdf4d794	-0.11955181
158	0x3ce4ec98	0.027944848
159	0x3df3d7dc	0.11906406
160	0xbdc6d57c	-0.09708688
161	0xbdcb8746	-0.09937911
162	0x3ddf9678	0.109173715
163	0x3de8a38a	0.113593176
164	0xbc738970	-0.014864311
165	0x3dbb0b5e	0.091330275
166	0x3db5f9a6	0.08885507
167	0xbd82a8de	-0.06379865
168	0xbd762b98	-0.060100168
169	0xbc3c5570	-0.011494979
170	0xbd9b28b6	-0.07576124
171	0x3df6e296	0.120549366
172	0x3da0464a	0.078259066
173	0x3d8038bc	0.06260821
174	0x3df48366	0.11939125
175	0x3d5590f8	0.052140206
176	0x3c0c8b70	0.008578166
177	0x3d4d4a90	0.050119936
178	0xbdff6b42	-0.1247163
179	0x3ccd76a8	0.025080994
180	0xbd62e52c	-0.055394337
181	0x3db91a2c	0.09038195
182	0x3c2035a0	0.00977841
183	0x3dc803aa	0.09766324
184	0x3d90eb34	0.070761114
185	0xbc5772f0	-0.013149962
186	0x3c6105b0	0.013734266
187	0x3dcb50de	0.099275336
188	0x3cf4edb8	0.02989851
189	0xbd17be64	-0.037046805
190	0xbddd72d0	-0.10812914
191	0x3de73432	0.11289252
192	0xbdde6da6	-0.108607575
193	0x3d8a0576	0.06739323
194	0xbd8c79e4	-0.06859186
195	0xbdbe99e0	-0.09306693
196	0x3d3d227c	0.046175465
197	0xbd1e3410	-0.03862387
198	0x3cdd6c40	0.027029157
199	0x3da4390e	0.08018695
200	0xbd01730c	-0.031603858
201	0xbdca9d56	-0.09893291
202	0xbdf4260a	-0.11921318
203	0xbd367750	-0.04454738
204	0xbdd9eee2	-0.106412664
205	0x3d39debc	0.04537843
206	0x3bdb4580	0.0066916347
207	0xbd92188a	-0.07133587
208	0xbd27b85c	-0.040947303
209	0x3dfce05e	0.12347482
210	0xbddd7d20	-0.10814881
211	0x3de24b28	0.11049491
212	0xbd5e6104	-0.05429174
213	0x3d8cb23e	0.068699345
214	0xbcf88888	-0.03033854
215	0x3dec887c	0.1154947
216	0xbd90cca0	-0.07070279
217	0xbdff1cc2	-0.12456657
218	0xbdc92c7e	-0.09822939
219	0x3ca06bc0	0.01958263
220	0xbc959cd0	-0.01826325
221	0x3dd404f0	0.10352504
222	0x3dcc0598	0.099620044
223	0x3b57aec1	0.0032910558
224	0x3d907e7a	0.070553735
225	0xbda33d2a	-0.079706505
226	0xbdf70746	-0.12061934
227	0x3ca3abf0	0.019979447
228	0xbd97b57c	-0.07407662
229	0x3dcd8caa	0.10036595
230	0xbdc56bbe	-0.09639691
231	0xbdb7f5f8	-0.08982462
232	0x3da14e2c	0.07876238
233	0x3dd1cb64	0.10243872
234	0x3d8bb3c0	0.06821394
235	0xbdcb1b8c	-0.099173635
236	0x3dc9060e	0.09815608
237	0x3d4b85e4	0.049688235
238	0x3d4e6cbc	0.050396666
239	0xbd938ec0	-0.07204962
240	0x3d6bf6c0	0.057608366
241	0x3ddefe70	0.10888374
242	0x3dcc2fc2	0.099700466
243	0x3b711c00	0.003679037
244	0xbdfdc75a	-0.12391539
245	0xbdac35f0	-0.08408725
246	0xbd066920	-0.0328151
247	0x3df43b24	0.11925343
248	0xbda18b26	-0.078878686
249	0x3dc108d4	0.09425512
250	0x3d74e3b8	0.059787482
251	0xbd55c4ec	-0.052189752
252	0xbdc30cb2	-0.09523906
253	0x3d4d8e5c	0.050184593
254	0xbcd570a8	-0.026054695
255	0xbc134490	-0.008988515

blocks.2.synapse.weight f4 [16, 16, 3, 3, 1]
0	0x3d8820f6	0.06646912
1	0xbcf9eca0	-0.03050834
2	0x3da61d69	0.08111078
3	0xbc5f0fca	-0.013614604
4	0x3cfda0bb	0.030960431
5	0x3d897fe9	0.0671385
6	0xbd8251c5	-0.063632526
7	0x3d86212c	0.06549296
8	0x3d16f315	0.036852915
9	0x3bfc42b8	0.007698383
10	0x3cedaafa	0.029012192
11	0xbc520e31	-0.012820766
12	0x3cc5f756	0.02416579
13	0x3a06071a	0.00051127526
14	0x3d24f586	0.040273212
15	0xbd9a3279	-0.07529158
16	0xbc98069d	-0.018557841
17	0x3c5d5802	0.013509752
18	0x3d91d93a	0.07121511
19	0xbd983116	-0.074312374
20	0x3d656f19	0.056014154
21	0xbd552557	-0.052037563
22	0x3d1be1f9	0.0380573
23	0x3d58e2b5	0.05295058
24	0x3d3ba6e6	0.045813464
25	0xbd385791	-0.045005385
26	0x3d89f83b	0.06736799
27	0xbd99f596	-0.07517545
28	0xbd9b62fc	-0.07587239
29	0x3d13d89f	0.036095258
30	0x3d109263	0.035295855
31	0x3d2b0168	0.041749388
32	0xbda79f03	-0.08184626
33	0xbd56dae6	-0.05245485
34	0x3d9b03a1	0.075690515
35	0x3d8984df	0.06714796
36	0xbd82fbd0	-0.06395686
37	0xbd934755	-0.0719134
38	0xbd8e7565	-0.06955985
39	0x3d52db11	0.05147845
40	0x3d1aae0d	0.037763644
41	0xbcd47e33	-0.025939083
42	0xbd0ae397	-0.033908453
43	0x3bd504ff	0.0065008397
44	0xbb7b1048	-0.0038309265
45	0xbd9fff66	-0.07812385
46	0xbd7f5edc	-0.062346324
47	0xbd46ccde	-0.04853522
48	0xbc98564f	-0.018595843
49	0xbd0276e0	-0.03185165
50	0x3d47f445	0.048816938
51	0xbd38c87b	-0.045113068
52	0x3d2bd3e1	0.04195011
53	0xbc999ec6	-0.018752467
54	0x3c66b574	0.014081348
55	0x3c62af08	0.013835676
56	0x3d2e4844	0.042549387
57	0xbda67e99	-0.08129615
58	0x3d638c81	0.055553917
59	0x3c8ddd6b	0.017317494
60	0xbd8f8b81	-0.0700903
61	0x3d0fbac0	0.035090208
62	0xbc859794	-0.01630763
63	0x3d5c4942	0.0537808
64	0x3c9f6dc3	0.019461518
65	0xbd71c2ad	-0.059023548
66	0xbd79b290	-0.060961306
67	0xbc121d82	-0.008918168
68	0xbd4a372b	-0.04936902
69	0xbd731dba	-0.05935452
70	0xbd571d9b	-0.05251847
71	0x3c39f23e	0.011349259
72	0x3c028e0b	0.007968436
73	0x3cef6070	0.02922079
74	0xbc48144b	-0.0122118695
75	0x3d082df8	0.033246964
76	0xbc8d1510	-0.017221957
77	0xbc2b940b	-0.010472308
78	0x3d5e4ff8	0.054275483
79	0xbd61cb93	-0.055125784
80	0x3c09b596	0.00840511
81	0x3d1f0096	0.03881892
82	0xbd48a5f0	-0.048986375
83	0x3d276f4b	0.04087762
84	0xbd42a1b3	-0.04751749
85	0xbd18da20	-0.037317395
86	0x3d89bd9f	0.067256205
87	0x3d156100	0.03646946
88	0x3c08caab	0.008349101
89	0x3d019bee	0.031642847
90	0x3d5a9330	0.053363025
91	0xbd0feba8	-0.03513685
92	0x3d866ed8	0.065641105
93	0x3d88b0b9	0.06674332
94	0xbd18ea60	-0.037332892
95	0xbd962336	-0.07330935
96	0x3bdd91ec	0.00676178
97	0x3d125bb7	0.035731997
98	0xbd6ffcab	-0.058590572
99	0x3cb28e29	0.021796303
100	0xbb55b1ac	-0.0032607121
101	0xbc6d017d	-0.014465687
102	0xbcf578c8	-0.02996482
103	0x3d61e7ba	0.055152632
104	0x3c733402	0.014843943
105	0xbcc1eae9	-0.023671584
106	0xbd902903	-0.07039072
107	0xbd22bf40	-0.03973317
108	0xbc81b86f	-0.015835015
109	0xbd1b918c	-0.0379806
110	0xbda4872d	-0.08033595
111	0x3d905b44	0.070486575
112	0xbd7a8ec0	-0.061171293
113	0x3d8f01f9	0.06982798
114	0x3d00d512	0.0314532
115	0x3d919276	0.07108013
116	0xbc71a5e4	-0.014749024
117	0x3d73a803	0.0594864
118	0x3c31bc2a	0.010848084
119	0x3c96a4ef	0.018389193
120	0xbcc8cd98	-0.024512097
121	0x3b42b3a3	0.0029709123
122	0x3d38dd23	0.045132767
123	0xbd80c7ac	-0.062880844
124	0x3d9a8d3f	0.07546472
125	0x3bc533e3	0.0060181483
126	0x3c88a43c	0.016679876
127	0xbd5fcbee	-0.054637842
128	0xbd749855	-0.059715588
129	0x3cd186bc	0.025576942
130	0x3d964807	0.07337957
131	0xbb948691	-0.004532643
132	0xbd1b93e2	-0.03798283
133	0xbd707bae	-0.0587117
134	0xbda9e98d	-0.082964994
135	0xbd97d815	-0.07414261
136	0x3d909b43	0.07060864
137	0xbd6fbdd7	-0.058530655
138	0x3d0656d6	0.032797657
139	0x3c3cb9f8	0.011518948
140	0xbd2f21bb	-0.042756777
141	0x3bda08a4	0.006653862
142	0x3d9b0986	0.07570176
143	0x3d9b064d	0.07569561
144	0x3be0f5e5	0.0068652504
145	0x3ce3e04d	0.027816916
146	0x3da8f34f	0.082495324
147	0xbc6fcf51	-0.01463683
148	0x3d0bdf3c	0.03414844
149	0x3d508d30	0.050915897
150	0x3d2c22f3	0.042025518
151	0x3c9b6453	0.018968737
152	0xbd5eebd8	-0.054424137
153	0xbda84394	-0.082160145
154	0x3b9f55be	0.004862516
155	0x3ce73d3f	0.028227447
156	0x3d958128	0.07300025
157	0x3d51cef1	0.051222745
158	0xbc4b5f53	-0.012412864
159	0xbd566fb7	-0.052352633
160	0xbca501cd	-0.02014246
161	0xbcaa8f5e	-0.020820316
162	0x3b813b49	0.003943835
163	0xbcc23cd6	-0.02371065
164	0xbd90c3a8	-0.070685685
165	0x3c6f2ec0	0.014598548
166	0x3d289dec	0.04116623
167	0x3c6852e1	0.014179916
168	0xbc744fb5	-0.014911582
169	0xbd653b9f	-0.055965062
170	0x3d8014c8	0.06253964
171	0xbda63563	-0.081156515
172	0x3d4fc77b	0.05072735
173	0x3c9918ae	0.018688526
174	0x3a93a8a0	0.0011265464
175	0x3cb1ab35	0.021688083
176	0xbd02ff56	-0.03198179
177	0xba1c2448	-0.0005956334
178	0x3d426292	0.047457285
179	0xbcd22d4a	-0.025656361
180	0x3d91aedf	0.07113432
181	0xbd5d696e	-0.054055624
182	0x3b733d0e	0.003711525
183	0x3d5ed9c7	0.054406907
184	0xbb0d6e81	-0.0021580758
185	0xbc8d82fe	-0.017274376
186	0x3ccfee41	0.025382163
187	0x3d8ab076	0.067719385
188	0x3d834f28	0.06411582
189	0x3d2adb01	0.041712765
190	0x3d9eb224	0.077488214
191	0x3d0fef70	0.035140455
192	0xbcdfddac	-0.027327381
193	0xbc431922	-0.011907848
194	0x3c545231	0.012959049
195	0x3d8282fe	0.06372641
196	0x3d99dfba	0.075133756
197	0x3d9133ab	0.07089933
198	0x3d9329a3	0.07185676
199	0xbd94bd47	-0.07262664
200	0xbd0c72ed	-0.03428929
201	0x3d20c9b5	0.039254863
202	0x3d91afe8	0.071136296
203	0x3bac0001	0.005249024
204	0xbce7aae3	-0.028279727
205	0xbd60732f	-0.054797348
206	0x3d55bbb0	0.052180946
207	0x389b57cc	7.4073294e-05
208	0x3d801c5c	0.06255409
209	0xbd92b790	-0.07163918
210	0xbd08399e	-0.033258073
211	0xbcd23e68	-0.025664523
212	0x3c107fc9	0.008819529
213	0xbd0c9286	-0.034319423
214	0xbd9e1edc	-0.0772073
215	0x3ca02552	0.019549046
216	0x3da38874	0.07985011
217	0xbda632c4	-0.081151515
218	0x3d3ddcb6	0.046353064
219	0x3d798fc8	0.060928136
220	0x3cd05d40	0.02543509
221	0x3d985f8e	0.074401006
222	0xbd9b91ce	-0.075961694
223	0xbda3a6a4	-0.079907686
224	0xbc510ab6	-0.012758901
225	0xbcc042fb	-0.023469439
226	0xbcdaf256	-0.026726883
227	0xbcfe6a5b	-0.031056574
228	0xbd0b41c3	-0.033998262
229	0xbd8f01f7	-0.06982797
230	0x3c509d20	0.012732774
231	0x3c87c256	0.016572159
232	0xbcc3fda0	-0.023924649
233	0x3cc3215b	0.023819616
234	0xbd55c6ab	-0.052191418
235	0x3daa64a8	0.0831998
236	0x3da31bbd	0.07964275
237	0x3cba371e	0.02273136
238	0xbd00e1ea	-0.03146545
239	0xbd942852	-0.07234253
240	0xbc644892	-0.013933318
241	0x3d1629e8	0.03666106
242	0x3c8a07b7	0.016849382
243	0xbcaf0fc5	-0.021369824
244	0xbbfb5bc3	-0.007670851
245	0x3d671df0	0.056425035
246	0xbd9d36b1	-0.07676447
247	0x3ce87f95	0.028381148
248	0x3d94c9af	0.072650306
249	0xbd7c4325	-0.06158747
250	0x3da525ef	0.08063876
251	0xbcb4c431	-0.022066208
252	0x3d09f01f	0.033676263
253	0x3c8c5b92	0.017133508
254	0xbd49ccb5	-0.04926749
255	0xbcb60fd2	-0.02222434

blocks.3.synapse.weight f4 [16, 16, 2, 2, 1]
0	0x3d63b041	0.05558801
1	0xbd2ee1bd	-0.04269575
2	0xb82708c9	-3.9824085e-05
3	0x3d661f30	0.056182086
4	0xbd48e32f	-0.049044784
5	0x3c74a95b	0.014932956
6	0x3d894a93	0.06703677
7	0xbdb48338	-0.088140905
8	0xbcb96ae0	-0.02263397
9	0xbd89f36f	-0.067358844
10	0x3d1675ae	0.03673332
11	0xbcaa65da	-0.02080052
12	0x3c8909a3	0.016728228
13	0x3df4ddf6	0.11956398
14	0x3da2d559	0.07950849
15	0xbd09a980	-0.033608913
16	0x3c022604	0.007943634
17	0x3cb8be76	0.022551756
18	0x3dcbdb2c	0.09953913
19	0x3df51dea	0.11968596
20	0x3d4da65a	0.050207473
21	0x3cf64fb8	0.03006731
22	0xbca2f868	-0.01989384
23	0x3d55d2a3	0.052202832
24	0x3bfb5b0e	0.0076707667
25	0x3dd4cec6	0.103910014
26	0x3df7b16c	0.120943874
27	0xbc476daf	-0.012172147
28	0xbd17ff6a	-0.037108816
29	0xbb37c9ea	-0.0028043934
30	0xbbdb7312	-0.006697067
31	0xbcad351c	-0.021143489
32	0xbcaabfbd	-0.020843381
33	0x3d9cf4d2	0.07663883
34	0xbd340acf	-0.04395562
35	0xbd01270f	-0.03153139
36	0xbb09a655	-0.0021003683
37	0xbde85a17	-0.11345308
38	0xbd87c557	-0.066294365
39	0xbba69c96	-0.0050845845
40	0x3c7eb8b7	0.015546969
41	0xbaef8e71	-0.0018276704
42	0xbc3bbb94	-0.011458296
43	0x3d973de6	0.07384853
44	0xbdbef303	-0.093236946
45	0x3d3a374b	0.045462888
46	0xbdb7f119	-0.089815326
47	0x3d06c766	0.032905005
48	0xbc25e394	-0.01012506
49	0xbcc2808f	-0.023742942
50	0x3d66e4cf	0.056370553
51	0x3de656e2	0.1124704
52	0xbc47401f	-0.012161284
53	0xbd80dc3b	-0.06292006
54	0xbd7aff5a	-0.06127868
55	0x3df72939	0.120684095
56	0x3c76d104	0.015064482
57	0xbc3e9fab	-0.0116347475
58	0xbdc7f394	-0.09763256
59	0xbdd2453d	-0.102671124
60	0xbd7d86be	-0.06189608
61	0x3d8f1fab	0.06988462
62	0xbcc2ea92	-0.023793492
63	0x3ca9a431	0.020708175
64	0xbd5fdeac	-0.054655716
65	0xbdc74430	-0.097298026
66	0xbdb79ffb	-0.08966061
67	0x3dab8638	0.083752096
68	0x3d7d8a29	0.061899338
69	0xbcd1418e	-0.025543954
70	0x3cb79a39	0.022412406
71	0xbd5ffb1d	-0.05468284
72	0xbd8e73ed	-0.06955705
73	0x3cba4aac	0.022740684
74	0xbd081d1b	-0.033230882
75	0xbc5c4c12	-0.013445871
76	0xbd7c4d8f	-0.061597403
77	0xbd15da6d	-0.03658526
78	0x3c00c02c	0.007858317
79	0xbd153d55	-0.036435444
80	0x3d96baf2	0.07359876
81	0x3d9f0356	0.07764308
82	0xbdbb4f3f	-0.09145974
83	0x3c9ed5f6	0.019389134
84	0xbd242f28	-0.040084034
85	0xbbb8a7a0	-0.005635217
86	0x3d9cdf0b	0.076597296
87	0x3d6fb010	0.058517516
88	0x3daf1e5a	0.08550711
89	0x3cae8a36	0.021306138
90	0xbdcaec66	-0.09908371
91	0xbdc4f574	-0.09617129
92	0xbde4eef1	-0.11178387
93	0x3d2afd73	0.041745614
94	0x3ce4ddc5	0.02793778
95	0x3d1cc242	0.038271196
96	0x3c3c645b	0.011498536
97	0x3d3b8650	0.045782387
98	0xbdde4ce2	-0.10854508
99	0x3c766971	0.015039788
100	0xbdf567de	-0.11982702
101	0x39c055a8	0.00036684913
102	0x3c4e9606	0.012609011
103	0xbdc79103	-0.09744456
104	0xbccf03ab	-0.025270304
105	0xba4c974d	-0.0007804528
106	0x3d4c5cfb	0.04989336
107	0xbc03722c	-0.008022826
108	0x3d0baa79	0.034098122
109	0xbdd1d2b2	-0.10245265
110	0xbdb2f9af	-0.087390296
111	0x3db3d39f	0.08780598
112	0xbb35ba81	-0.0027729573
113	0xbc480d7f	-0.012210249
114	0xbd789d5c	-0.060696945
115	0x3c60f0dd	0.013729301
116	0xbd4f190c	-0.050560996
117	0xbbb903c3	-0.0056462004
118	0xbc1b36af	-0.009473487
119	0xbd998a1d	-0.07497046
120	0xbd4cfd11	-0.05004603
121	0xbda17f92	-0.0788566
122	0xbc446c76	-0.01198875
123	0x3d963a9f	0.073354
124	0xbd466ddb	-0.04844461
125	0x3d8ae86a	0.06782611
126	0x3c74d9ce	0.014944507
127	0x3dd920d8	0.106019676
128	0x3bb250f4	0.0054417793
129	0x3c181898	0.009283207
130	0xbba5796d	-0.0050498755
131	0xbd16c1bb	-0.03680585
132	0xbd73a88b	-0.059486907
133	0xbbc352b0	-0.005960785
134	0x3d8c367c	0.068463296
135	0x3d901458	0.0703513
136	0xbd702379	-0.05862758
137	0x3d694d0f	0.056958254
138	0x3c873e43	0.01650918
139	0xbd5fa64c	-0.054601952
140	0x3dd51da9	0.10406048
141	0xbd41ec0d	-0.047344256
142	0x3d3f4140	0.046693087
143	0x3d78e045	0.060760755
144	0x3de38d92	0.11110987
145	0x3d9761c0	0.07391691
146	0xbd914e5a	-0.070950225
147	0xbda740c6	-0.081666514
148	0x3d33612e	0.04379385
149	0xbda04d27	-0.07827216
150	0x3d26c38d	0.040713836
151	0xbd459f64	-0.04824771
152	0xbbd98883	-0.006638588
153	0xbd34c916	-0.044137083
154	0x3da839ca	0.082141474
155	0xbc86cae7	-0.016454173
156	0x3dd593c3	0.10428574
157	0x3cdeba54	0.027188458
158	0x3dac882c	0.0842441
159	0xbdf5c73a	-0.1200089
160	0xbdbf60ff	-0.093446724
161	0x3cfbbd86	0.03073002
162	0xbbb93444	-0.0056519825
163	0xbd84a235	-0.06476251
164	0xbc3f5a7e	-0.01167929
165	0x3b9f4e71	0.004861646
166	0x3d213ad1	0.039362732
167	0x3db8672b	0.09004053
168	0x3d4eb2d4	0.050463513
169	0xbbfcae85	-0.007711234
170	0xbdb2cbb7	-0.08730262
171	0xbd859a42	-0.06523563
172	0x3cb4fe6c	0.022093974
173	0x3df3adef	0.118984096
174	0xbdd0a7be	-0.10188244
175	0x3a160119	0.00057222095
176	0xbc681839	-0.014165931
177	0xbd4a4388	-0.04938081
178	0x3d66b026	0.056320332
179	0xbc9c8709	-0.019107359
180	0xbd4957ca	-0.049155988
181	0x3ded8a97	0.115986995
182	0xbdfc4a93	-0.123189114
183	0xbdfe52f0	-0.12418163
184	0x3d3351d6	0.043779217
185	0x3c3fd441	0.01170832
186	0x3cbe1fb3	0.023208475
187	0xbcd6e369	-0.026231484
188	0xbdea802b	-0.11450227
189	0xbdee78d1	-0.11644138
190	0xbdaefacf	-0.08543932
191	0xbdc16279	-0.0944261
192	0x3cf4606c	0.029831134
193	0x3d80ce35	0.06289331
194	0x3d0624ce	0.032749943
195	0xbddb5773	-0.10710039
196	0x3cb8e8f6	0.022572022
197	0xbd9ae298	-0.075627506
198	0x3d163da7	0.03667989
199	0xbd9ffa1c	-0.078113765
200	0xbde5cd48	-0.11220795
201	0x3dec2d42	0.1153207
202	0xbbf18758	-0.0073708706
203	0xbbd0589e	-0.0063582202
204	0x3db401e1	0.08789421
205	0x3dcf4f00	0.1012249
206	0xbcf1bb46	-0.029508244
207	0x3d4fb04e	0.050705247
208	0xbd9c28b8	-0.07624954
209	0x3dbcf032	0.09225501
210	0x3dc45f3a	0.095884755
211	0x3dba2737	0.09089511
212	0x3df1c2db	0.11804744
213	0xbd864b39	-0.06557316
214	0x3caa31a0	0.020775616
215	0xbd95cae2	-0.073140875
216	0xbdcdba14	-0.10045257
217	0xbdd51e02	-0.10406114
218	0xbdfee2c8	-0.12445599
219	0xbdd82733	-0.10554352
220	0xbdbc39a3	-0.09190681
221	0x3d48d5fb	0.049032193
222	0xbdf85d29	-0.12127144
223	0xbdfbe27e	-0.12299059
224	0xbd58920a	-0.05287365
225	0xbd42ee24	-0.04759039
226	0x3c658d63	0.01401076
227	0x3cd9156d	0.026499474
228	0x3c84fcd8	0.016233847
229	0x3d5dffef	0.054199155
230	0x3a8b2a70	0.0010617506
231	0x3cc598d4	0.024120726
232	0xbdc8ae5f	-0.09798884
233	0x3c1b169f	0.0094658425
234	0xbdbcd3fe	-0.09220122
235	0xbd7716ff	-0.060324665
236	0x3dddde64	0.10833433
237	0xbdadc900	-0.08485603
238	0xbdeb9dc9	-0.115047045
239	0x3d87134c	0.065954775
240	0xbdb210c7	-0.08694606
241	0xbdbced90	-0.09224999
242	0xbdbf860c	-0.09351739
243	0xbce8c31d	-0.02841335
244	0xbc377601	-0.011197568
245	0x3da79a5d	0.08183739
246	0x3d79c5b7	0.06097957
247	0xbdaee791	-0.085402615
248	0xbd08ed52	-0.03342945
249	0x3da618e0	0.08110213
250	0xbdbf606e	-0.093445644
251	0xbd51107c	-0.05104111
252	0xbdeb8ac9	-0.115010805
253	0xbd622acd	-0.0552166
254	0x3d3371d7	0.043809738
255	0x3dd79d36	0.105280325

blocks.5.synapse.weight f4 [128, 784, 1, 1, 1]
0	0xbcddf45a	-0.027094055
1	0xbd072f4f	-0.0330041
2	0x3ca4376e	0.020045962
3	0xbd0fb273	-0.03508229
4	0x3bb56eca	0.0055368887
5	0x3cdd1c9e	0.026991185
6	0xbc8f0095	-0.017456332
7	0x3ce8c6d1	0.028415116
8	0x3b5091a5	0.0031825092
9	0x3ce22bd3	0.027608788
10	0xbc4241bc	-0.011856493
11	0x3ce02411	0.027360948
12	0xbaa3924a	-0.0012479511
13	0xbc8fbaee	-0.01754519
14	0xbbc661ee	-0.0060541546
15	0xbcd17545	-0.025568614
16	0xbc26b605	-0.010175233
17	0xbcfc712c	-0.030815683
18	0x3c01059c	0.007874873
19	0xbb154e37	-0.0022782215
20	0x3a6cb9b8	0.000903036
21	0x3cda2a81	0.026631596
22	0x3a9649dc	0.0011466104
23	0x3b801aa5	0.0039094263
24	0x3c4c0b77	0.012453905
25	0x3a9d6793	0.0012009017
26	0xbce47a13	-0.02789024
27	0xba61b3b8	-0.0008609849
28	0x3bb596ae	0.005541644
29	0xbce7ee68	-0.028311923
30	0x3cc5ed0a	0.02416088
31	0xbd091697	-0.03346881
32	0x3d0bfc72	0.034176297
33	0xbaab80dc	-0.0013084668
34	0x3a5d1e93	0.0008435037
35	0x3cf40dde	0.029791769
36	0xbc93da75	-0.018048504
37	0x3cfd630c	0.030931018
38	0xbb3b1513	-0.0028546497
39	0xbc0527aa	-0.008127132
40	0x3d0b24e2	0.03397072
41	0x3acecb4a	0.0015777138
42	0xbcfc06ac	-0.0307649
43	0x3d10a505	0.035313625
44	0x3a21ea4a	0.00061765744
45	0x3cfe5a0e	0.0310488
46	0xbc875873	-0.016521668
47	0x3be4d693	0.006983587
48	0x3c99d65c	0.018778972
49	0x3ca4a520	0.020098269
50	0xbd0f5c20	-0.034999967
51	0x3c67ce4a	0.014148304
52	0x3c65475c	0.013994064
53	0xbcab05d3	-0.0208768
54	0xbb8fef5c	-0.0043925475
55	0x3b9cf565	0.0047899955
56	0xbd07b1a6	-0.033128403
57	0x3b97b5a5	0.004629808
58	0xbc50fc6e	-0.012755496
59	0xbc8ca970	-0.017170638
60	0xbb35d901	-0.0027747753
61	0xbc763efc	-0.015029665
62	0x3cb3067c	0.021853678
63	0xbc0a1ef3	-0.00843023
64	0xbc976a40	-0.018483281
65	0x3c8b8830	0.017032713
66	0xbcb65637	-0.022257907
67	0xbc9946ae	-0.01871046
68	0xbd108d57	-0.035291042
69	0xbcfa8fbc	-0.030586116
70	0x3cac0be7	0.02100177
71	0xbcc69d5e	-0.02424496
72	0x3cce9bfe	0.025220867
73	0xb9ad8edc	-0.0003310357
74	0x3cdc250a	0.02687313
75	0xbcc7464a	-0.024325509
76	0xbca88623	-0.020571774
77	0xbc9f11b7	-0.019417627
78	0x3cb91b57	0.022596044
79	0x3cca6031	0.02470407
80	0x3cb9ebae	0.022695389
81	0xbcc91c8e	-0.024549749
82	0xbcb61ec1	-0.022231461
83	0xbcccaa5a	-0.024983574
84	0xbcce0a33	-0.025151348
85	0x3c4f9133	0.012668896
86	0xbd08575d	-0.03328644
87	0xbd0278f5	-0.031853635
88	0x3b427593	0.002967213
89	0x3bb8bd1c	0.005637778
90	0xbd02bc08	-0.0319176
91	0xbce68ba5	-0.02814276
92	0x3cffb681	0.031214954
93	0x3d021348	0.03175667
94	0xbbe898b8	-0.0070982836
95	0xbc6a09d8	-0.0142845735
96	0x3c23e385	0.010002975
97	0xbc628433	-0.013825464
98	0x3ba49e4a	0.0050237523
99	0x3cc7ea75	0.02440379
100	0x3c84a39e	0.0161913
101	0x3d104595	0.03522261
102	0x3cb3d0a7	0.02195008
103	0xbbbd7313	-0.00578154
104	0xbb92221c	-0.0044596326
105	0xbb0837ee	-0.002078529
106	0x3b024b37	0.0019881257
107	0xbc8e671c	-0.01738315
108	0x3c51b861	0.012800307
109	0x3cba585a	0.022747207
110	0xbccadb87	-0.024762882
111	0x3afb7db8	0.0019187247
112	0xbc9b9a9e	-0.018994626
113	0xbcda79f7	-0.026669485
114	0x3cd9915e	0.026558574
115	0x3d0d910d	0.03456216
116	0xbd00630a	-0.03134445
117	0x3a77ef25	0.00094579376
118	0x3883eb6e	6.290419e-05
119	0x3cbf6dfe	0.023367878
120	0xbc86c8c5	-0.016453156
121	0xbb977e8a	-0.004623239
122	0xbcea37ca	-0.028591055
123	0xbc47ecf4	-0.01220249
124	0x3d102f6c	0.035201475
125	0xbc994fbe	-0.018714782
126	0xbd11297a	-0.035439946
127	0x3b5ef481	0.0034020247
128	0x3bacba4a	0.005271231
129	0xbc719cb3	-0.014746833
130	0xbcbfb555	-0.023401896
131	0x3b2686ca	0.002540993
132	0x3c492b6a	0.012278417
133	0xbc92d157	-0.017922087
134	0x3ce6a703	0.02815581
135	0xbbd1086e	-0.0063791787
136	0xbc848ccc	-0.016180418
137	0x3c2a1e60	0.0103832185
138	0x3c833053	0.016014254
139	0xbc8d6053	-0.017257845
140	0xbc3e3dae	-0.011611385
141	0xbcf4a5ec	-0.029864274
142	0x3ba1fadc	0.004943235
143	0x3bfd5d8a	0.007732098
144	0xbc9ceb25	-0.019155094
145	0xbc579af3	-0.013159501
146	0x3c51b2d7	0.012798986
147	0x3c8c7390	0.017144948
148	0x3bffe978	0.007809814
149	0xbc625f2e	-0.013816638
150	0xbcea1c68	-0.028577998
151	0xbca9c4f0	-0.02072379
152	0xbc4c192a	-0.012457171
153	0xbc83dac3	-0.016095525
154	0x3ce4ee03	0.027945524
155	0x3d113f27	0.035460617
156	0xbd01031c	-0.031497106
157	0x3c9c24fe	0.019060608
158	0x39d7c893	0.00041157435
159	0x3a4fb0dc	0.00079227774
160	0x3b2c77a5	0.002631643
161	0x3cf781b3	0.030213213
162	0xbc32c853	-0.010912019
163	0xbcffe6c1	-0.031237962
164	0x3cae95e3	0.021311706
165	0xbac798b7	-0.0015228008
166	0xbc72b321	-0.0148132155
167	0xbd0b2564	-0.033971205
168	0x3ce1223a	0.02748214
169	0xbc1bf580	-0.009518981
170	0xbcf14123	-0.029450005
171	0xbcd90ac8	-0.026494399
172	0xbb5844bf	-0.003299996
173	0xbbdd6b2e	-0.0067571616
174	0x3cdf1bfe	0.027235027
175	0x3d09eed5	0.033675034
176	0xbc67eb18	-0.014155172
177	0x3bfdd4ee	0.0077463305
178	0xbcb735de	-0.022364553
179	0xbcc0c161	-0.02352971
180	0xbb01db00	-0.0019814372
181	0xbcbf0c35	-0.02332125
182	0xbcb49233	-0.02204237
183	0xbd08d683	-0.0334077
184	0x3cc73211	0.024315866
185	0x3c42296a	0.011850694
186	0xbca2babc	-0.019864433
187	0xbb554881	-0.0032544436
188	0x3bf33041	0.007421524
189	0xbc9a2953	-0.018818533
190	0x3cc9efa5	0.024650404
191	0x3d0747f8	0.03302762
192	0xbcffcab5	-0.031224588
193	0x3d02dfde	0.031951778
194	0xbb4fa06e	-0.0031681317
195	0x3d04360e	0.032278113
196	0xbc92cb55	-0.017919222
197	0xbcf01d71	-0.029310914
198	0xbbcf0937	-0.006318237
199	0x3cd3696c	0.025807105
200	0xbd085f53	-0.033294033
201	0xbc14376e	-0.009046419
202	0xbc2ef1d7	-0.010677776
203	0xbd02e625	-0.031957764
204	0xbceb970a	-0.028758544
205	0xbb77e313	-0.0037824556
206	0xbccadce7	-0.024763538
207	0x3ae355dc	0.0017344314
208	0xbc3258ea	-0.010885457
209	0x3cfacda3	0.030615633
210	0xbc82a6de	-0.01594871
211	0xbca6310a	-0.020287056
212	0x3bbcb6f7	0.005759116
213	0x3aee7001	0.0018191339
214	0xbce7ed4e	-0.028311398
215	0x3cc60d6a	0.024176318
216	0x3cd33a35	0.025784591
217	0x3c86b6a3	0.01644451
218	0x3c8dcc55	0.017309347
219	0x3cac0e57	0.021002932
220	0xbcd13b87	-0.02554108
221	0x3ad0936d	0.0015913077
222	0xbc2ddcd3	-0.010611731
223	0x3ce83e55	0.028350035
224	0x3bac199c	0.0052520763
225	0x3bddefc1	0.0067729657
226	0xbb85f39c	-0.0040878784
227	0x3cea556c	0.028605185
228	0xbcaf4757	-0.021396322
229	0x3d007dfc	0.031370148
230	0x3d0ca42e	0.03433626
231	0xbb086225	-0.0020810452
232	0xbcc1101a	-0.023567248
233	0x3cd9b7f7	0.02657698
234	0x3cfc04b3	0.03076396
235	0x3cd1fc2c	0.02563294
236	0x3bc1c8ee	0.0059138453
237	0xbc8ff367	-0.017572118
238	0x3b4b3793	0.0031008467
239	0xbce36a01	-0.027760508
240	0xbce9182e	-0.028453913
241	0x3bd16f6e	0.0063914573
242	0xbce8897a	-0.028385866
243	0xbc6bf361	-0.014401288
244	0xbcc3225a	-0.023820091
245	0xbc5cd4c5	-0.013478463
246	0xbc7e0bd8	-0.015505753
247	0xbd0ab9df	-0.033868667
248	0x39868800	0.000256598
249	0x3c031fd3	0.008003193
250	0x3c9d5f67	0.01921053
251	0x3a8bf5b7	0.0010678087
252	0xbce3f8ac	-0.027828537
253	0x3c80bd57	0.015715284
254	0xb9c64925	-0.0003782
255	0xbba34000	-0.0049819946

blocks.6.synapse.weight f4 [10, 128, 1, 1, 1]
0	0xbd992b2e	-0.07478939
1	0xbd323acb	-0.0435131
2	0x3ce43250	0.027856022
3	0x3c3e822c	0.011627715
4	0x3d8c9d48	0.068659365
5	0x3dac07f8	0.083999574
6	0x3d2a945d	0.041645397
7	0xbd651c38	-0.055935115
8	0x3c21b9ad	0.009870929
9	0xbdae1988	-0.085009634
10	0xbd81b368	-0.06333047
11	0x3da6147c	0.08109376
12	0x3d764dd4	0.060132816
13	0x3d10ac08	0.03532031
14	0x3c41cfdf	0.0118293455
15	0x3d4a3147	0.0493634
16	0xbcf82cc5	-0.030294785
17	0xbc981d25	-0.018568585
18	0xbbc345e3	-0.005959259
19	0x3d906ec5	0.070523776
20	0xbd5f35b2	-0.054494567
21	0xbbb7c551	-0.0056082387
22	0x3d9e05e9	0.07715971
23	0x3cf717ac	0.030162655
24	0x3aece77d	0.001807436
25	0xbdb01527	-0.085977845
26	0x3c8c7231	0.017144294
27	0x3d8fffe0	0.07031226
28	0x3db08dbb	0.08620783
29	0xbd961007	-0.07327276
30	0x3ccb6bf0	0.024831742
31	0xbda024d2	-0.07819523
32	0x3d1a27c6	0.037635587
33	0x3d058bce	0.03260403
34	0x3cf9febb	0.030516973
35	0x3d33e081	0.043915275
36	0x3da61160	0.08108783
37	0x3d554a00	0.052072525
38	0x3d985a50	0.07439101
39	0x3c2ce00b	0.010551463
40	0xbd8fd44e	-0.07022916
41	0x3d268159	0.0406507
42	0xbdabb2ce	-0.08383714
43	0xbda2ba96	-0.07945745
44	0xbd2267e4	-0.03964986
45	0x3db1d846	0.08683829
46	0x3c288276	0.010285011
47	0xbcfc0543	-0.030764228
48	0x3d7ac404	0.06122209
49	0xbd5cdc94	-0.053921297
50	0xbd769a89	-0.06020597
51	0xbd1696e0	-0.03676498
52	0x3d884479	0.06653685
53	0xbb1e5f34	-0.0024165632
54	0xbbb70857	-0.005585711
55	0xbd3fea4f	-0.046854313
56	0xbce4b575	-0.027918557
57	0xbd94da41	-0.07268191
58	0x3d35080b	0.044197123
59	0x3d0f6b2c	0.035014316
60	0xbc959f4a	-0.018264432
61	0x3b9af8d8	0.0047293715
62	0x3bc79e13	0.006091842
63	0xbd27d71a	-0.04097662
64	0xbd39d8c3	-0.045372736
65	0x3d257434	0.040394023
66	0xbd3374f8	-0.043812722
67	0x3d967b1b	0.07347699
68	0x3d9e0401	0.077156074
69	0xbd87223a	-0.06598325
70	0xbb9548a5	-0.004555779
71	0x3d13b35a	0.036059715
72	0x3d5cd4bf	0.053913828
73	0xbc7c2cba	-0.015391523
74	0x3c8045dd	0.015658313
75	0xbd1a875d	-0.03772675
76	0xbd45806f	-0.048218187
77	0xbc178e82	-0.009250285
78	0xbd0e0f1c	-0.03468238
79	0xbd8fc061	-0.07019115
80	0x3c905b74	0.017621733
81	0x3ca220b7	0.01979099
82	0xbd2e0751	-0.042487446
83	0xbccc5b2f	-0.024945823
84	0x3c452b89	0.012034305
85	0x3d3ba16c	0.04580824
86	0x3d835c0e	0.064140424
87	0xbcd4cf5a	-0.02597778
88	0x3a0bec9d	0.00053376873
89	0xbc79edd9	-0.015254461
90	0xbdabbae2	-0.083852544
91	0x39eaaa60	0.00044758897
92	0xbd642899	-0.05570278
93	0x3d382b89	0.044963393
94	0x3d17f93f	0.037102934
95	0x3da44cce	0.08022462
96	0x3c84def9	0.016219603
97	0x3d8c619e	0.068545565
98	0x3d3ec679	0.046575997
99	0x3da76163	0.08172872
100	0x3d29dabc	0.041468367
101	0xbd92e6a8	-0.071729004
102	0x3d1d9c7c	0.038479313
103	0xbd95f8cb	-0.07322844
104	0x3d509161	0.050919894
105	0x3daf1bc5	0.085502185
106	0xbd012a6c	-0.031534597
107	0x3b75a1f2	0.003748056
108	0x3c84bc86	0.016203176
109	0xbba8384e	-0.005133665
110	0x3d32eb24	0.04368128
111	0x3d50a760	0.05094087
112	0xba0be6f5	-0.00053368445
113	0xbd875efb	-0.06609913
114	0x3d1eab46	0.038737558
115	0xbbd1e8ab	-0.00640591
116	0x3d35cf01	0.044386867
117	0xbd6919a5	-0.056909222
118	0xbcdff8f8	-0.027340397
119	0xbbcb957b	-0.006212888
120	0xbd96e423	-0.073677324
121	0x3c86a073	0.01643393
122	0xbd744218	-0.059633344
123	0xbd8c4888	-0.06849772
124	0x3d66c605	0.05634119
125	0x3d633e31	0.055479232
126	0xbb52a560	-0.0032142028
127	0xbda2a100	-0.079408646
128	0xbc9f9107	-0.019478334
129	0xbca1f97e	-0.019772287
130	0xbda6a586	-0.0813704
131	0x3cb6e4b9	0.02232586
132	0xbda256d5	-0.07926718
133	0xbd824ded	-0.063625194
134	0x3c64af67	0.013957835
135	0x3da6fd7d	0.08153818
136	0x3d933de7	0.07189541
137	0x3c624564	0.013810489
138	0x3d25442d	0.04034822
139	0xbcd2b31f	-0.025720177
140	0xbd067e9c	-0.032835588
141	0x3d74b30b	0.05974106
142	0xbdaff808	-0.0859223
143	0xbc07ef1c	-0.008296754
144	0xbd9b25d0	-0.075755715
145	0xbd9bb532	-0.0760292
146	0x3d9e9318	0.077429
147	0xbd9b7f3d	-0.07592628
148	0x3d1afd43	0.037839185
149	0x3da17608	0.07883841
150	0xbce14cf4	-0.027502514
151	0xbcbbd518	-0.02292876
152	0x3dabc6c3	0.0838752
153	0x3b8aff4b	0.004241859
154	0x3d09af24	0.033614293
155	0xbc313e4a	-0.0108180735
156	0x3da89962	0.082323804
157	0x3d5c0061	0.0537113
158	0xbd5e9055	-0.054336865
159	0x3d9646d4	0.07337728
160	0x3c173de5	0.009231065
161	0xbdb43264	-0.08798674
162	0x3d84b8fa	0.06480594
163	0xbd7e6891	-0.06211144
164	0xbd628004	-0.055297866
165	0x3d12c651	0.03583366
166	0x3d9ea80b	0.077468954
167	0x3cab73aa	0.020929176
168	0x3c6e53a6	0.0145463105
169	0xbd412d64	-0.04716243
170	0xbc4659d3	-0.012106377
171	0x3d34e60c	0.044164702
172	0x3d2e6a1a	0.042581655
173	0xbd9c4f93	-0.07632365
174	0xbd2d8a5c	-0.042368278
175	0xbc6802c2	-0.014160814
176	0xbd97c09a	-0.07409783
177	0x3c0bdd04	0.008536581
178	0xbd684512	-0.056706496
179	0xbdad5fbe	-0.08465527
180	0x3d6d67c3	0.057960283
181	0xbcc24eb5	-0.023719171
182	0x3da3e7a3	0.080031656
183	0xbca7dbc3	-0.020490533
184	0xbda5fa99	-0.08104438
185	0x3c4cb984	0.012495402
186	0x3c7153c9	0.014729449
187	0x3a546226	0.00081017835
188	0xbd889383	-0.06668761
189	0x3d167988	0.036736995
190	0xbd809d2b	-0.062799774
191	0x3d2a55ba	0.04158566
192	0x3d88faf3	0.0668849
193	0x3d874a06	0.06605916
194	0xbd930c39	-0.07180066
195	0xbca74a6e	-0.020421233
196	0x3d96c1f0	0.073612094
197	0xbd5b0739	-0.053473685
198	0xbd2f405e	-0.042785995
199	0xbd2bbc4f	-0.041927632
200	0xbc7adc3b	-0.015311296
201	0x3ca223eb	0.019792518
202	0x3d0b1ff6	0.033966027
203	0xbd165953	-0.03670628
204	0x3c9e7bb6	0.0193461
205	0x3da3e331	0.08002318
206	0x3d5f859f	0.05457079
207	0x3d90ac2a	0.07064088
208	0xbc339ffe	-0.010963438
209	0x3d980c55	0.07424227
210	0x3d8729e5	0.065997876
211	0x3c4c375d	0.0124643715
212	0x3d1a1e7e	0.037626736
213	0xbd36f6d4	-0.044668987
214	0x3d1bec8b	0.03806738
215	0x3bd08a1e	0.006364121
216	0xbd04b13e	-0.032395594
217	0xbd2b5493	-0.041828703
218	0x3dac9b5e	0.084280714
219	0x3ccab012	0.02474216
220	0xbd8ade08	-0.0678063
221	0x3d000ae2	0.03126038
222	0xbd065347	-0.032794263
223	0xbd0de378	-0.03464076
224	0xbd60b692	-0.054861613
225	0x3ad3a22b	0.0016146352
226	0xbd907d38	-0.070551336
227	0x3cf0648a	0.029344816
228	0xbca3b895	-0.019985477
229	0xbcd9359e	-0.026514824
230	0x3d994707	0.074842505
231	0x3d0fad74	0.035077527
232	0xbc0aeeda	-0.008479798
233	0x3d338706	0.04382994
234	0xbdb3828a	-0.08765133
235	0xbd9cfd71	-0.076655276
236	0x3d7230d6	0.059128605
237	0x3c0d2a76	0.0086160805
238	0x3cccce5b	0.025000742
239	0xbc93fca3	-0.018064803
240	0x3d0a288d	0.03373008
241	0xbd5a1a17	-0.053247537
242	0x3c8f3771	0.017482491
243	0x3d2ef835	0.042717177
244	0xbca92327	-0.020646645
245	0x3a0eebd3	0.00054520107
246	0xbd2f345e	-0.04277455
247	0xbd5ca3d5	-0.05386718
248	0xbbdc80dd	-0.006729229
249	0xbbb187e0	-0.005417809
250	0xbd646d03	-0.055768024
251	0x3d684345	0.05670478
252	0x3c126d03	0.008937123
253	0x3daf5db1	0.08562792
254	0x3d5ef3ab	0.0544316
255	0x3d929cc2	0.071588054
