MNIST/00:19:10:Apr-26-23/network_0.8239166666666666.pt (torch, 54475 bytes, 4 tensors)

blocks.0.synapse.weight f4 [16, 1, 5, 5, 1]
0	0xbd4591ec	-0.048234865
1	0x3df31977	0.118700914
2	0x3e18657d	0.14882465
3	0xbba2bdd2	-0.004966476
4	0x3e3cb1d3	0.1842721
5	0xbc9f6aa2	-0.019460026
6	0x3cf7a705	0.030231008
7	0x3dbc40b6	0.0919203
8	0xbdd937cc	-0.106063455
9	0x3e324110	0.17407632
10	0xbd619f97	-0.055083837
11	0xbcb2952f	-0.021799652
12	0xbe05cdc8	-0.1306678
13	0xbe122d02	-0.14274982
14	0x3d635fae	0.05551117
15	0x3d8be6f6	0.06831162
16	0xbdbde868	-0.092728436
17	0xbd766ee3	-0.060164344
18	0x3d68024d	0.05664282
19	0x3e427a74	0.18992025
20	0x3e06bf6f	0.13158964
21	0xbe062b22	-0.13102391
22	0xbe0ee99a	-0.139563
23	0xbde77cb7	-0.11303084
24	0x3e21440e	0.15748617
25	0x3e2325cc	0.15932387
26	0xbd1eb316	-0.03874501
27	0x3e305ff1	0.17224099
28	0x3d69be41	0.057066206
29	0x3e7759e9	0.24155392
30	0xbcc08429	-0.023500519
31	0x3d84e439	0.064888425
32	0xbdc68121	-0.09692598
33	0x3e664298	0.22486341
34	0xbc575ac2	-0.013144197
35	0x3d85ecc2	0.065392986
36	0x3d68d5d4	0.056844547
37	0x3e245a59	0.1605009
38	0x3e3fa7e4	0.18716389
39	0x3e161226	0.1465536
40	0x3c99f598	0.018793866
41	0x3d8b6a87	0.06807428
42	0xbc077e12	-0.008269804
43	0x3dbc91d8	0.09207505
44	0xbba517ac	-0.0050382223
45	0x3dd7feb7	0.1054663
46	0x3e363db4	0.17796975
47	0xbc5188e9	-0.01278899
48	0xbdc94ac0	-0.098287106
49	0x3dc1c6f7	0.09461778
50	0x3dc7c501	0.097543724
51	0x3e56723e	0.20942017
52	0xbc7bfd23	-0.015380177
53	0xbc878707	-0.016543878
54	0xbe2f62c5	-0.17127521
55	0xbcc527cb	-0.024066826
56	0xbd2366ea	-0.03989307
57	0x3c813d0a	0.015776176
58	0xbd925cdf	-0.0714662
59	0x3d1d6e40	0.03843522
60	0xbe3a1fc2	-0.18176177
61	0xbe2908a6	-0.16507205
62	0x3ca474c0	0.020075202
63	0xbe1be2d1	-0.15223242
64	0x3d1b5b1b	0.03792868
65	0xbd4b85d3	-0.04968817
66	0xbde57002	-0.112030044
67	0xbc8e90c7	-0.01740302
68	0x3cbcc365	0.02304239
69	0xbdd98721	-0.10621477
70	0xbcbe1648	-0.023203984
71	0xbd99e61a	-0.075145915
72	0xbe6c6c61	-0.23088218
73	0x3d41ec4c	0.04734449
74	0xbdfe6734	-0.12422028
75	0x3d62d0ea	0.055375017
76	0x3e1160fb	0.14197151
77	0x3e2d5ea7	0.16930638
78	0x3e2da2da	0.16956654
79	0x3dcebeb0	0.100949645
80	0xbdadf491	-0.08493913
81	0xbdff5747	-0.12467819
82	0x3d5fe276	0.05465933
83	0xbe4b4103	-0.19849019
84	0xbe0e4ae5	-0.13895757
85	0xbdc4619a	-0.095889285
86	0x3ce2ad64	0.02767057
87	0xbd0d1e8d	-0.034452964
88	0xbe5b7a94	-0.21433479
89	0x3e1087fd	0.14114375
90	0xbc6d5e7e	-0.014487861
91	0xbd69ba5d	-0.057062495
92	0x3df5c09e	0.119996294
93	0x3d4aebba	0.049541213
94	0xbddda672	-0.108227625
95	0xbd8fe929	-0.07026894
96	0xbcfe03bf	-0.031007646
97	0xbda29ffa	-0.07940669
98	0x3db7d92a	0.08976968
99	0x3d9d191a	0.07670803
100	0xbe4fa167	-0.20276414
101	0xbe20c29f	-0.15699242
102	0x3dc81e01	0.09771348
103	0x3e32045d	0.17384477
104	0xbe0c23d6	-0.13685545
105	0xbdaff1fd	-0.085910775
106	0x3e1e0fc1	0.15435697
107	0x3ce03ce7	0.02737279
108	0xbc48791a	-0.012235904
109	0x3e195bc6	0.14976415
110	0xbe0936e2	-0.13399842
111	0xbe481ed4	-0.1954301
112	0x3dd5eb82	0.1044531
113	0xbe32a9ce	-0.17447588
114	0xbe1c2d13	-0.1525157
115	0xbd0a90b3	-0.033829402
116	0xbccb219e	-0.024796303
117	0xbe489339	-0.19587411
118	0xbdb41d36	-0.08794634
119	0xbe547de7	-0.20751153
120	0x3ded45d8	0.11585587
121	0x3e5699c1	0.2095709
122	0xbd078111	-0.03308207
123	0x3e0c9a7f	0.1373081
124	0x3c7e060e	0.015504373
125	0x3dc58ef4	0.09646407
126	0x3e12c53d	0.14333053
127	0x3dea6edf	0.11446928
128	0x3d279577	0.040914025
129	0x3dc7dd77	0.09759038
130	0x3e21ee84	0.15813643
131	0x3ca57eba	0.02020203
132	0xbd9be5ac	-0.07612166
133	0x3dfd773f	0.1237626
134	0xbcc8effe	-0.0245285
135	0x3e2f1496	0.17097697
136	0xbd6a68a7	-0.05722871
137	0xbd1620d4	-0.0366524
138	0xbd4499d8	-0.04799828
139	0x3de366f6	0.111036226
140	0x3dd42cab	0.10360082
141	0xbd8f16ea	-0.069867924
142	0xbdd0e192	-0.10199274
143	0xbda9e5d1	-0.08295787
144	0xbe536707	-0.2064477
145	0xbd1dee29	-0.038557205
146	0xbe0ae7b9	-0.13564958
147	0xbe350a09	-0.1767961
148	0xbcf11786	-0.029430162
149	0xbe829d64	-0.25510705
150	0x3cb72abc	0.022359245
151	0xbe2767a2	-0.16348127
152	0xbe0a7f78	-0.13525188
153	0x3e11e3d8	0.14247072
154	0x3e288cbd	0.16459937
155	0x3d86e8b5	0.06587354
156	0x3db49217	0.08816927
157	0x3d847911	0.06468404
158	0x3e2c7dc4	0.16844851
159	0x3e397fed	0.18115206
160	0xbe358f61	-0.17730476
161	0x3c46cf41	0.012134374
162	0x3dab0c7e	0.08351992
163	0xbdd1b7a9	-0.102401085
164	0xbcf63682	-0.030055288
165	0x3e019048	0.12652695
166	0x3e170739	0.14748849
167	0xbdb589e3	-0.088641904
168	0xbcc52edc	-0.024070196
169	0x3de414ef	0.11136805
170	0xbc94c96c	-0.018162452
171	0xbdba3b50	-0.09093344
172	0xbd759fc5	-0.05996682
173	0xbe03192f	-0.12802576
174	0xbdf86b62	-0.12129857
175	0xbe1e09ff	-0.154335
176	0xbdd105ca	-0.10206182
177	0x3e0efd82	0.13963893
178	0x3e189d24	0.14903694
179	0xbd2adcaf	-0.041714367
180	0xbdacb239	-0.08432431
181	0xbe18109f	-0.1485009
182	0x3da3bb4c	0.079947084
183	0x3e333748	0.17501557
184	0x3cd917ca	0.026500601
185	0xbdf41b7c	-0.11919305
186	0xbb82fb92	-0.0039972747
187	0xbc053aea	-0.008131722
188	0x3e13f47c	0.14448732
189	0x3e1320a9	0.14367928
190	0x3e2634e3	0.16231112
191	0x3bfaa024	0.007648485
192	0xbd537c67	-0.05163231
193	0x3e596f75	0.21233924
194	0xbccfa6df	-0.025348125
195	0x3e396a79	0.18107022
196	0x3d99e955	0.07515208
197	0x3e4eaf34	0.20184022
198	0xbdde3da2	-0.10851599
199	0x3ae1af70	0.0017218422
200	0xbc70737c	-0.014675971
201	0x3e1ca2dd	0.15296502
202	0xbe3a3ed3	-0.18188028
203	0x3d465d80	0.048429012
204	0xbc98ec8a	-0.018667478
205	0xbe380d53	-0.17973833
206	0x3d7dc4a6	0.061955117
207	0xbd8c57ca	-0.06852682
208	0x3d0c8b86	0.034312747
209	0xbdf9b343	-0.121923946
210	0x3d275894	0.04085596
211	0xbc8a41e8	-0.01687713
212	0xbde816a7	-0.113324456
213	0xbd63f200	-0.05565071
214	0x3d95f111	0.073213704
215	0xbe085454	-0.13313419
216	0x3d0dfb76	0.03466364
217	0xbe217e58	-0.15770853
218	0xbd95c9a9	-0.07313854
219	0xbd5e1eea	-0.0542287
220	0x3e71cdfe	0.23613736
221	0xbe1d9758	-0.15389764
222	0xbe098d74	-0.13432866
223	0xbdac8162	-0.08423115
224	0xbbfd07af	-0.007721863
225	0x3b83123c	0.0039999764
226	0x3e211360	0.15730047
227	0x3e144ec2	0.14483169
228	0xbddc04f3	-0.107431315
229	0xbe31f9a2	-0.17380384
230	0x3dbac92d	0.091204025
231	0xbd164335	-0.036685187
232	0x3e2d2d4d	0.16911812
233	0xbe48d805	-0.19613655
234	0xbd797b67	-0.0609087
235	0xbdafb15b	-0.0857875
236	0x3e3f0230	0.18653178
237	0x3e364967	0.17801438
238	0xbe48f99c	-0.19626468
239	0x3c232024	0.009956393
240	0x3e383418	0.17988622
241	0xbe266382	-0.16248897
242	0x3d141289	0.03615049
243	0xbdf852f9	-0.12125201
244	0xbdacd1ed	-0.08438478
245	0xbda83862	-0.08213879
246	0x3e361068	0.17779696
247	0xbde265ff	-0.110546105
248	0xbd539feb	-0.05166618
249	0xbe0ec4c1	-0.13942243
250	0x3d8936b1	0.06699885
251	0x3c677bc7	0.014128632
252	0x3d6047a6	0.05475583
253	0xbb67a544	-0.0035346309
254	0x3c7b170c	0.015325319
255	0xbcd85c96	-0.026411336

blocks.1.synapse.weight f4 [32, 16, 3, 3, 1]
0	0xbdb0f59a	-0.08640595
1	0xbdb26373	-0.08710375
2	0xbd7538eb	-0.059868734
3	0xbd1081f6	-0.03528019
4	0x3c869c77	0.01643203
5	0xbce9e475	-0.02855132
6	0xbcfac67c	-0.030612223
7	0xbab85f5e	-0.0014066508
8	0x3c30f957	0.010801635
9	0xbc9a7e0a	-0.018858928
10	0xbd6039cf	-0.05474263
11	0x3d401976	0.04689928
12	0xbc450224	-0.012024436
13	0xbcb92b2c	-0.022603594
14	0xbd2334d6	-0.03984531
15	0xbd67e1b7	-0.056611743
16	0x3d86168b	0.065472685
17	0xbbeacc03	-0.0071654334
18	0x3d01824b	0.031618398
19	0x3d93499c	0.07191774
20	0xbcc19a84	-0.02363325
21	0xbba6f2c3	-0.0050948574
22	0xbc8160a5	-0.015793154
23	0xbd6a80e4	-0.057251826
24	0x3d8cb8f6	0.06871216
25	0x3cbf914e	0.023384716
26	0xbcfc6fd2	-0.030815039
27	0x3c914d80	0.01773715
28	0xbd330377	-0.043704476
29	0x3a71b16c	0.00092198583
30	0xbd4bc267	-0.049745943
31	0x3d640647	0.05567005
32	0xbdc57050	-0.096405625
33	0x3d3a5b3d	0.045497168
34	0xbd9117ab	-0.070845924
35	0x3ba2c4c8	0.004967306
36	0xbd7aaa1d	-0.06119739
37	0x3d149f02	0.036284454
38	0xbbcb30f5	-0.0062009045
39	0x3ddf1b12	0.10893835
40	0x3d9c05a7	0.076182656
41	0x3d1f6477	0.03891417
42	0x3d4e6e68	0.05039826
43	0x3ce8793f	0.028378127
44	0xbcd836b7	-0.026393278
45	0xbda56b07	-0.080770545
46	0x3d09cfce	0.033645444
47	0xbde258f1	-0.110521205
48	0x3cc18a73	0.023625588
49	0x3d44b690	0.048025668
50	0x3c937caf	0.01800379
51	0x3ce414e9	0.027842002
52	0xbbbd59b5	-0.005778516
53	0x3d919e83	0.07110312
54	0xbd34780d	-0.0440598
55	0xbd712831	-0.05887622
56	0xbd1e7f9f	-0.038695928
57	0x3d1bb705	0.038016338
58	0x3d048e59	0.032362316
59	0x3c546057	0.012962422
60	0x3d80a4f1	0.0628146
61	0xbc8f2862	-0.01747531
62	0x3d9c1d39	0.07622761
63	0xbdb0ff3f	-0.08642434
64	0xbd4a5d65	-0.049405474
65	0x3d3ee2f2	0.04660315
66	0xbdaa7c6a	-0.08324511
67	0xba8665cf	-0.001025373
68	0xbc865fc8	-0.016403094
69	0x3d3a277b	0.045447808
70	0x39b13923	0.0003380264
71	0x3c969b2c	0.018384539
72	0xbd53ae63	-0.05167998
73	0xbd58d164	-0.052934065
74	0xbccbb37a	-0.024865855
75	0x3dbd2dd5	0.092372574
76	0x3d976a02	0.07393266
77	0xbcdb64de	-0.026781496
78	0xbca7fa3a	-0.02050506
79	0x3c2bc538	0.010484032
80	0x3d5f716f	0.054551538
81	0xbd91a4a7	-0.07111483
82	0x3d1bcc91	0.038036887
83	0xbe064494	-0.13112098
84	0x3b22a020	0.002481468
85	0xbdae1c51	-0.08501495
86	0xbd702180	-0.058625698
87	0xbd86dc51	-0.06584991
88	0x3ce32811	0.027729066
89	0xbd453520	-0.048146367
90	0x3d83dfab	0.06439146
91	0x3da541c2	0.08069183
92	0x3d5f85dd	0.05457102
93	0x3dc727db	0.09724399
94	0xbd4e7c0d	-0.050411273
95	0xbbbc7ab0	-0.00575193
96	0x3dce3a6b	0.10069736
97	0xbcc62159	-0.024185823
98	0x3d71ce69	0.05903474
99	0xbd655618	-0.05599031
100	0xbc9db237	-0.019250019
101	0x3d1fe66c	0.039038107
102	0x3b21e076	0.002470044
103	0x3d6207a3	0.055183064
104	0xbdab0577	-0.08350652
105	0xbd4d130d	-0.050066996
106	0xbd159ec2	-0.036528356
107	0x3c9cd0ca	0.019142527
108	0xbda2662c	-0.07929644
109	0xbcaed508	-0.021341816
110	0xbc26304b	-0.01014335
111	0xbc8e8e2b	-0.017401775
112	0x3d2c3e92	0.04205186
113	0x3d898101	0.06714059
114	0xbb340768	-0.0027470235
115	0xbd29e977	-0.041482415
116	0x3a46ddb0	0.00075861346
117	0x3d90a8e5	0.07063464
118	0xbda89fc8	-0.08233601
119	0xbdc84300	-0.09778404
120	0xbd11918e	-0.035539202
121	0xbc84921a	-0.016182948
122	0xbd152fbc	-0.036422476
123	0xbc8d67b2	-0.01726136
124	0x3d851680	0.06498432
125	0xbc53ad37	-0.012919716
126	0xbe0d6424	-0.13807732
127	0xbd91bdac	-0.07116255
128	0xbd8e9427	-0.069618516
129	0x3d3d8274	0.046266988
130	0x3d3be262	0.045870192
131	0xbd4f1b24	-0.050562993
132	0x3de808e8	0.11329824
133	0xba698a2f	-0.00089088356
134	0x3d0363b3	0.032077502
135	0x3d9ae86c	0.07563862
136	0x3d59f1ae	0.053209
137	0xbd3e551e	-0.046467893
138	0xbc842021	-0.016128602
139	0x3d0d3b01	0.0344801
140	0xbd36f42f	-0.044666465
141	0xbd31f580	-0.043447018
142	0xbc664987	-0.014055616
143	0xbda218d6	-0.07914893
144	0x3d924358	0.07141751
145	0xbc90b496	-0.017664235
146	0xbcaeb741	-0.021327617
147	0xbd45a9fe	-0.04825782
148	0xbc9a8008	-0.018859878
149	0xbdb9451c	-0.09046385
150	0xbda599e3	-0.08085992
151	0x3cfc89c9	0.03082742
152	0xbc8cc92d	-0.017185772
153	0xbc1463ed	-0.009057027
154	0x3c8d2428	0.017229155
155	0x3c0d7426	0.008633649
156	0xbc8f2d66	-0.017477702
157	0x3c07c18c	0.008285891
158	0xbcbcd156	-0.023049038
159	0x3da4efac	0.08053526
160	0xbd116f90	-0.035506785
161	0xbd3b136b	-0.045672815
162	0xbaa3dae1	-0.0012501144
163	0x3cb4af21	0.022056164
164	0xbb989a3f	-0.0046570594
165	0xbdc1f863	-0.09471204
166	0xbd99b80e	-0.07505809
167	0xbd925728	-0.0714553
168	0xbd56fb8c	-0.052485988
169	0xbe024bb9	-0.12724198
170	0x3d3cb520	0.04607117
171	0x3ad90c2d	0.0016559415
172	0x3d124b3f	0.03571629
173	0x3d3f5d4f	0.046719845
174	0x3c6100b6	0.01373308
175	0x3b38df37	0.0028209218
176	0x3ca04109	0.019562261
177	0xbd26ab0c	-0.040690467
178	0xbc7b9805	-0.0153560685
179	0xb9125a62	-0.00013957315
180	0xbc1f1637	-0.009709886
181	0x3d6c2d09	0.057660136
182	0x3d49bff8	0.04925534
183	0xbc9c9144	-0.019112237
184	0xbdcb776d	-0.09934888
185	0xbc5c2478	-0.013436429
186	0xbd1c9c03	-0.038234722
187	0xbd8a4a54	-0.06752458
188	0x3cfe6c57	0.03105752
189	0xbd990e97	-0.07473486
190	0xbbdc5ef8	-0.0067251883
191	0xbd89f08c	-0.06735334
192	0xbe1f269f	-0.15542077
193	0xbd74734d	-0.059680272
194	0x3d922134	0.07135239
195	0xbd3b32d7	-0.04570278
196	0x3d4421f3	0.04788394
197	0xbd5708ea	-0.052498735
198	0x3be9b4e7	0.007132161
199	0x3b4c4b6a	0.003117288
200	0xbd1fc3cf	-0.039005097
201	0xbe0bae9b	-0.13640825
202	0x3d1ac574	0.037785962
203	0xbd7d9d05	-0.061917324
204	0x3cfb1d94	0.030653752
205	0x3cd0b928	0.025478914
206	0xbd260683	-0.040533554
207	0xbda52250	-0.08063185
208	0xbd9e56a3	-0.077313684
209	0x3d5bc58d	0.053655196
210	0xbd499a84	-0.049219623
211	0x3d9991f9	0.07498545
212	0x3d808153	0.06274667
213	0x3d5661ca	0.052339353
214	0xbbd388eb	-0.006455531
215	0xbd216c25	-0.039409775
216	0x3d0dca7f	0.034616943
217	0xbdbe8167	-0.09302025
218	0x3d1b03c8	0.037845403
219	0xbe182bd4	-0.14860469
220	0x3969b9d8	0.00022289844
221	0x3c7192fa	0.014744515
222	0x3b16f71d	0.0023035475
223	0xbdd128ec	-0.10212883
224	0xbdd36544	-0.10322049
225	0xbd44c0d4	-0.048035458
226	0xbc73a262	-0.014870258
227	0x3c036a2f	0.008020922
228	0x3d2334f8	0.039845437
229	0xbd4ab2bf	-0.04948687
230	0xbca567dd	-0.020191127
231	0xbdeb59c2	-0.11491729
232	0xbd25d1ad	-0.040483166
233	0xbd55db30	-0.052210987
234	0xbd87a374	-0.06622973
235	0xbe16d966	-0.14731368
236	0x3c296647	0.010339326
237	0xbdd078c6	-0.10179286
238	0xbe13830a	-0.14405456
239	0xbdcd40d8	-0.100221336
240	0xbc2ca97f	-0.010538458
241	0xbd718a5a	-0.058969833
242	0xbd6a538f	-0.057208594
243	0x3d3e598a	0.04647211
244	0xbd2e2ca8	-0.042523056
245	0xbd269e74	-0.040678456
246	0x3be8f903	0.0071097626
247	0xbbae601d	-0.005321516
248	0xbd6a0074	-0.05712934
249	0x3b840be1	0.0040297364
250	0xbc099f27	-0.008399761
251	0xbd12a782	-0.03580428
252	0xbd0031be	-0.031297438
253	0x3d7be904	0.061501518
254	0xbc941f5d	-0.018081361
255	0xbc490499	-0.012269163

blocks.2.synapse.weight f4 [8, 32, 3, 3, 1]
0	0x3c9f4fdd	0.019447261
1	0x3cb5714b	0.022148749
2	0xbc4bb6fb	-0.012433763
3	0x3c783b15	0.015150805
4	0xbcb20145	-0.021729121
5	0xbd0c3a0d	-0.03423505
6	0xbc93d6f7	-0.01804684
7	0xbc3eb29c	-0.0116392635
8	0x3cf83b75	0.030301789
9	0x3c807d0a	0.015684623
10	0xbc7ed361	-0.015553326
11	0x3cf42575	0.029803017
12	0x3c6fd8f6	0.01463913
13	0xbc31176f	-0.01080881
14	0x3c81b7ae	0.015834656
15	0x3d1d2df6	0.03837391
16	0x3c7db69f	0.015485435
17	0x3c8f58f6	0.017498475
18	0x3c7d2df4	0.015452851
19	0x3c3c8126	0.011505401
20	0xbc5f2146	-0.013618773
21	0x3c1844e8	0.009293772
22	0x3c31e095	0.010856767
23	0x3d0d8b78	0.034556836
24	0x3c809726	0.015697073
25	0x3b9dd32f	0.004816435
26	0xbb357543	-0.0027688302
27	0xbd33dbc2	-0.04391075
28	0x3b89c80d	0.004204756
29	0x3c196d03	0.009364369
30	0x3c8d3698	0.017237946
31	0xbba72bf8	-0.005101677
32	0xbd8d193c	-0.06889579
33	0xbc97e474	-0.018541552
34	0x3c917b96	0.017759126
35	0xbd19e9e3	-0.037576567
36	0xbc823eb4	-0.01589904
37	0xbc35f249	-0.011105129
38	0x3d1cd7c1	0.038291696
39	0xbd2f2424	-0.042759076
40	0xbd086194	-0.033296183
41	0xbc809214	-0.015694655
42	0x3c830794	0.015994824
43	0x3b91e453	0.004452267
44	0x3c82f0e6	0.01598401
45	0x3c7e1855	0.015508731
46	0xbc58d536	-0.013234427
47	0xbcc17ab5	-0.023618082
48	0xbc87d235	-0.016579727
49	0x3be35332	0.006937408
50	0x3c87077a	0.016483057
51	0x3c8a98ea	0.016918618
52	0x3ca39983	0.019970661
53	0x3d3e28b8	0.04642555
54	0xb85d0c3b	-5.2701896e-05
55	0xbc833710	-0.016017467
56	0x3c7cf5a2	0.015439423
57	0x3b477398	0.003043389
58	0xbd2ccdbf	-0.042188402
59	0xbc804679	-0.015658604
60	0xbbb42555	-0.0054976144
61	0x3c87f8f1	0.016598197
62	0xbc3a2158	-0.011360489
63	0xb9baca36	-0.00035627343
64	0xbd4ba853	-0.049721073
65	0xbcb126d7	-0.021624966
66	0x3ca78c82	0.020452742
67	0xbc97a73c	-0.01851236
68	0x3c0a1ebf	0.008430182
69	0x3c95bf07	0.018279565
70	0xbb919d3b	-0.004443792
71	0x3c7e15a9	0.015508094
72	0xbb164cfe	-0.0022934075
73	0x3c67ad29	0.014140406
74	0xbc797662	-0.015225979
75	0xbc789a19	-0.0151734585
76	0xbc83f74b	-0.01610913
77	0x3c322c83	0.01087487
78	0x3bfe9397	0.007769059
79	0xbc164438	-0.009171538
80	0xbb8c206d	-0.0042763264
81	0xbcad5f80	-0.021163702
82	0xbb946d7a	-0.004529652
83	0x3c84d59b	0.016215136
84	0xbc145847	-0.00905425
85	0x3c5cf535	0.013486196
86	0x3cb5263b	0.022112956
87	0x3a250dcd	0.0006296307
88	0xbce8a210	-0.02839759
89	0x3c3aef8a	0.01140965
90	0xbc830781	-0.01599479
91	0xbd0e3b69	-0.034724627
92	0xbd5c4cf0	-0.05378431
93	0xbc5cb9cd	-0.013472033
94	0x3d0a8cff	0.03382587
95	0xbc83779f	-0.01604825
96	0x3ca7f8da	0.020504404
97	0x3d2ce710	0.042212546
98	0xbc1ecf2e	-0.00969295
99	0xbab61f47	-0.001389482
100	0xbd054d7d	-0.0325446
101	0xbd24dfad	-0.040252376
102	0xbcee44da	-0.029085565
103	0xbc9830de	-0.01857799
104	0x3ca29428	0.019846037
105	0xbcae0622	-0.021243159
106	0x3cbe5f1a	0.023238707
107	0xbd2b9627	-0.041891243
108	0x3c7328fd	0.014841315
109	0xbca17a7f	-0.019711731
110	0x3c5b9c3e	0.01340395
111	0xbd0f51e5	-0.03499021
112	0x3b6a7cc4	0.0035779933
113	0x3d087287	0.033312347
114	0xbcdb3483	-0.026758438
115	0xbd23d90b	-0.04000191
116	0xbc52aa1f	-0.012857943
117	0xbbbfea7b	-0.0058568097
118	0xbc8210fe	-0.015877243
119	0x3c7ca265	0.015419577
120	0x3d017513	0.03160579
121	0xbc5dcea5	-0.013538037
122	0x3d0e2fe1	0.03471363
123	0x3c78ae6a	0.015178302
124	0xbb3b129b	-0.0028545025
125	0x3afdf605	0.0019375688
126	0xbd548a66	-0.0518898
127	0xbc1c3985	-0.009535198
128	0x3cf33063	0.029686159
129	0xbd0c00cf	-0.03418046
130	0xbc859c5d	-0.016309911
131	0xbc834597	-0.016024394
132	0xbbd5c0c5	-0.006523224
133	0xbc8c7b27	-0.017148567
134	0x3c837e1d	0.016051346
135	0x3c885089	0.016639965
136	0xbd22a6b0	-0.039709747
137	0x3c8528b0	0.016254753
138	0x3c831c7a	0.01600479
139	0xbc73f994	-0.014891047
140	0x3b696086	0.003561051
141	0xbc398556	-0.011323294
142	0x3d0c19ff	0.03420448
143	0x3c3f456f	0.011674269
144	0xbd1d1f37	-0.038359847
145	0xbd76d48c	-0.060261294
146	0xbd4d1a16	-0.050073706
147	0xbb796c64	-0.003805899
148	0xbbb5f0f2	-0.0055524046
149	0xb8dca252	-0.00010520652
150	0x3ab1eb5e	0.0013574173
151	0x3c026d15	0.0079605775
152	0xbb218796	-0.0024647466
153	0xbc0ecb6c	-0.008715492
154	0x3c0db022	0.00864795
155	0xbc7f0d0b	-0.0155670745
156	0xbd45db1f	-0.048304673
157	0x3cfaf270	0.030633181
158	0xbc744c93	-0.014910835
159	0xbd452567	-0.048131373
160	0x3d0e0a27	0.03467765
161	0x3c75ffac	0.01501457
162	0xbd79d08b	-0.060989898
163	0x3cdb2bef	0.026754348
164	0xba786af2	-0.00094763853
165	0xbd86aefb	-0.065763436
166	0xbd0c2258	-0.03421244
167	0xbd4e9579	-0.050435517
168	0x3bf9c50d	0.0076223672
169	0x3cfb3c3c	0.03066837
170	0x3cac15c1	0.021006467
171	0xbad9055d	-0.0016557385
172	0x3c45a9e4	0.012064431
173	0xbcd97edb	-0.026549747
174	0xbbd0cbc4	-0.006371947
175	0xbd41c13e	-0.04730343
176	0x3c7b6365	0.015343522
177	0xbbf97481	-0.0076127653
178	0xbb734bf2	-0.0037124124
179	0xbca8a307	-0.02058555
180	0x3c110584	0.008851413
181	0xbc1973f9	-0.009366029
182	0xbc6b1409	-0.0143480385
183	0x3c5cd4db	0.013478483
184	0x3c70c560	0.014695495
185	0x3d406b81	0.046977524
186	0xba84b6da	-0.0010125295
187	0xbb13a0cc	-0.0022526262
188	0x3d19c77d	0.037543762
189	0xbb49d348	-0.00307961
190	0x3c773bd8	0.015089951
191	0x3cae56be	0.021281596
192	0x3c7bf1a9	0.0153774405
193	0xbaffb224	-0.0019508046
194	0xbb510c6f	-0.003189828
195	0x3c876519	0.0165277
196	0x3c75e44d	0.015008044
197	0xbc4a7030	-0.012355849
198	0x3c71cbfd	0.014758107
199	0x3b8c719b	0.0042860038
200	0xbbbbafa1	-0.0057277237
201	0x3d13cbe9	0.036083136
202	0xbc9e56e4	-0.019328542
203	0xbd398443	-0.04529215
204	0xbc6275d5	-0.013822039
205	0xbd43d3e4	-0.047809497
206	0xbd2e0747	-0.04248741
207	0xbc8a38a7	-0.016872717
208	0x3be42fdd	0.0069637136
209	0x3b88cd88	0.004174892
210	0x3c929235	0.017891983
211	0xbd09740b	-0.033557933
212	0x3c923e7f	0.017852066
213	0xbd378389	-0.044803176
214	0x3ab5fa07	0.0013883718
215	0xbcec3747	-0.028834952
216	0x3c73dc75	0.014884104
217	0x3c58ddc7	0.01323647
218	0x3c852b98	0.016256139
219	0xbc2e3335	-0.010632326
220	0x3c773233	0.015087652
221	0x3c83b09d	0.016075427
222	0x3c40b5f4	0.011762131
223	0xbab807e7	-0.0014040441
224	0x3c7c5b58	0.015402637
225	0xbd38eab8	-0.04514572
226	0xbd70bb2c	-0.05877225
227	0xbc7efa74	-0.015562642
228	0x3ca7204b	0.02040114
229	0xbc0ba929	-0.008524218
230	0x3c819a1f	0.015820561
231	0x3d26f09b	0.040756803
232	0xbc2e6c42	-0.010645928
233	0x3c9850aa	0.018593151
234	0x3c1a615c	0.009422626
235	0x3d377185	0.044785995
236	0x3c89d194	0.016823567
237	0x3c7c85af	0.015412732
238	0x3c3ceab1	0.011530564
239	0x3b8b3d61	0.0042492603
240	0xbc649e8f	-0.013953819
241	0xbc1086a2	-0.008821161
242	0x3c80c169	0.015717225
243	0x3b90313f	0.004400402
244	0xb986c164	-0.0002570256
245	0x3c2aa3af	0.010415002
246	0xbd408aff	-0.047007557
247	0xbaca7459	-0.0015446051
248	0xbc222e1c	-0.009898689
249	0xbcaeca19	-0.021336602
250	0xbc5bd109	-0.013416537
251	0xbcadbfb1	-0.02120957
252	0x3bc4ca8d	0.0060055912
253	0xbcb1d282	-0.021706823
254	0xbbbbcc5f	-0.00573115
255	0xbce4c4a5	-0.027925799

blocks.4.synapse.weight f4 [10, 512, 1, 1, 1]
0	0x3c8820ac	0.016617142
1	0x3c572761	0.013131947
2	0x3c7947dc	0.0152148865
3	0x3c86907f	0.016426323
4	0x3c7d657a	0.015466088
5	0x3cd01db3	0.025404787
6	0x3c4e5ed7	0.012595854
7	0xbc832467	-0.016008569
8	0x3c5e9862	0.013586136
9	0x3c62045d	0.013794986
10	0xbc3c8be4	-0.011507962
11	0x3a7e2676	0.0009695062
12	0xbade0d69	-0.0016941252
13	0x3c7647e0	0.015031785
14	0x3c469816	0.012121221
15	0x3c0a4b21	0.008440764
16	0x3c8cf194	0.017205037
17	0x3c7a44db	0.0152752055
18	0x3c651ad4	0.013983447
19	0x3c7972a1	0.015225084
20	0x3b2fdd38	0.0026834738
21	0xbc7d5248	-0.015461512
22	0x3a1f44a1	0.0006075595
23	0x3c14b9f2	0.009077536
24	0xb9593f39	-0.00020718285
25	0xbc809c01	-0.015699388
26	0x3c83fee9	0.016112762
27	0x3c4c8a4b	0.0124841435
28	0xbc46d198	-0.012134932
29	0xbcacab8e	-0.021077897
30	0x3c416df6	0.011806002
31	0x3b76f96a	0.0037685283
32	0xbc80e2eb	-0.015733203
33	0xbc7d0f2f	-0.015445515
34	0xbc52bee8	-0.012862898
35	0xbc7f8e49	-0.015597888
36	0xbc357903	-0.011076215
37	0xbbf34914	-0.007424483
38	0x3c5afbed	0.013365728
39	0x3cfb033b	0.030641189
40	0xbc180944	-0.009279553
41	0xbc73c76d	-0.01487909
42	0xbc698ebe	-0.014255224
43	0xbc4b05d1	-0.012391523
44	0xbc6913f2	-0.014225947
45	0x3c7037c6	0.014661735
46	0x3c9a12d9	0.018807815
47	0x3c7b6490	0.0153438
48	0xbc7e72f6	-0.0155303385
49	0x3c4c2e5e	0.012462227
50	0x3c72cdcc	0.014819574
51	0x3c4dc089	0.012558111
52	0xbc43bb11	-0.011946456
53	0xbc74aee5	-0.014934276
54	0x3c8106cf	0.015750317
55	0x3c87b255	0.016564528
56	0xbb64d0d1	-0.0034914503
57	0x3c36a92c	0.011148732
58	0x3c65a03a	0.014015252
59	0x3c7b4687	0.015336639
60	0xba7558c9	-0.00093592383
61	0x3c5eb75c	0.013593521
62	0x3b8155e7	0.003947008
63	0x3b9b07d8	0.0047311597
64	0x3c6d1c3b	0.014472063
65	0x3c355106	0.011066681
66	0x3c795bca	0.015219638
67	0x3bb307f8	0.0054635964
68	0x3c74b050	0.014934614
69	0x3c859571	0.01630661
70	0x3c76b690	0.015058175
71	0x3c80b65c	0.015711956
72	0xbbbc90a0	-0.0057545453
73	0xbc7d80a7	-0.015472568
74	0x3c687eeb	0.014190416
75	0xbc54cd65	-0.012988423
76	0xbc7d2187	-0.015449888
77	0x3bd71795	0.0065640905
78	0x3b842783	0.0040330305
79	0x3bdd5e1c	0.0067556035
80	0x3ab42ecf	0.001374686
81	0x3b3aec16	0.0028522066
82	0xbc8035b1	-0.015650602
83	0xbc710012	-0.014709489
84	0xbc669314	-0.014073152
85	0xbc4aa27f	-0.012367844
86	0xbb986733	-0.004650974
87	0xbc886589	-0.016649978
88	0x3c2f643d	0.010705051
89	0xbbbbf5e2	-0.0057360986
90	0x39c23755	0.0003704379
91	0x3c09b375	0.008404602
92	0xbc8a1b94	-0.016858853
93	0x3c1e299e	0.009653477
94	0xbc79b09b	-0.01523986
95	0xbc8a03cb	-0.016847512
96	0x3c4b4400	0.012406349
97	0xbc2b5ad7	-0.01045867
98	0x3bf437b7	0.007452931
99	0xbcae5ada	-0.021283556
100	0xbc843992	-0.016140733
101	0xbbcc6e50	-0.006238736
102	0xbc62dd4a	-0.013846705
103	0xbc649582	-0.013951661
104	0xbc3a0630	-0.011354014
105	0x3c8a3ca5	0.01687462
106	0x3c7c9389	0.0154160345
107	0x3c6f6196	0.014610669
108	0x3c59c39c	0.013291266
109	0xbae27fb5	-0.0017280491
110	0x3c063272	0.008190738
111	0xbc3050f8	-0.010761492
112	0xbc4e1027	-0.012577093
113	0x3c411e78	0.0117870495
114	0x3c97fdce	0.01855364
115	0x3d3d5d71	0.04623169
116	0x3c896463	0.0167715
117	0x3948af0a	0.00019138693
118	0xbc763c02	-0.015028955
119	0x3a88fdc7	0.0010451608
120	0xbbe7018e	-0.007049746
121	0x3c30bc1c	0.010787036
122	0x3d04ab9c	0.032390222
123	0x3c395c82	0.0113135595
124	0x3c392937	0.01130133
125	0x3b912811	0.004429825
126	0x3b8d5439	0.0043130186
127	0xbc8d04d3	-0.017214214
128	0xbc75120a	-0.014957914
129	0x3b3752cb	0.0027972932
130	0xbc2c0264	-0.010498617
131	0x3c2966d5	0.0103394585
132	0x3c31d11c	0.010853078
133	0x3b1c373c	0.0023836633
134	0x3ca5eccf	0.02025452
135	0x3ca40a67	0.020024491
136	0xbc67a3aa	-0.014138142
137	0xbc3b92d1	-0.011448578
138	0xbc390383	-0.011292341
139	0xbc57d73c	-0.0131738745
140	0xbc5b7419	-0.013394379
141	0x3c71daf0	0.014761671
142	0x3c815282	0.015786413
143	0x3d8970ad	0.06710944
144	0x3ad7e353	0.0016470946
145	0xbc59ab93	-0.013285535
146	0xbc69f957	-0.014280639
147	0xbc4a53e5	-0.012349104
148	0x3c2b5323	0.010456833
149	0x3c129cd2	0.008948522
150	0x3d584d61	0.05280817
151	0x3da2bfa4	0.07946709
152	0x3ba95988	0.0051681437
153	0xbc7d21cb	-0.015449951
154	0xbc6591f6	-0.014011851
155	0xbb9e8348	-0.0048374273
156	0xbc777227	-0.0151029
157	0x3ce54249	0.027985709
158	0x3d7ccf28	0.061720997
159	0x3d976d91	0.07393945
160	0x3c23de9d	0.010001806
161	0xbc290004	-0.010314945
162	0x3c6a1ff5	0.014289846
163	0x3c855ee2	0.016280595
164	0xbc7cd350	-0.01543124
165	0x3c249f0d	0.010047686
166	0x3c5726d4	0.013131816
167	0x3c8f441c	0.017488532
168	0xbb044a13	-0.0020185753
169	0xbc293fd2	-0.010330157
170	0x3c680d8d	0.014163387
171	0xbc3e7578	-0.011624686
172	0xbc604fc6	-0.0136908945
173	0xbc8ed108	-0.017433658
174	0xbad6439b	-0.0016347052
175	0xbc8f9549	-0.01752724
176	0x3bb292ce	0.0054496294
177	0xbc6dda00	-0.014517307
178	0xbc83baed	-0.016080344
179	0x3c3f5407	0.0116777485
180	0xbb5b35e0	-0.003344886
181	0xbc026a32	-0.007959889
182	0xbc5d09c5	-0.013491099
183	0x3c68980e	0.014196409
184	0x3ca83e3e	0.020537492
185	0xbc81084b	-0.015751025
186	0xbbf6f291	-0.0075362404
187	0xbc7e9ff7	-0.015541068
188	0xbc4c62e3	-0.012474748
189	0xbc580643	-0.013185087
190	0x3bb09f00	0.005390048
191	0xbaf6eeaa	-0.0018839438
192	0xbbb72398	-0.00558896
193	0xbc78574d	-0.015157533
194	0xbc4b631c	-0.012413766
195	0x3c70bc2c	0.014693301
196	0x3c31a622	0.010842832
197	0x3c79cfd2	0.015247302
198	0x3c83ad6c	0.016073905
199	0x3c88c77a	0.01669668
200	0xbc234709	-0.009965667
201	0xbc4e8d61	-0.01260695
202	0xbc34fdf6	-0.011046877
203	0x3c7f48fc	0.015581366
204	0x3c8c519c	0.017128758
205	0x3c48ee1e	0.012263803
206	0x3c3b7cff	0.011443376
207	0x3c7f77b5	0.015592505
208	0xbc47ceb3	-0.012195277
209	0xbc3c6b73	-0.011500227
210	0x3c2d9fd2	0.010597186
211	0x3d1e7b08	0.03869155
212	0x3d1d2174	0.03836198
213	0x3c8c3c69	0.01711865
214	0x3c73b789	0.014875301
215	0xbb25f561	-0.002532326
216	0x3c424e98	0.0118595585
217	0x3ae89787	0.0017745354
218	0x3c5c6d6e	0.013453824
219	0x3cc1281e	0.0235787
220	0x3c74403f	0.014907896
221	0xbc0963d1	-0.0083856145
222	0xbb3f2136	-0.0029164082
223	0x3b8880e6	0.0041657565
224	0x3c875075	0.016517857
225	0xbc53e753	-0.01293357
226	0x3c717f2b	0.014739792
227	0x3c32f3f1	0.010922418
228	0xbc5c1323	-0.013432297
229	0xbb697e31	-0.0035628194
230	0xbc486cdc	-0.012232985
231	0x3c3df831	0.011594818
232	0x3cab8aa3	0.02094013
233	0x3c827a09	0.015927332
234	0x3c80fa0d	0.015744234
235	0xbc6ba862	-0.014383407
236	0x3a7aa34e	0.00095610775
237	0x3bdaa7e6	0.006672847
238	0xbc727598	-0.014798544
239	0x3c67ede0	0.014155835
240	0x3cad8b04	0.021184452
241	0xbc7b79ac	-0.015348833
242	0xbc5fe61a	-0.0136657
243	0x3b28f48e	0.0025780532
244	0x3c2df165	0.010616635
245	0xbc8036bb	-0.015651098
246	0x3c321d67	0.010871268
247	0x3c6f296c	0.014597278
248	0x3ca62bb4	0.020284511
249	0xbc8e37e8	-0.017360643
250	0xbc58e177	-0.013237349
251	0x3b05dcb7	0.0020425746
252	0x3c4a669d	0.0123535665
253	0x3b8575bb	0.0040728725
254	0x3c5a1382	0.013310315
255	0x3c6b640a	0.014367113
