MNIST/00:01:38:Apr-26-23/network_0.9321666666666667.pt (torch, 54475 bytes, 4 tensors)

blocks.0.synapse.weight f4 [16, 1, 5, 5, 1]
0	0xbdf8a78c	-0.12141332
1	0xbb1104aa	-0.0022128024
2	0xbe17f6e0	-0.14840269
3	0xbe40ba0c	-0.18820971
4	0xbe04304e	-0.12909052
5	0x3d9eaef3	0.07748213
6	0xbe251750	-0.16122174
7	0x3d3c230b	0.045931857
8	0xbddef3dc	-0.10886356
9	0xbdaf2454	-0.08551851
10	0x3e1f3998	0.15549314
11	0xbcea386e	-0.02859136
12	0xbcc0bc15	-0.023527185
13	0x3e10a5ea	0.14125791
14	0xbe104e39	-0.1409234
15	0x3e450c57	0.19242989
16	0x3e34ce90	0.17656922
17	0xbcb7c29c	-0.022431664
18	0x3e255eaa	0.16149393
19	0x3e552ccd	0.20817871
20	0x3dae7818	0.08519
21	0x3e40b93f	0.18820666
22	0x3daf51ad	0.085605
23	0x3dfad9c8	0.1224857
24	0xbc010b62	-0.007876249
25	0x3e8e2d7b	0.27769074
26	0x3e0e0ee3	0.13872866
27	0x3c9761f7	0.01847933
28	0x3e62e3ce	0.22157213
29	0xbdc3e348	-0.09564835
30	0xbd9cd3b1	-0.076575644
31	0x3e66bb9b	0.22532503
32	0xbcf33699	-0.02968912
33	0x3d2ced99	0.04221878
34	0x3cf70eea	0.030158479
35	0xbd2049dd	-0.03913294
36	0x3dd4f70e	0.103986844
37	0x3dca19ca	0.098682
38	0xbe3f704f	-0.18695186
39	0xbe224e27	-0.15850125
40	0xbe22b97f	-0.15891074
41	0xbe102b66	-0.14079055
42	0xbd7929d0	-0.06083089
43	0xbdc3c7b4	-0.09559575
44	0xbd22f2f9	-0.039782498
45	0xbde28106	-0.110597655
46	0xbe4f46ae	-0.20241806
47	0xbc0d5431	-0.00862603
48	0xbe883241	-0.2660084
49	0x3babc6a5	0.005242186
50	0x3e7cbb66	0.24680862
51	0x3de5b614	0.11216369
52	0xbd97ee3c	-0.074184865
53	0xbe1b97b0	-0.15194583
54	0xbde9b891	-0.114121564
55	0x3d5408bf	0.051766153
56	0xbda52dc1	-0.080653675
57	0x3e0a69bc	0.13516897
58	0xbe7951cc	-0.2434761
59	0xbd5b70c8	-0.053574353
60	0x3dcfecce	0.10152589
61	0x3ddddc00	0.10832977
62	0xbcb3b0f2	-0.02193496
63	0xbe21ecb3	-0.1581295
64	0xbe426b22	-0.1898618
65	0x3e140afe	0.14457318
66	0xbd7d2475	-0.061802346
67	0xbc8aa6af	-0.016925184
68	0xbdac5eb0	-0.08416498
69	0xbdb8b395	-0.090186276
70	0x3e924768	0.28570104
71	0xbd3f81ec	-0.046754763
72	0x3dbd6c18	0.09249133
73	0x3de88f2e	0.11355434
74	0xbe0fc5e0	-0.14040327
75	0xbdc40f9b	-0.09573289
76	0x3e465516	0.19368395
77	0x3e207260	0.1566863
78	0x3e051ebc	0.13000005
79	0xbdf9ac21	-0.12191034
80	0x3e6798fc	0.22616953
81	0xbd8d21a5	-0.06891183
82	0x3dfa4228	0.122196496
83	0xbdad6646	-0.08466773
84	0xbe3db771	-0.18527009
85	0xbbe0724e	-0.0068495637
86	0xbdfe352c	-0.124124855
87	0xbe89a4f8	-0.26883674
88	0xbe6c2e02	-0.23064426
89	0xbe7a7512	-0.24458721
90	0xbe016f24	-0.12640053
91	0xbe016fea	-0.12640348
92	0xbe482570	-0.19545531
93	0xbce5405a	-0.027984787
94	0xbd324f9a	-0.043532945
95	0x3e048981	0.12943079
96	0x3d2ea27d	0.04263543
97	0x3de8a9b0	0.1136049
98	0x3db35f7a	0.08758445
99	0x3dcae425	0.09906796
100	0xbda4537a	-0.080237344
101	0xbe5a7beb	-0.21336333
102	0x3d37c975	0.04486986
103	0xbe0d6a9c	-0.138102
104	0x3e0cc868	0.13748324
105	0xbd71ee4e	-0.059065156
106	0xbe44eee6	-0.19231758
107	0xbe9864a1	-0.29764274
108	0xbe8acdf7	-0.27110264
109	0xbe77eead	-0.24212141
110	0x3d4003d8	0.046878666
111	0x3de17e87	0.11010461
112	0xbddffc17	-0.10936754
113	0x3d5a0851	0.053230587
114	0x3d1ac3f8	0.037784547
115	0xbc7da4ad	-0.015481156
116	0xbd976ba4	-0.07393578
117	0xbc9cf1d3	-0.01915828
118	0x3ccf3005	0.025291452
119	0x3d7f6258	0.062349647
120	0x3dcca7e7	0.09992962
121	0x3d937f47	0.072020106
122	0xbd2734d9	-0.040821884
123	0x3e11a435	0.14222796
124	0x3ea4b875	0.3217198
125	0x3dc65343	0.0968385
126	0xbd880b29	-0.06642754
127	0x3d276e63	0.040876757
128	0xbdbdc215	-0.09265534
129	0x3ddee1ac	0.10882887
130	0x3e4f8d58	0.20268762
131	0x3e858433	0.26077422
132	0x3d3e782e	0.04650133
133	0x3cb8bc36	0.022550683
134	0x3e174338	0.14771736
135	0xbd51fce5	-0.05126657
136	0x3d548d31	0.051892463
137	0x3d642b7f	0.055705544
138	0x3e0091b6	0.12555584
139	0xbd42f46a	-0.047596373
140	0xbe67987b	-0.2261676
141	0xbe5212dd	-0.20515008
142	0xbd82ed22	-0.06392886
143	0xbd8398c3	-0.06425621
144	0x3d82215f	0.06354021
145	0xbe55b6df	-0.20870541
146	0xbe1afc1f	-0.15135239
147	0xbd85a567	-0.065256886
148	0x3d650845	0.05591609
149	0xbda6ca9e	-0.08144115
150	0xbe54d5e1	-0.20784713
151	0x3d88aa2d	0.066730835
152	0xbe6a2da4	-0.22868973
153	0xbe738a90	-0.23783326
154	0x3e39232b	0.18079822
155	0xbde454f4	-0.11149016
156	0x3d907a26	0.07054548
157	0xbda214ad	-0.079141
158	0x3dc8b2ac	0.09799704
159	0x3e02fdd2	0.12792137
160	0xbda22acf	-0.07918321
161	0xbcb2e286	-0.02183653
162	0xbe3944e9	-0.18092693
163	0x3e4f4778	0.20242107
164	0x3e7d3449	0.24726976
165	0x3da9f564	0.08298758
166	0xbd636eaf	-0.055525478
167	0x3d626ce4	0.055279627
168	0x3d605a5c	0.054773673
169	0x3decb746	0.11558394
170	0x3db03c9c	0.0860531
171	0x3d770c99	0.06031475
172	0xbde91b6b	-0.11382183
173	0x3e38f1fc	0.1806106
174	0x3e02986a	0.12753454
175	0x3e11fec8	0.14257348
176	0xbe290eba	-0.16509524
177	0xbd6a180e	-0.057151847
178	0xbdf455c3	-0.1193042
179	0x3db3c14f	0.08777105
180	0x3d871160	0.06595111
181	0xbd90f6a8	-0.07078296
182	0xbd929b74	-0.071585566
183	0xbd459c51	-0.048244778
184	0x3dd428fc	0.1035938
185	0xbd53e5dd	-0.051732887
186	0xbe34529b	-0.17609636
187	0x3e063770	0.13107085
188	0x3e2bff79	0.16796674
189	0xba81b25b	-0.0009895073
190	0x3c1a8898	0.009431981
191	0x3d158ffb	0.036514264
192	0x3de64f8f	0.11245643
193	0x3de0ddcc	0.109798044
194	0x3d08eba4	0.03342785
195	0x3e343f0b	0.17602174
196	0x3db07d5b	0.0861766
197	0x3e3e7735	0.18600161
198	0xbe08061b	-0.13283579
199	0xbd73e39d	-0.05954324
200	0x3dff76a7	0.12473803
201	0xbc9baa19	-0.019002007
202	0x3e38eecb	0.18059842
203	0xb8dbadb1	-0.00010475086
204	0x3e3fb962	0.18723062
205	0x3cd5f02a	0.026115496
206	0x3e384a33	0.17997055
207	0x3e1e7d41	0.15477468
208	0xbdc4cf83	-0.09609892
209	0xbdce2ec3	-0.10067513
210	0xbdc1002a	-0.094238594
211	0x3da002cd	0.07813034
212	0xbe88672b	-0.2664121
213	0xbda6abd9	-0.08138246
214	0xbd89ad6c	-0.06722531
215	0x3d90abbc	0.07064006
216	0xbe6f1168	-0.23346484
217	0xbe621638	-0.22078788
218	0xbe0c8a69	-0.13724674
219	0x3e0b9d7f	0.13634299
220	0xbd700f91	-0.058608595
221	0x3c7f824b	0.015595029
222	0x3de80312	0.113287106
223	0x3d9c871a	0.07642956
224	0x3d0ee644	0.034887567
225	0x3cf6c3a2	0.030122582
226	0xbe0d213e	-0.13782212
227	0x3d90b208	0.07065207
228	0x3d911609	0.07084281
229	0x3e063f40	0.13110065
230	0xbc8296ff	-0.015941141
231	0x3e1c2447	0.15248214
232	0x3e173e62	0.14769891
233	0xbc37a019	-0.011207604
234	0x3e4fea24	0.20304161
235	0xbe0105b3	-0.1259983
236	0x3c182466	0.009286022
237	0x3e2b4d77	0.16728769
238	0xbde22b61	-0.1104343
239	0xbc1d7d27	-0.009612358
240	0xbd0bacb9	-0.034100268
241	0xbdca7212	-0.098850384
242	0x3d223862	0.039604552
243	0x3da4e955	0.08052317
244	0x3d401d02	0.046902664
245	0xbd5a229e	-0.05325567
246	0xbe8ab477	-0.2709081
247	0xbe56f561	-0.20992042
248	0xbe297c6b	-0.16551368
249	0x3e458394	0.19288474
250	0xbdf8190b	-0.121141516
251	0x3b333f9a	0.0027351142
252	0xbdd4bce9	-0.10387594
253	0x3d89b182	0.0672331
254	0xbd867a41	-0.06566287
255	0xbe048a33	-0.12943344

blocks.1.synapse.weight f4 [32, 16, 3, 3, 1]
0	0xbdd316e7	-0.10307103
1	0xbcf4afef	-0.029869048
2	0xbd198ed0	-0.037489712
3	0x3d3a50fa	0.04548738
4	0xbc80d2ae	-0.01572546
5	0xbdcefcab	-0.10106786
6	0xbad7921a	-0.001644674
7	0xbdbea3f8	-0.09308618
8	0xbd635937	-0.055505004
9	0xbd5dc5e5	-0.054143805
10	0xbdf2e3ff	-0.11859893
11	0xbd8f05a6	-0.06983499
12	0xbd5cd149	-0.053910527
13	0xbd54a86f	-0.051918443
14	0xbd8fb13d	-0.070162274
15	0x3d54a6eb	0.051916998
16	0xbd19256a	-0.037389196
17	0xbd6ca741	-0.057776693
18	0x3d03dea4	0.03219475
19	0x3d2a1fc6	0.041534208
20	0xbc4f4f3a	-0.012653166
21	0xbc8a37e5	-0.016872356
22	0x3c1fd2a4	0.0097548105
23	0x3c5712fb	0.013127084
24	0xbc945d3c	-0.018110864
25	0x3d249380	0.04017973
26	0x3d20c1ce	0.039247327
27	0xbd7a56f1	-0.06111807
28	0xbda6c05e	-0.0814216
29	0xbe6568fe	-0.22403333
30	0xbd4fd3f3	-0.05073924
31	0xbdeb9744	-0.11503461
32	0x3d6351b1	0.05549783
33	0x3e041851	0.12899901
34	0x3ccd0fb3	0.0250319
35	0xbcacc32d	-0.02108916
36	0xbd57da8e	-0.052698664
37	0xbd92c625	-0.07166699
38	0xbe306407	-0.17225657
39	0x3bf61d46	0.007510814
40	0xbcd4f438	-0.025995359
41	0xbec422a8	-0.3830769
42	0xbdc91265	-0.098179616
43	0xbe8421a0	-0.25806904
44	0xbe08fdf6	-0.13378128
45	0x3dbc6870	0.09199607
46	0x3d8442ba	0.064580396
47	0xbe2f5d4f	-0.17125438
48	0xbe01fdee	-0.12694523
49	0xbd8cf959	-0.06883497
50	0xbd9f8df3	-0.077907465
51	0x3c3c313b	0.011486347
52	0x3b8f9064	0.0043812264
53	0xbcfa584a	-0.030559678
54	0xbda18c1f	-0.07888054
55	0xbd866ff6	-0.065643236
56	0xbdee36e1	-0.11631561
57	0x3db8bdfa	0.0902061
58	0x3d6d2061	0.057892207
59	0xbe1070f8	-0.14105594
60	0x3c986076	0.018600684
61	0x3d724d90	0.059156
62	0xbe1e8bc2	-0.15483001
63	0x3a8d4719	0.0010778635
64	0x3ba32fac	0.004980048
65	0x3caec41f	0.021333752
66	0x3d988318	0.07446879
67	0x3d6bae3d	0.057539213
68	0x3bd56d60	0.0065132827
69	0x3be8a672	0.00709992
70	0x3d641f4f	0.05569392
71	0x3d7d0139	0.061768744
72	0x3d9ff623	0.07810619
73	0x3b053495	0.002032553
74	0xbe14501e	-0.14483687
75	0x3d4a8988	0.049447566
76	0xbd91afa7	-0.07113581
77	0x3c5ca05e	0.013465969
78	0x3d916e33	0.07101097
79	0xbab756a9	-0.0013987619
80	0xbbe2672c	-0.0069092717
81	0x3d953276	0.07285015
82	0xbd90706c	-0.07052693
83	0xbe1547ae	-0.14578125
84	0xbe0fb25d	-0.14032884
85	0xbdf59213	-0.11990752
86	0xbde7f9b3	-0.11326923
87	0x3b91776d	0.0044392855
88	0xbc8007f9	-0.015628802
89	0xbe3dd486	-0.18538103
90	0x3c827dd5	0.015929142
91	0x3d9721fd	0.073795296
92	0xbd464bc0	-0.048412085
93	0x3ba8ded6	0.0051535172
94	0xbc927d3f	-0.017881988
95	0xbd94bfa1	-0.07263113
96	0x3d3f4147	0.046693113
97	0xbc7b4404	-0.01533604
98	0x3c6125c9	0.013741919
99	0x3dd04093	0.101685666
100	0x3d81efae	0.063445434
101	0xbe1231c2	-0.14276794
102	0xbcc4f3ce	-0.024042036
103	0x3c708dd0	0.014682248
104	0xbe592d87	-0.21208774
105	0xbd7d0c3c	-0.061779246
106	0x3d75cf69	0.060012255
107	0xbdb20251	-0.08691848
108	0x3c58b940	0.013227761
109	0xbdbd4e57	-0.09243458
110	0xbd3e09b1	-0.04639596
111	0xbd86b56e	-0.06577574
112	0xbd70c1f5	-0.05877872
113	0x3d5cca28	0.05390373
114	0xbc5881da	-0.013214553
115	0xbcdbe646	-0.026843201
116	0x3da6d090	0.08145249
117	0xbd19b019	-0.037521455
118	0xbd241d0a	-0.040066756
119	0xbdcad2c5	-0.09903482
120	0x3c711fc6	0.014717048
121	0xbd29d960	-0.04146707
122	0xbdc48487	-0.0959559
123	0x3ce04c12	0.027380023
124	0xbcc82823	-0.024433201
125	0xbe8b5373	-0.27212104
126	0xbc91c8e2	-0.017795984
127	0x3b1de75f	0.0024094207
128	0xbd521486	-0.051289104
129	0x3d3f29cf	0.04667073
130	0x3d9c7d87	0.0764113
131	0xbd6eedda	-0.0583323
132	0x3d98410c	0.07434282
133	0xbd2e1c24	-0.042507306
134	0xbd6d8e34	-0.057996944
135	0xbc837186	-0.016045343
136	0xbd8786ec	-0.06617531
137	0xbd6b1fcf	-0.057403382
138	0x3c6b4708	0.014360197
139	0xbdc0406a	-0.09387286
140	0xbe9961b3	-0.2995735
141	0xbe14225c	-0.14466232
142	0xbe213c18	-0.1574558
143	0xbd73cd43	-0.059521925
144	0xbd473444	-0.04863383
145	0xbd259abd	-0.040430773
146	0xbd823588	-0.063578665
147	0x3cacbf36	0.02108727
148	0x3c9ea663	0.019366449
149	0xbc1575f9	-0.009122365
150	0xbc9024b2	-0.017595623
151	0x3c32d5ec	0.010915261
152	0xbb900be8	-0.0043959506
153	0x3caf7038	0.021415815
154	0xbd7e7286	-0.062120937
155	0x3c7fda28	0.015615977
156	0xbc02b426	-0.007977521
157	0xbd30d64e	-0.043173127
158	0x3bc02894	0.0058642123
159	0x3cc2636e	0.023729052
160	0xbc8dcbbc	-0.017309062
161	0x3d3997e7	0.04531088
162	0x3d1c9e3b	0.038236838
163	0x3d8c2e68	0.06844789
164	0x3d3f9566	0.046773337
165	0xbd7e5335	-0.06209107
166	0xbc52dba5	-0.01286975
167	0xbdcb5fc7	-0.099303775
168	0x3ce6c978	0.02817224
169	0xbdddb3da	-0.108253196
170	0xbc7d5bfb	-0.015463824
171	0xbc89588d	-0.016765857
172	0xbcf5150d	-0.029917264
173	0xbdb6b5cb	-0.08921393
174	0xbd402a83	-0.046915542
175	0x3d92d00b	0.07168587
176	0x3c7afc54	0.015318949
177	0x3d1e4bec	0.038646623
178	0x3c7e7ad5	0.015532215
179	0xbc6fa38d	-0.014626396
180	0xbc0af41b	-0.008481051
181	0xbd9491e1	-0.07254387
182	0xbda01e88	-0.078183234
183	0xbdced296	-0.1009876
184	0xbc73b8f3	-0.014875638
185	0xbd592623	-0.053014886
186	0xbb881fdf	-0.00415419
187	0x3ca1398a	0.019680757
188	0x3d15c946	0.036568902
189	0x3d3cb363	0.046069514
190	0xbd457bc7	-0.048213746
191	0xbd783c42	-0.06060434
192	0xbc784a65	-0.015154456
193	0xbc61d6b5	-0.0137841
194	0xbb38bfd1	-0.0028190503
195	0x3b817a31	0.003951334
196	0x3d359076	0.04432722
197	0x3d967146	0.07345824
198	0xbd35a6dd	-0.044348586
199	0x3c1265a4	0.008935366
200	0xbc46ea21	-0.012140782
201	0x3ce8295d	0.028340036
202	0x3c0cfd31	0.008605287
203	0x3d2a8b35	0.041636664
204	0xbd6e6b50	-0.05820781
205	0xbd80b969	-0.06285364
206	0xbda01191	-0.078158505
207	0x3bec3e09	0.0072095436
208	0x3c50a020	0.012733489
209	0x3cb64328	0.02224882
210	0xbd3ec777	-0.046576943
211	0xbda8a53a	-0.082346395
212	0x3c7ff3f0	0.015622124
213	0xbc903bea	-0.017606694
214	0x3bc38a50	0.005967416
215	0xbc2c022a	-0.010498563
216	0xbd0050ab	-0.03132693
217	0xbbe20236	-0.006897236
218	0x3d0d891f	0.034554597
219	0x3d5f9a5c	0.054590568
220	0xbd0a561c	-0.033773527
221	0x3cb30393	0.02185229
222	0xbb67bd41	-0.0035360607
223	0xbd7f24d4	-0.06229098
224	0x3d38b49b	0.045094114
225	0x3d0b8f3e	0.034072153
226	0xbbf27474	-0.007399136
227	0xbc44c6d2	-0.012010293
228	0xbbf3af3e	-0.007436662
229	0x3d3d9bb4	0.04629107
230	0xbd3afcae	-0.04565113
231	0xbd528bc7	-0.051402833
232	0xbd6df0ef	-0.0580911
233	0x3c49b6a6	0.012311613
234	0x3c2ac23c	0.010422286
235	0xbcea9145	-0.028633723
236	0xbd4ea76e	-0.050452642
237	0x3c64d9d0	0.013967946
238	0x3ca41d79	0.020033585
239	0x3da1b723	0.07896259
240	0x3d400cec	0.046887323
241	0x3b721540	0.0036938936
242	0x3cadb49f	0.02120429
243	0x3c6a8aaf	0.014315291
244	0x3c98e09c	0.01866179
245	0x3d178cff	0.0369997
246	0x3bb91459	0.0056481776
247	0xbc1e5cfd	-0.009665725
248	0xbc805da9	-0.01566966
249	0x3d0051e3	0.031328093
250	0xbd57065f	-0.05249631
251	0xbbaa3fcc	-0.0051955935
252	0x3c6e4ee1	0.014545173
253	0xba2972f2	-0.00064639666
254	0x3d2f881c	0.042854413
255	0x3d3e0608	0.04639247

blocks.2.synapse.weight f4 [8, 32, 3, 3, 1]
0	0xbd22bb3b	-0.03972934
1	0x3c7bc894	0.015367646
2	0x3c7dce3c	0.015491065
3	0xbd194c31	-0.037426177
4	0xbcde2670	-0.027117938
5	0xbcbb437d	-0.02285933
6	0x3b084248	0.002079146
7	0x3becad4b	0.0072228066
8	0xbc0a6427	-0.00844673
9	0xbb8ad4b0	-0.00423678
10	0xbbe78aba	-0.007066098
11	0xbc7f0e71	-0.015567408
12	0xbc819309	-0.015817182
13	0x3c79015a	0.015198076
14	0x3c7e709b	0.015529777
15	0xbc7fe28a	-0.015617976
16	0x3c503f9f	0.012710481
17	0x3c8020f1	0.015640708
18	0x3ca0e3e8	0.019639924
19	0x3d0bb0c6	0.03410413
20	0x3c9c2133	0.0190588
21	0x3c85e7f0	0.016345948
22	0x3c8186f9	0.01581143
23	0x3b8396be	0.0040157726
24	0x3c802620	0.01564318
25	0x3c7f942d	0.015599293
26	0x3c7a4ce2	0.015277119
27	0x3c80132b	0.01563414
28	0x3c79bacf	0.015242293
29	0x3c8002ad	0.015626276
30	0xbc6a1c54	-0.0142889805
31	0xba2b32ca	-0.00065307005
32	0x3c801ea5	0.015639612
33	0x3c7ebf9d	0.015548614
34	0x3c4bb8b5	0.012434174
35	0x3c7ffd97	0.015624425
36	0x3c7ff703	0.015622857
37	0x3c801b59	0.01563804
38	0x3c7e9245	0.015537803
39	0x3a97764a	0.0011555639
40	0xbc5dfe9b	-0.013549472
41	0x3b4445c0	0.00299488
42	0xbc15f527	-0.009152687
43	0xbbc51997	-0.0060150134
44	0x3c4c14df	0.012456148
45	0x3d3f37b7	0.046683993
46	0x3c806e0e	0.015677478
47	0x3c57c52e	0.01316957
48	0x3c805e96	0.015670102
49	0x3cb249b4	0.02176366
50	0x3c82469e	0.015902814
51	0x3c72a1cb	0.014809082
52	0xbb66c571	-0.00352129
53	0xbc6a13f1	-0.014286981
54	0x3c80b2cf	0.015710263
55	0xbc86a3d0	-0.016435534
56	0xbc8871c7	-0.016655816
57	0xbd41d2ce	-0.04732018
58	0xbd770284	-0.060305133
59	0xbd84eded	-0.06490693
60	0xbc4271d8	-0.011867963
61	0xbc12ca2a	-0.0089593325
62	0x3c926af1	0.01787326
63	0x3c65c797	0.014024637
64	0x3bdbe2a7	0.0067103687
65	0xbc80ba03	-0.015713697
66	0x3c6d8a9b	0.014498378
67	0xbc7229a7	-0.0147804385
68	0xbb99e109	-0.0046960157
69	0x3c80db46	0.015729558
70	0x3c7f8819	0.015596413
71	0x3c800fab	0.015632471
72	0x3c7f9b86	0.0156010445
73	0x3c803af5	0.015653113
74	0xbc2c1a65	-0.01050434
75	0xbbf32e90	-0.007421322
76	0xbc3d4b77	-0.011553637
77	0xbc802647	-0.015643252
78	0x3baa2466	0.0051923273
79	0xbc1aa057	-0.009437642
80	0xbb830ee0	-0.003999576
81	0x3c7caa73	0.015421498
82	0xbc6052e9	-0.013691642
83	0x3c7e625c	0.01552638
84	0xbc8223ee	-0.015886273
85	0xbcba6f25	-0.022758076
86	0xbd066f70	-0.03282112
87	0x3bcaf1eb	0.0061933897
88	0x3bf6ec1a	0.0075354697
89	0xbc7e1275	-0.01550733
90	0x3c220a66	0.0098901745
91	0x3c1a21ee	0.0094075035
92	0xbc879a97	-0.016553206
93	0xbd8a987e	-0.06767367
94	0xbd177863	-0.036980044
95	0xbb498d73	-0.0030754476
96	0xbcdf0d93	-0.027228152
97	0xb9814784	-0.0002465808
98	0x3c87916c	0.016548835
99	0x3c80c550	0.015719086
100	0x3c810c79	0.015753018
101	0x3c7d9402	0.015477182
102	0x3c864d99	0.016394423
103	0x3c17fb9a	0.009276295
104	0x399e2e6d	0.00030170698
105	0xbd5e204d	-0.054230023
106	0xbcaabdae	-0.0208424
107	0xbd45dd0d	-0.048306514
108	0x3c89b3f8	0.016809449
109	0x3c25818d	0.010101688
110	0x3bcb887a	0.0062113376
111	0x3c733e48	0.014846392
112	0xbbf2c662	-0.007408903
113	0x3c92055d	0.017824823
114	0xbc24a684	-0.010049466
115	0x3c7fcebf	0.015613257
116	0x3c8057e7	0.015666915
117	0xbcff8c26	-0.031194758
118	0xbba8806b	-0.0051422617
119	0x3c062436	0.008187344
120	0xbc2ef383	-0.010678175
121	0x3c3b74bb	0.011441405
122	0x3d1f3de8	0.038877398
123	0x3d1abba4	0.037776604
124	0x3b8f775e	0.0043782433
125	0x3c1b1a51	0.009466724
126	0x3c1cf926	0.009580886
127	0x3c176671	0.0092407325
128	0x3c1362bc	0.008995708
129	0x3c8125c9	0.015765088
130	0x3c95b7be	0.018276092
131	0x3c1fd67f	0.00975573
132	0x3c0ac44e	0.008469654
133	0xbaa7cb4c	-0.0012801676
134	0xbc5ff404	-0.013669018
135	0x3c802331	0.01564178
136	0x3c748abb	0.014925654
137	0xbc7279ec	-0.014799576
138	0xbc7dc182	-0.01548803
139	0xbc8076ea	-0.015681703
140	0xbc81ea06	-0.015858661
141	0xbc95f3bf	-0.018304704
142	0xbd173584	-0.03691627
143	0xbcb1ee9f	-0.021720229
144	0xbc807b42	-0.015683774
145	0xbc7fa178	-0.015602462
146	0x3c7e334b	0.015515159
147	0x3ca901d4	0.020630755
148	0x3c97daca	0.018536944
149	0x3c803288	0.015649095
150	0x3c870b8a	0.016484994
151	0x3c80284b	0.015644213
152	0x3c802cff	0.015646456
153	0x3c7e3945	0.015516584
154	0x3c97b0af	0.018516866
155	0x3d3f6055	0.04672273
156	0x3c74d6f3	0.014943826
157	0x3c7aae40	0.0153003335
158	0x3c876ea8	0.016532257
159	0x3c4362c1	0.0119254
160	0xba6aa99b	-0.0008951665
161	0x3c8081e9	0.015686946
162	0x3c8062fa	0.015672196
163	0x3c5c0766	0.013429498
164	0x3c7f3f9d	0.015579131
165	0x3c8154cf	0.01578751
166	0xbba07b67	-0.004897523
167	0x3bbd6603	0.005779983
168	0x3c80b0b3	0.015709257
169	0xbb740fec	-0.0037240935
170	0xbd2c6039	-0.042083953
171	0x3b95741f	0.004560962
172	0x3c6fa285	0.01462615
173	0x3d36a562	0.044591315
174	0xbb831c98	-0.0040012114
175	0x3c7ea08e	0.015541209
176	0x3c9b4c9f	0.018957434
177	0x3ca89a06	0.020581257
178	0x3d36e7f2	0.044654794
179	0x3ca59942	0.02021468
180	0xbcdab6e3	-0.026698535
181	0xbc0757e8	-0.008260705
182	0xbbb4c0aa	-0.0055161314
183	0xbccb7757	-0.02483718
184	0xbc973554	-0.018458046
185	0xbc296a26	-0.010340249
186	0xbd9a9399	-0.07547683
187	0xbcf54254	-0.029938854
188	0x3c7880c8	0.015167423
189	0xbc7fd983	-0.015615824
190	0x3c70bdc1	0.014693678
191	0x3c808e0c	0.015692733
192	0xba6cbeff	-0.0009031146
193	0x3c80389c	0.015651993
194	0x3c7f69c3	0.01558918
195	0x3c749d70	0.014930114
196	0x3beb34f8	0.007177945
197	0x3c2e32b9	0.01063221
198	0x3c7fe1f6	0.015617838
199	0x3c807446	0.015680443
200	0x3d19c462	0.0375408
201	0xbc293ce7	-0.010329462
202	0xbc801bd3	-0.015638268
203	0x3c7e7989	0.015531906
204	0xbd535402	-0.051593788
205	0xbc8061f2	-0.015671704
206	0x3c805748	0.015666619
207	0x39add73e	0.000331575
208	0x3d2ce651	0.042211834
209	0xbd641711	-0.05568606
210	0xbd2d126a	-0.04225389
211	0xbcbbdfd3	-0.022933876
212	0xbd0075ef	-0.03136247
213	0xbd7ec819	-0.062202547
214	0xbd779fcc	-0.06045513
215	0x3cc731e7	0.024315787
216	0x3c7fda89	0.015616068
217	0x3c800966	0.015629482
218	0x3cb5a560	0.022173584
219	0xbac3b3c8	-0.0014930898
220	0xbc7fe7f1	-0.015619264
221	0x3c801eb6	0.015639644
222	0x3c7a24ee	0.015267594
223	0xbc67242a	-0.014107743
224	0x3c54d24b	0.012989591
225	0xbc55c8cc	-0.013048362
226	0xbd940ce4	-0.07229021
227	0xbc7e8b6a	-0.015536169
228	0x3b1864b4	0.0023253383
229	0x3cb2d60a	0.021830577
230	0x3c7312c9	0.014836022
231	0x3c264c69	0.010150054
232	0x3c7f3324	0.015576158
233	0xba7e9c40	-0.0009712614
234	0xbdf6812e	-0.12036358
235	0xbd0f90eb	-0.035050314
236	0x3c7ecc12	0.015551584
237	0xbe0e0f6b	-0.13873069
238	0xbd577a82	-0.052607067
239	0xbc8892c0	-0.016671538
240	0xbda780ea	-0.08178885
241	0xbc590606	-0.013246065
242	0xbc1c179d	-0.009527114
243	0x3c640560	0.013917297
244	0xbc7e4857	-0.015520177
245	0x3c3e1b10	0.011603132
246	0x3c805ea9	0.015670137
247	0x3c7d94a0	0.0154773295
248	0x3c7ee664	0.015557859
249	0x3c80384b	0.015651843
250	0x3c45b0bf	0.012066065
251	0x3c7fef6d	0.015621048
252	0x3c6e0e13	0.014529723
253	0xbc7fed43	-0.015620532
254	0xbc6f4959	-0.01460489
255	0x3c7b1770	0.015325412

blocks.4.synapse.weight f4 [10, 512, 1, 1, 1]
0	0x3c7b46d1	0.015336708
1	0x3aca3350	0.0015426669
2	0xbc7f8672	-0.015596019
3	0xbc489c5c	-0.01224431
4	0x3c80edc6	0.01573838
5	0x3c763114	0.01502635
6	0xbc198279	-0.009369486
7	0xbc7b2b1e	-0.015330104
8	0x3c1aeeff	0.009456395
9	0x3c1a1f6e	0.0094069075
10	0x39fea9e1	0.00048573225
11	0x3c0699e5	0.008215402
12	0x3c8026ff	0.015643595
13	0x3c806981	0.015675308
14	0xba8fc25d	-0.0010967959
15	0xbc7f9598	-0.015599631
16	0x3c6e4229	0.014542141
17	0x3c7eef2d	0.015559954
18	0xbc7f8d6b	-0.0155976815
19	0xbc806629	-0.015673714
20	0x3c80180c	0.015636466
21	0x3d14e654	0.03635247
22	0xbb6e769f	-0.0036386622
23	0xbc8b4fe1	-0.017005863
24	0x3c7c5ae3	0.015402528
25	0x3c78f9e7	0.0151963
26	0xbc82f018	-0.015983626
27	0xbc7ef36c	-0.015560966
28	0x3c82fbef	0.015989272
29	0x3c7e5b85	0.01552475
30	0xbba056d6	-0.004893164
31	0xbc803ce5	-0.015654037
32	0x3c79bc60	0.015242666
33	0xbc7035f5	-0.014661302
34	0xbc6799a0	-0.014135748
35	0xbb4fa4e7	-0.0031683983
36	0xbc74afa9	-0.014934459
37	0xbbfcc6ed	-0.0077141435
38	0x3c5d734e	0.01351626
39	0x3c0c8dc6	0.008578723
40	0x3c7a092f	0.015260979
41	0x3c801d4d	0.015638972
42	0x3b3da8dc	0.002893976
43	0x3c4afd8e	0.012389554
44	0xbbc1232a	-0.0058940845
45	0xbc7f7be6	-0.0155935045
46	0x39cc410c	0.00038958376
47	0x3c318229	0.010834255
48	0x3c7d940b	0.015477191
49	0x3c800231	0.015626045
50	0x3c01c5b8	0.007920675
51	0xbc4cf5c7	-0.01250977
52	0xbc7ff10e	-0.015621437
53	0xbafba5c0	-0.0019199178
54	0x3bef6692	0.0073059285
55	0x3c57c474	0.013169397
56	0x3c798806	0.015230184
57	0xbabbb352	-0.0014320409
58	0xbc1246c2	-0.008928003
59	0x3c4abe29	0.012374439
60	0x3c8059d4	0.015667833
61	0x3c7ed180	0.015552878
62	0x3c7f7216	0.015591165
63	0x3c8032ce	0.015649226
64	0x3c7f6317	0.01558759
65	0x3c802bd4	0.015645899
66	0x3c7a26f0	0.0152680725
67	0x3c6a83fc	0.014313694
68	0x3bf405db	0.007446987
69	0x3b243a2b	0.0025059085
70	0x3c8029c8	0.015644923
71	0x3c82d17b	0.015969029
72	0xbc421d43	-0.011847797
73	0x3bd3cc52	0.006463566
74	0xbc7e980f	-0.015539183
75	0xbc7bb06f	-0.015361889
76	0xbc7c9986	-0.015417462
77	0x3ae76acb	0.0017655728
78	0xbb7c18d5	-0.003846695
79	0x3c808621	0.015688958
80	0xbc67668b	-0.014123569
81	0xbc12eb7b	-0.008967276
82	0xbb1c4f76	-0.0023851073
83	0x3c2744d9	0.010209286
84	0x3c7ec711	0.015550391
85	0xbc7ba9be	-0.015360294
86	0xbc7c6ed4	-0.015407283
87	0xbbf1943b	-0.007372407
88	0xbc7e61f2	-0.015526282
89	0x3c7cc4f0	0.015427813
90	0xbc7f2798	-0.015573405
91	0x3c13566b	0.008992772
92	0xbc377c45	-0.011199062
93	0xbc800885	-0.015629062
94	0x3c7e50a4	0.015522156
95	0x3c7dbed0	0.015487388
96	0xbc802325	-0.015641758
97	0x3b2ba039	0.002618803
98	0xbc806e98	-0.015677735
99	0xb99cb8d9	-0.0002989236
100	0x3c7c01e3	0.015381309
101	0x3c7ec59a	0.015550042
102	0x3c7e5b67	0.015524722
103	0x3c66bbc9	0.014082857
104	0xbc7fbd67	-0.015609122
105	0xbc7272e6	-0.014797902
106	0xbc765806	-0.015035635
107	0x3c7fd838	0.015615515
108	0x3c790cdf	0.015200823
109	0xbc7d438a	-0.015457997
110	0xbc4e102d	-0.012577099
111	0x3c754f44	0.014972512
112	0xbc1e80a4	-0.009674225
113	0x3c7b837d	0.0153511735
114	0x3c7b9376	0.015354982
115	0x3c5fe9e5	0.013666605
116	0xbc59ee9e	-0.01330152
117	0xbc5d6560	-0.013512939
118	0xbb5d8563	-0.0033801429
119	0x3c808f6b	0.015693387
120	0x3c6d0d95	0.01446857
121	0x3c565daf	0.013083859
122	0x3b98ba8d	0.0046609105
123	0xbb6d0c6b	-0.0036170732
124	0x3a5f4570	0.0008517122
125	0x3986b768	0.0002569512
126	0x3c7e31bf	0.01551479
127	0x3c7ecbf2	0.015551554
128	0x3c7eebc4	0.015559141
129	0x3c7a3692	0.0152718
130	0x3c7ac502	0.015305759
131	0x3c7d130d	0.015446437
132	0x3c7e38ac	0.015516441
133	0x3c7dff29	0.015502729
134	0xbb4efd9d	-0.003158427
135	0x3c2878f0	0.01028274
136	0x3c7d8d95	0.01547565
137	0xbab2d754	-0.0013644495
138	0x3b5c9620	0.0033658817
139	0x3c7e279e	0.015512375
140	0x3c3254e3	0.010884496
141	0xbc805208	-0.015664116
142	0xbc80f566	-0.015742015
143	0xbc7fe217	-0.015617869
144	0xbba82efd	-0.0051325546
145	0xbc7c2c4f	-0.015391423
146	0xbc7fa191	-0.015602485
147	0xbc6e7e49	-0.014556476
148	0xbc70cf91	-0.014697925
149	0xbc7dbbcd	-0.01548667
150	0xbc803d81	-0.015654327
151	0xbc7fc932	-0.015611934
152	0xbb2897c2	-0.002572522
153	0xbc80c0b6	-0.015716892
154	0xbc5fe2e0	-0.013664931
155	0x3c708d6d	0.014682156
156	0x3c56ce5f	0.013110726
157	0xbc7ebd1f	-0.01554802
158	0xbc8078c6	-0.01568259
159	0xbbe06b94	-0.006848762
160	0xbc7de70a	-0.015496979
161	0xbbce5a50	-0.006297387
162	0xbc8003ec	-0.01562687
163	0x3c84f921	0.016232075
164	0x3d9fdc65	0.07805709
165	0x3d11bbc1	0.035579447
166	0xbc809b5b	-0.01569908
167	0xbc7b21ea	-0.01532791
168	0xbc7d8e43	-0.015475812
169	0x3c284eaa	0.010272661
170	0xbc82519b	-0.015908053
171	0x3bb94a85	0.0056546354
172	0x3daa593b	0.083178006
173	0x3d1d9f81	0.038482193
174	0xbc7fdc39	-0.01561647
175	0xbb460098	-0.0030212756
176	0xbc7bb96e	-0.015364034
177	0xbc7cfe46	-0.015441483
178	0xbc7eae2c	-0.0155444555
179	0xbc6ce8aa	-0.014459768
180	0xbbb1e502	-0.005428911
181	0xbc7ea8db	-0.015543188
182	0x3addd70b	0.001692505
183	0x3c79e028	0.015251197
184	0x3b13b403	0.0022537715
185	0x3c809ee5	0.015700767
186	0xbba77770	-0.0051106736
187	0x3ae49ba1	0.00174414
188	0x3c764bf7	0.01503276
189	0x3c8005b8	0.015627727
190	0x3c8037d3	0.015651619
191	0x3c91e8f3	0.017811274
192	0xbba19b5a	-0.0049318494
193	0x3b9ddcf4	0.0048175994
194	0x3c7669be	0.015039859
195	0x3c4f0475	0.01263534
196	0xbb788de2	-0.0037926366
197	0x3ba6eeb2	0.0050943727
198	0x3c7f08c4	0.015566055
199	0x3c7ee314	0.015557069
200	0xba620eeb	-0.0008623439
201	0xba8dc0f3	-0.001081495
202	0x3c79b436	0.01524072
203	0xbc745c94	-0.0149146505
204	0xbc670a8f	-0.014101638
205	0x3c7fbe75	0.015609373
206	0x3bb6d210	0.0055792406
207	0xbaf18495	-0.0018426353
208	0xbbdaff8e	-0.0066832965
209	0x3bc509da	0.0060131373
210	0xbc16b5ed	-0.009198648
211	0xbc7e275f	-0.0155123165
212	0x3c7bc2e0	0.015366286
213	0x3c802029	0.015640335
214	0xbc801a4d	-0.015637541
215	0xbc7d6ad0	-0.015467361
216	0xbc5b885b	-0.013399209
217	0xbc2d967a	-0.010594958
218	0xbc7999b9	-0.015234404
219	0xbc808b13	-0.015691316
220	0xbc7ff2d1	-0.015621857
221	0x3c802d42	0.01564658
222	0xbb977ec3	-0.0046232655
223	0xbc7becf1	-0.015376315
224	0xbc75d0b8	-0.015003376
225	0x3c770e77	0.015079132
226	0x3c0d5b8b	0.008627783
227	0xbc75708e	-0.014980448
228	0x3c1d8e5c	0.009616461
229	0x3bf74503	0.0075460686
230	0xbc7f611e	-0.015587119
231	0xbc6d79d1	-0.014494375
232	0x3c809091	0.015693935
233	0x3c7f06ef	0.015565618
234	0xbc809df6	-0.015700322
235	0xbc812bb3	-0.015767908
236	0x3c7f017d	0.01556432
237	0x3c77affa	0.01511764
238	0xbc79b5d3	-0.015241104
239	0xbc2debf4	-0.010615338
240	0xbc7a3864	-0.015272234
241	0x3b1e4dce	0.0024155262
242	0x3c03bcde	0.008040635
243	0x3c958a59	0.018254446
244	0x3c8013cc	0.01563444
245	0xbaafd879	-0.0013415954
246	0xbc80aea5	-0.015708277
247	0xbc7a9276	-0.015293708
248	0x3c27c3ca	0.010239551
249	0x3c8d63f1	0.01725957
250	0x3cad7901	0.021175863
251	0x3ca925cf	0.020647911
252	0x3c7b362b	0.015332739
253	0x3c5b2dcc	0.013377618
254	0x3c234110	0.009964243
255	0xbc7f39cf	-0.0155777475
