MNIST/00:01:38:Apr-26-23/network_0.9109833333333334.pt (torch, 54475 bytes, 4 tensors)

blocks.0.synapse.weight f4 [16, 1, 5, 5, 1]
000000 af 2b 07 be 45 98 23 3b ac 4e 12 be 07 10 32 be
       -0.13200258 0.0024962586 -0.14287823 -0.17388926
000010 d6 4c cd bd 22 e4 99 3d 55 43 29 be 4c 17 79 3d
       -0.10024421 0.07514216 -0.16529591 0.060813233
000020 b5 21 be bd 40 ec 6a bd 1c fe 12 3e 81 17 2b bd
       -0.09283773 -0.05735421 0.14354748 -0.041770462
000030 7f c9 f9 bc b6 e5 10 3e 87 61 18 be 98 a4 35 3e
       -0.030491589 0.14150128 -0.14880954 0.17738569
000040 98 d5 23 3e 2c 20 22 bd 37 c8 18 3e fa 56 3f 3e
       0.15999448 -0.039581463 0.14920126 0.18685523
000050 37 f9 5c 3d 86 be 3b 3e 36 3c 9c 3d 96 51 09 3e
       0.053948607 0.18334398 0.07628672 0.13410029
000060 dc a5 de bc 74 9c 84 3e 64 3c 08 3e 76 91 21 3c
       -0.027178697 0.25900614 0.13304287 0.009861341
000070 4e 18 57 3e 25 db 07 be 25 a3 bd bd 65 c1 69 3e
       0.21005365 -0.13267191 -0.09259633 0.2282768
000080 63 bb 01 bd f6 f3 aa 3c f6 04 72 b9 45 ff 35 bd
       -0.031672847 0.020868283 -0.00023080767 -0.044432897
000090 a6 ec ee 3d 2a 77 f1 3d 06 1b 3f be 7b 53 32 be
       0.11666231 0.11790307 -0.18662652 -0.17414658
0000a0 64 5e 35 be f6 c4 19 be 01 51 40 bd 9e 3f d4 bd
       -0.17711788 -0.15016541 -0.04695225 -0.103636965
0000b0 de ed 7e bd 5e 9e f5 bd 55 c1 53 be 98 50 7b 3c
       -0.062238567 -0.11993097 -0.20679219 0.015339039
0000c0 b9 9d 88 be ab 84 c0 bc 22 2a 6a 3e b8 e6 da 3d
       -0.26682833 -0.023500761 0.22867635 0.10688537
0000d0 53 a1 a0 bd 70 14 0d be 2a 7d b9 bd 0d b6 0d 3d
       -0.0784327 -0.13777328 -0.09057076 0.034597445
0000e0 75 b9 b8 bd 24 4e 1a 3e df 16 68 be 11 17 13 bc
       -0.09019748 0.15068871 -0.22664975 -0.008977667
0000f0 10 63 cf 3d 70 71 e5 3d d3 be 82 bb 4c e2 10 be
       0.101263165 0.11203277 -0.003990033 -0.14148825
000100 1e 54 23 be f2 6d 09 3e 5b f9 9c bd 74 69 9b bc
       -0.15950057 0.13420847 -0.07664748 -0.018971182
000110 2f 6b aa bd 1d c2 a5 bd 9b 57 8d 3e 31 9d 8e bd
       -0.08321225 -0.08093665 0.276059 -0.06963576
000120 c6 63 b2 3d 7e f7 c3 3d 43 41 19 be 3e ae ea bd
       0.087104365 0.0956869 -0.14966302 -0.11459015
000130 46 6f 49 3e 4c 06 35 3e 3f 78 0e 3e d5 ea 0c be
       0.19671354 0.17678183 0.13913058 -0.13761456
000140 c7 5c 5e 3e 13 b9 9f bd 82 5a 09 3e 4e ff ba bd
       0.21715079 -0.07798972 0.13413432 -0.09130727
000150 78 dc 4a be f1 3b 32 bb 4d 31 03 be ad 05 82 be
       -0.19810665 -0.0027196372 -0.12811776 -0.25394955
000160 8c 15 65 be 90 08 75 be ae 50 19 be db 11 15 be
       -0.223715 -0.23929048 -0.14972183 -0.14557593
000170 b2 20 4d be 40 11 09 bd d3 8e 50 bd c1 77 a2 3d
       -0.20032004 -0.033463717 -0.050917458 0.079329975
000180 fa 60 b5 3a ea 39 ba 3d a6 c7 b4 3d 53 d3 9e 3d
       0.0013838105 0.090930775 0.088271424 0.07755151
000190 64 4d a3 bd 54 33 4b be 20 42 7f 3d c3 d2 06 be
       -0.079737455 -0.19843799 0.06231892 -0.13166337
0001a0 57 6d 03 3e 14 47 68 bd 28 5a 3b be b4 ad 94 be
       0.12834679 -0.05670841 -0.1829611 -0.29038775
0001b0 70 65 86 be b1 df 71 be f9 03 6c 3d cc 9b 0e 3e
       -0.26249266 -0.23620488 0.057620976 0.1392662
0001c0 1f 0e d7 bd 87 f2 98 3d 82 b2 0f 3d 48 39 82 bc
       -0.1050074 0.074681334 0.035082348 -0.015896454
0001d0 90 4e 83 bd e5 0f 87 bc 9a 0a 07 3d fe dd 33 3d
       -0.06411469 -0.016487071 0.032969095 0.04391288
0001e0 e7 b5 c8 3d ce e4 c8 3d f3 81 08 bd 08 9e 2b 3e
       0.0980032 0.09809266 -0.033327054 0.16759503
0001f0 95 4d 92 3e 25 df a9 3d 13 12 91 bd 7e 71 35 3d
       0.28574815 0.082945146 -0.070835255 0.044297688
000200 8e 71 c0 bd 7c 9e e0 3d 5a 97 50 3e f9 fb 84 3e
       -0.09396659 0.109677285 0.20370236 0.2597349
000210 4e 1a 27 3d 6d ba 82 3c 2a b1 11 3e 55 62 52 bd
       0.04079657 0.015958035 0.14227739 -0.051363308
000220 dc a0 4a 3d ac e8 57 3d e3 90 06 3e 2d 40 6c bd
       0.049469814 0.052712128 0.13141207 -0.05767839
000230 00 9f 4b be b3 bc 42 be 15 0d 2c bd d3 18 47 bd
       -0.19884872 -0.19017296 -0.042004663 -0.04860766
000240 d8 a8 83 3d 18 37 44 be cf 8c 0b be be bb 38 bd
       0.06428689 -0.19161642 -0.13627933 -0.04510092
000250 8b 26 84 3d cd c8 cc bd 93 31 50 be bf 29 be 3d
       0.06452664 -0.09999237 -0.20331411 0.09285306
000260 11 20 57 be 70 4a 60 be 38 e2 25 3e a5 d4 c4 bd
       -0.21008326 -0.21903396 0.16199577 -0.09610871
000270 73 bc a2 3d 83 13 69 bd 5b 48 db 3d 34 16 df 3d
       0.079461 -0.056903373 0.1070716 0.10892907
000280 bc 3b 85 bd e4 90 77 bc 3c e2 34 be bf 36 3d 3e
       -0.06505534 -0.015110228 -0.17664427 0.18477915
000290 ec d4 5e 3e 91 65 ca 3d 29 28 97 bd c5 1a 1b 3d
       0.21760911 0.098826535 -0.07380707 0.037867326
0002a0 8c b7 b2 3c 82 61 9a 3d 47 71 b5 3d ee 89 3a 3d
       0.021816038 0.075381294 0.088594966 0.045541696
0002b0 10 d5 d7 bd 1d f7 2f 3e 43 76 bb 3d 3f dd fe 3d
       -0.10538685 0.1718411 0.09153416 0.12444543
0002c0 ea f8 24 be 22 15 49 bd c2 b2 e2 bd 3a 4b a0 3d
       -0.16110578 -0.04909242 -0.110692516 0.07826848
0002d0 bc 18 7f 3d b3 5a 2c bd 47 c5 49 bd a6 08 17 bd
       0.062279448 -0.042078685 -0.049260404 -0.036873482
0002e0 c3 e9 d1 3d c2 ba 3f bd 1c fe 1f be 1b 1b 01 3e
       0.10249665 -0.046808966 -0.15624279 0.12607996
0002f0 3b 4b 30 3e bf 2f 70 bc 62 86 2f bc 2e 0d b6 3c
       0.17216198 -0.014659821 -0.010713192 0.022223081
000300 74 4c b0 3d ad dd bb 3d e5 57 85 3c 0d dc 15 3e
       0.08608332 0.09173141 0.016277263 0.14634724
000310 e5 3f a3 3d 90 72 42 3e 80 19 07 be 18 c6 7d bd
       0.07971171 0.18989015 -0.13193321 -0.061956495
000320 f6 c2 e1 3d e8 f2 f2 bc ff ce 34 3e 98 1e 5c bc
       0.11023514 -0.029656842 0.17657088 -0.0134350285
000330 2a 80 36 3e 30 92 b2 3a 35 04 2c 3e 16 d7 1e 3e
       0.17822328 0.001362389 0.1679848 0.15511736
000340 4a 34 df bd 76 7b d8 bd 97 aa cf bd 6a da b2 3d
       -0.10898645 -0.10570423 -0.10139959 0.087330654
000350 c5 d3 7c be 76 06 80 bd 1e fc 6b bd 3e d5 93 3d
       -0.24690159 -0.06251232 -0.057613485 0.07218407
000360 6b 12 68 be b0 15 58 be 95 1e 04 be 41 6b 0d 3e
       -0.22663276 -0.21102023 -0.12902291 0.13810445
000370 7c cd 6e bd 28 7a df 3b 06 65 f7 3d a9 32 a7 3d
       -0.058301434 0.006819982 0.120798156 0.081639595
000380 be 86 da bb 96 b3 ee 3c a2 5e 09 be 7a 7e a2 3d
       -0.0066688946 0.029138368 -0.13415006 0.0793428
000390 4d 36 9f 3d b5 21 e9 3d 88 bc 4e bc ba 0d 24 3e
       0.07774029 0.11383382 -0.012618192 0.16020861
0003a0 56 05 1d 3e 83 ce ac bc b4 4d 3b 3e 33 87 0f be
       0.15334067 -0.021094566 0.1829136 -0.14016418
0003b0 42 07 62 3c ac 8a 30 3e 04 92 dd bd f5 b1 cc bc
       0.013795676 0.17240399 -0.10818866 -0.0249872
0003c0 e7 8b 6b bc 10 3a 94 bd 61 a5 80 3d c5 4e d0 3d
       -0.014376617 -0.07237637 0.062815435 0.10171274
0003d0 4d de 06 3d 99 45 f0 bc c2 60 7f be 9d 78 3f be
       0.032926846 -0.029330062 -0.24939254 -0.18698354
0003e0 21 61 26 be eb 38 1f 3e f3 87 0d be a9 56 08 3c
       -0.16247989 0.15549056 -0.13821392 0.008321443
0003f0 22 a5 cd bd 71 75 a2 3d af 2a 87 bd 3a 49 09 be
       -0.10041262 0.079325564 -0.06599938 -0.1340684

blocks.1.synapse.weight f4 [32, 16, 3, 3, 1]
000000 1e 34 bb bd 32 81 3d bd 92 ad 6a bd d3 56 41 3d
       -0.091408 -0.04626579 -0.057294436 0.047201943
000010 45 4c a5 bc 71 49 f3 bd 92 56 c8 bb 49 ea a9 bd
       -0.02017797 -0.11879242 -0.0061138356 -0.082966395
000020 66 4a 57 bd 29 ac 13 bd 4f 33 d7 bd 8f 36 8a bd
       -0.052561186 -0.036052857 -0.10507833 -0.067486875
000030 3b 86 db bc c7 36 84 bd fe f3 a7 bd 84 c8 48 3d
       -0.026797405 -0.064557604 -0.08200835 0.04901935
000040 ec c7 5c bd d6 74 64 bd ba 93 32 3d 16 d0 0a 3d
       -0.053901598 -0.055775486 0.043597914 0.033889852
000050 1d d1 2e bd cd 7e 04 3b 80 63 8c bb 1e ec 66 bc
       -0.042679895 0.002021718 -0.0042843223 -0.014094381
000060 03 e2 7f bc 16 a0 c9 3c 73 94 82 3c 06 6d 29 bd
       -0.01561785 0.024612468 0.015939927 -0.04136374
000070 f1 9d 35 bd aa b6 47 be 87 70 fc bc cf a6 be bd
       -0.044340078 -0.19503275 -0.030815376 -0.0930916
000080 bb 7f 1f 3d 3d e1 e9 3d f2 da 8d bb 15 95 9e bc
       0.038940173 0.11419914 -0.004329079 -0.019358197
000090 cc 9b d8 bc 8a 2f 9a bd 20 19 1b be 6d f8 14 3c
       -0.026441477 -0.075285986 -0.15146303 0.009092432
0000a0 f8 e4 f8 bc 9d ff 8f be 56 5a c3 bd 2a 18 40 be
       -0.030382618 -0.28124705 -0.095387146 -0.18759218
0000b0 db 79 aa bd f6 61 ab 3d 31 c8 9e 3d 59 b8 db bd
       -0.08324023 0.08368294 0.07753027 -0.10728521
0000c0 c6 e3 cd bd 38 5e 29 bd 89 df 9c bd c2 90 9a 3c
       -0.1005321 -0.04134962 -0.076598234 0.018867854
0000d0 79 fc 4e bb 03 b1 2d bc 72 71 9f bd 95 98 0e bd
       -0.003158359 -0.010601285 -0.0778531 -0.034813482
0000e0 8e b8 58 bd 82 bc a3 3d f1 3a 9b 3d 57 10 84 bc
       -0.05291038 0.079949394 0.075796016 -0.016121073
0000f0 e0 67 98 3b 1d 3d 80 3d fc 4a 8d bd 88 23 81 3b
       0.0046510547 0.062616564 -0.06899068 0.0039410032
000100 0c 1a 32 bc e9 a2 8b 3c e6 eb 44 3d 0f 8e 3e 3d
       -0.010870468 0.017045455 0.048076533 0.046522196
000110 1f 36 0b 3b 54 72 6c bc 62 df 38 3d aa b6 3a 3d
       0.0021241975 -0.014431555 0.04513491 0.04558436
000120 f1 4c 89 3d a3 03 c6 3c 86 70 02 be 6e 36 0b 3d
       0.067041285 0.024171656 -0.12738237 0.033987455
000130 01 43 9d bd 01 b0 ae 3c b4 29 74 3d bd 31 9d bc
       -0.076787956 0.02132416 0.059610084 -0.019188756
000140 54 ad 3a bb 6e 1b 92 3d 99 16 48 bd f9 5c af bd
       -0.002848466 0.07134138 -0.048849676 -0.08562655
000150 38 c9 ca bd 13 41 bc bd a9 df d9 bc d4 b2 39 3c
       -0.09901661 -0.091920994 -0.026595907 0.01133414
000160 b9 b8 d3 3c 1d d2 71 bd 72 3b 95 3c 9e 07 85 3d
       0.025844919 -0.05903827 0.018216822 0.064955935
000170 62 ee 45 bd e3 eb 47 bb 7a ee fb bc 58 45 86 bd
       -0.048323043 -0.003050559 -0.030753363 -0.06556195
000180 59 86 db 3c 0c 76 bc bc f5 92 73 3c a0 30 ad 3d
       0.02679746 -0.023005508 0.01486658 0.0845654
000190 e7 da 8c 3d 06 5f 8a bd d8 69 3f bd 02 5a e3 3b
       0.0687769 -0.067564055 -0.0467318 0.00693822
0001a0 8e 3a 03 be 54 9b a3 bd 8f f5 58 3d 39 60 0b bd
       -0.12815306 -0.07988611 0.052968558 -0.034027312
0001b0 07 0d 46 3c b4 cb b9 bd 60 19 a1 bd 45 d5 74 bd
       0.012088067 -0.090720564 -0.07866168 -0.059773702
0001c0 e4 65 81 bd 0b b3 8e 3c 3b c0 e4 ba 42 45 34 bd
       -0.06318262 0.017419359 -0.0017452309 -0.044011362
0001d0 06 28 79 3d 4d 2e 2c bd 2c 85 b7 bc ad 0c 25 bd
       0.060829185 -0.042036343 -0.022402368 -0.04029529
0001e0 8f 19 ed 3b 25 1d d1 bc d7 95 c2 3b 64 ad fd 3c
       0.007235713 -0.025526593 0.0059382725 0.030966468
0001f0 fc 71 bd bb 12 23 0e be ba 6a 82 bc c3 de 84 3b
       -0.0057814103 -0.13880566 -0.015920032 0.0040548756
000200 2a a6 0f bd 3a 52 42 3d d4 26 91 3d 14 a8 10 bd
       -0.035070576 0.0474417 0.07087484 -0.03531654
000210 bb 0c 8a 3d 17 cb 31 bd ec 6f 05 bd 42 4e a2 bc
       0.067407094 -0.043406572 -0.03257744 -0.019812707
000220 84 a2 dd bd 1e 05 cf bd d7 9d 89 3c 4f 1d ca bd
       -0.10822013 -0.10108398 0.016798897 -0.098688714
000230 ad 99 63 be 04 e0 0f be 6f f5 04 be 0d ae 56 bd
       -0.22226591 -0.14050299 -0.1298425 -0.05241208
000240 9c b6 36 bd de 84 f9 bc d3 3b 40 bd 62 25 a9 3c
       -0.044607744 -0.030458864 -0.046932053 0.020647708
000250 a5 37 a1 3c 20 42 43 bc a2 93 c8 bc 39 9f 00 3c
       0.019679854 -0.011917621 -0.02448446 0.007850462
000260 0f 4f 9f bb 19 e3 bf 3c 3c 3f 7e bd 51 89 92 3c
       -0.0048617194 0.023423718 -0.062072024 0.017887743
000270 5c d6 ff ba fe 9c 43 bd 6a d7 93 3b a2 db ba 3c
       -0.001951884 -0.04775714 0.0045117633 0.022809807
000280 81 ba 18 bd 3e 94 18 3d e4 e4 3c 3d 06 40 a0 3d
       -0.03728724 0.03725075 0.046116725 0.078247115
000290 d1 75 7e 3d 2d 95 72 bd 36 9f 82 bc 9d ea da bd
       0.062124077 -0.059224296 -0.015945058 -0.1068928
0002a0 ed dc d2 3c 83 85 f2 bd 04 8a 7e bc b6 d0 cc bc
       0.025740111 -0.118418716 -0.015535835 -0.025001865
0002b0 47 30 26 bd b2 f3 d7 bd 65 8f 35 bd dc 5c 87 3d
       -0.040573385 -0.10544528 -0.044326205 0.066095084
0002c0 f2 35 8c 3c 94 b6 5d 3d fa 67 0c 3c cd d7 05 bd
       0.017115567 0.0541292 0.008569712 -0.032676507
0002d0 24 b4 ff bb ab 70 9c bd 51 8c ca bd 91 89 d1 bd
       -0.007803457 -0.07638677 -0.098900445 -0.10231317
0002e0 4e 44 45 bc cf b5 4c bd e4 65 40 bc 2c 48 90 3c
       -0.012040211 -0.049978074 -0.011743043 0.01761254
0002f0 9f eb 37 3d 14 6a 41 3d 4d 5a 49 bd 56 21 85 bd
       0.04490244 0.047220305 -0.049158383 -0.06500499
000300 6b d2 61 bc 25 e5 4d bc 51 2f 82 3b 67 fa cd 3a
       -0.013783078 -0.012566839 0.0039729257 0.0015714885
000310 43 a3 2f 3d 2a 50 98 3d 78 a8 24 bd a5 a5 40 3c
       0.042880308 0.07437165 -0.040199727 0.011758243
000320 2c 7b 82 bc ac 7d 07 3d ab 04 11 3c 9f d3 f7 3c
       -0.015927874 0.033078834 0.008851211 0.030252276
000330 1e 16 89 bd c9 7d 91 bd 4c 6f 9f bd dd b6 4e 39
       -0.06693672 -0.0710407 -0.077849 0.00019713813
000340 28 4c 40 3c 7a 2c d8 3c c2 24 45 bd 71 04 b7 bd
       0.011736907 0.026388396 -0.048130758 -0.08936394
000350 d0 45 88 3b 1a 9f 7f bc d5 ac 7c ba c6 e4 63 bc
       0.004158713 -0.015601898 -0.0009638791 -0.013909524
000360 08 25 29 bd 51 7f 2e bc c4 20 a4 3c d0 17 75 3d
       -0.04129508 -0.010650472 0.020035155 0.059837162
000370 89 95 1b bd 78 80 0e 3d dc 6e a0 bb 59 20 8d bd
       -0.037984405 0.034790486 -0.004896028 -0.068909355
000380 de f5 3e 3d d2 2f 26 3d c9 91 03 bc 9d ab 2a bc
       0.046621196 0.04057295 -0.008030363 -0.010416892
000390 82 84 9a bc 6c 50 3d 3d f8 76 20 bd cc 01 68 bd
       -0.018862013 0.046219274 -0.039175957 -0.05664234
0003a0 9b 46 7d bd 8f 1c 60 3c 14 7e 07 3c 25 db 04 bd
       -0.061834913 0.013678684 0.008269805 -0.032435555
0003b0 33 1c 4f bd 49 37 08 3c b8 ce 9c 3c 0d c2 a2 3d
       -0.050564002 0.008313962 0.01914154 0.079471685
0003c0 7d c2 4c 3d 7d 77 d9 3b 8b de e4 3c 7c e7 63 3c
       0.049990166 0.0066365586 0.027938148 0.013910171
0003d0 00 1f 9f 3c 60 fa 01 3d ba fd 77 38 a6 91 4e bc
       0.019423962 0.031732917 5.912569e-05 -0.0126079675
0003e0 b7 a7 62 bc 33 e0 ed 3c 2d fa 58 bd a3 9d 54 3b
       -0.013833932 0.02903757 -0.05297296 0.0032442592
0003f0 07 0a 59 3c 90 ce 09 bc ec 3b 3f 3d bf 7c 37 3d
       0.01324702 -0.008411065 0.046688005 0.0447967

blocks.2.synapse.weight f4 [8, 32, 3, 3, 1]
000000 2d 78 3a bd b3 a5 7b 3c 38 4e 75 3c dd 50 40 bd
       -0.045524765 0.01535933 0.014972262 -0.046952117
000010 9c 5a a5 bc 62 a5 e4 bb ae 34 b8 bc 7d dd 28 bc
       -0.020184807 -0.006977723 -0.022486057 -0.010306713
000020 b5 3f f7 bb ba 2a 34 bc b4 9a 7d bc c9 00 75 bc
       -0.0075454363 -0.010996515 -0.015478779 -0.0149538005
000030 23 1e b6 3b 16 08 77 3c 82 9f 71 3c 72 3b 76 bc
       0.005557792 0.015077611 0.014747502 -0.015028821
000040 e7 fc d3 3b 10 d8 6e 3c 6a e8 bc 3b cb b6 a2 3c
       0.0064693573 0.0145778805 0.0057650106 0.019862553
000050 86 12 8c 3c 60 47 cc 3c fc d3 92 bb c3 e8 34 bc
       0.017098676 0.024936378 -0.004480837 -0.011041823
000060 17 a0 1f 3c d2 e4 a0 3c 38 8b 64 3c 64 d6 7a 3c
       0.009742758 0.01964036 0.013949208 0.015309904
000070 2b 9d 48 3c f8 05 95 ba c5 17 90 bc e1 3e a9 3b
       0.012244503 -0.0011369577 -0.01758946 0.0051649665
000080 ba 76 87 3c b3 c2 80 3c b7 23 82 3c 17 b5 80 3c
       0.016536105 0.01571784 0.01588617 0.01571135
000090 71 92 6e 3c 43 ad 74 3c e7 9e 36 3c ba a1 63 3c
       0.014561282 0.014933887 0.011146284 0.013893539
0000a0 06 56 63 3c da ec 1d 3c cd c4 72 3c 1f 96 62 bb
       0.01387549 0.009638989 0.014817429 -0.0034574342
0000b0 08 9b 40 3c 7b 08 3e 3d af dc 82 3c 68 82 9e 3c
       0.011755712 0.046394806 0.01597437 0.019349292
0000c0 eb 0e 8b 3c a8 bc 0c 3d bf d4 54 3c 8e e9 89 3c
       0.016974887 0.034359604 0.012990176 0.016835
0000d0 86 57 83 3c 53 cc d0 b9 00 0d b1 bb 8d c9 d4 bc
       0.016032945 -0.00039825085 -0.005403161 -0.025975013
0000e0 00 fc 42 3c 4c 90 49 bd d5 2b 94 bd 68 36 88 bd
       0.011900902 -0.049209878 -0.07234923 -0.06651002
0000f0 03 66 0f bd fc a1 96 bd cb 2b 6d bc 01 34 10 39
       -0.035009395 -0.07355115 -0.014475773 0.00013752283
000100 42 81 75 3c 8a 3b 87 bb 12 e8 5f 3c 34 11 8d bc
       0.014984431 -0.0041269707 0.01366617 -0.017220117
000110 f3 96 8a bc 44 86 99 3c b9 02 a0 3b 52 4a 78 3c
       -0.016917681 0.01874078 0.004883137 0.015154438
000120 07 45 7f 3c 1b 08 f2 3c 43 e5 85 bc 69 dd 9b 3a
       0.015580422 0.02954488 -0.016344672 0.0011891547
000130 3e a0 98 3b bc 86 96 bb 2b e4 76 bb ed 29 0b bc
       0.004657774 -0.0045936983 -0.003767262 -0.008493883
000140 8f 49 34 bb 67 ba 56 3c 77 09 a0 bc 14 66 72 3c
       -0.0027509665 0.013105965 -0.019535763 0.014794845
000150 1c 67 88 bc c5 4a b7 bc 16 a6 86 bc 14 d0 7f bc
       -0.016650729 -0.02237452 -0.016436618 -0.015613575
000160 d0 7f 76 bc 03 01 89 bc 5e 32 66 3c d2 62 ee 3a
       -0.015045121 -0.016724115 0.014050094 0.001818741
000170 b2 3b 64 bc 8d 5c 3b bd 4a 9d 9f bc 24 12 86 3c
       -0.013930248 -0.04574256 -0.019484181 0.016366072
000180 71 2c 7b bc b0 5e 1b 3c 7a a0 80 3c 9d 11 82 3c
       -0.01533042 0.0094830245 0.015701521 0.01587754
000190 82 7e a1 3c 72 61 86 3c 28 38 85 3c 51 fa 55 bc
       0.019713644 0.016403887 0.016262129 -0.013060168
0001a0 87 bb 81 bc 61 4f 84 bd 1f 2f 8c bc 2c 76 54 bd
       -0.01583649 -0.06460453 -0.017112313 -0.05187051
0001b0 ac a9 bb 3b 2f 45 2f 3b c2 26 6d 3c 42 b3 77 3c
       0.0057270136 0.0026744117 0.014474573 0.015118422
0001c0 c7 0f 80 3a f3 2a 2f 3d 41 e9 41 bb 68 50 71 3c
       0.0009770327 0.04276557 -0.0029588493 0.014728643
0001d0 7a e0 7d 3c 26 8c ff bc 6b 80 a8 bb 36 24 06 3c
       0.015495414 -0.031194758 -0.0051422617 0.008187344
0001e0 83 f3 2e bc bb 74 3b 3c e8 3d 1f 3d a4 bb 1a 3d
       -0.010678175 0.011441405 0.038877398 0.037776604
0001f0 5e 77 8f 3b 51 1a 1b 3c f2 5f 7c 3c 50 95 53 3c
       0.0043782433 0.009466724 0.0154037345 0.012914017
000200 59 10 0e bc 83 71 75 3c ba e1 53 3c 89 aa 81 bc
       -0.00867089 0.014980677 0.012932235 -0.015828388
000210 e7 05 9a 3b 3d 47 0f bc 2a 0e 4e bc 88 c9 5d 3c
       0.0047004106 -0.008745012 -0.012576619 0.013536818
000220 0c 46 7f 3c a2 65 10 bc 78 d6 1c bc 04 48 28 bb
       0.015580665 -0.008813294 -0.009572618 -0.002567769
000230 55 18 6f bc d9 bf 68 bc 3a 79 97 bc 09 83 84 bc
       -0.014593204 -0.014205896 -0.018490423 -0.016175764
000240 52 ef a7 bc 7a 7c 7d bc 43 04 e8 3a 5e 31 40 3d
       -0.020499859 -0.015471572 0.0017701465 0.04692208
000250 be e4 18 3d 34 53 81 3c 5a d0 c9 3c 80 bf 92 3c
       0.03732752 0.015786745 0.024635483 0.01791358
000260 1b c1 78 3c aa e6 82 3c 95 7b d1 3c f4 01 33 3d
       0.015182759 0.01597913 0.025571624 0.043703035
000270 70 a5 87 3c 58 a9 76 3c 60 40 81 3c f7 76 81 3c
       0.016558379 0.015055023 0.015777767 0.015803797
000280 d6 b1 00 3c a2 e9 90 3c 04 06 2a 3c e3 09 a4 3b
       0.007854899 0.01768953 0.010377411 0.0050060614
000290 a1 f2 d4 bb 72 62 77 3c 27 c8 82 bc 0d e4 b5 3a
       -0.00649865 0.015099155 -0.01596458 0.0013877169
0002a0 bb 49 80 3c f8 79 3f bc 25 08 1e bd 7d fa 63 3c
       0.015660157 -0.011686794 -0.038581986 0.0139147015
0002b0 0a 26 67 3c e3 a3 8a 3c a8 54 15 bc 75 a1 b3 3c
       0.01410819 0.01692385 -0.009114422 0.021927575
0002c0 f2 83 f3 3c 26 4d e8 3b 42 7d 01 3d a3 17 5c 3c
       0.029726002 0.007089275 0.031613596 0.01343337
0002d0 7c e9 85 3b 3b ea 35 3c 77 7f 4c bc 28 74 5d 3c
       0.0040866714 0.011103208 -0.012481562 0.013516463
0002e0 0b 62 f7 ba 24 06 75 b9 58 e0 4b bd 79 a5 e0 bc
       -0.0018873824 -0.00023367308 -0.049774498 -0.027422654
0002f0 fc ab 50 3c 35 34 81 bc d2 27 73 3c 69 5f 1a 3d
       0.012736317 -0.015771965 0.014841037 0.037688646
000300 89 d9 b2 3b 04 1e b1 3c e5 56 9b 3c 58 00 70 3c
       0.005458061 0.021620758 0.018962333 0.014648519
000310 33 fa 8d 3c 68 9f 7c 3c a2 3c 5c 3c 5c 38 a9 3b
       0.017331218 0.015418865 0.01344219 0.0051641893
000320 8e 02 1d 3d 2a b7 f0 bb 0a ee 6c bc 25 bc 85 3c
       0.038332514 -0.0073460536 -0.01446105 0.016325066
000330 17 83 48 bd 40 52 f9 bc d3 f2 84 3c 3e d7 ad 39
       -0.048953142 -0.030434728 0.016229069 0.000331575
000340 51 e6 2c 3d 11 17 64 bd 6a 12 2d bd d3 df bb bc
       0.042211834 -0.05568606 -0.04225389 -0.022933876
000350 ef 75 00 bd 19 c8 7e bd cc 9f 77 bd e7 31 c7 3c
       -0.03136247 -0.062202547 -0.06045513 0.024315787
000360 20 95 da 3b eb 38 80 3c c5 ec 31 3d 8a ae 3a bb
       0.006670609 0.01565214 0.04343869 -0.002848538
000370 15 3b 75 bc 47 c6 8f 3c e4 83 97 3b 48 8c 7d bc
       -0.0149677 0.0175506 0.004623877 -0.01547534
000380 7a f2 19 bb 06 11 06 3c 61 0a 5b bd 4e 28 b8 bc
       -0.0023490475 0.00818277 -0.053476695 -0.022480156
000390 bd ea 66 3c a9 38 46 3c be e2 a0 ba 76 ad 04 3b
       0.014094052 0.01209847 -0.0012274606 0.0020244992
0003a0 e9 f1 3a bc f9 e6 bf 3b 74 7e f0 bd ea 30 7d bd
       -0.011410215 0.0058563915 -0.11742869 -0.061814226
0003b0 c0 da 8f 3c 9a ab e7 bd 16 1f 5c bd 4f fd b6 bc
       0.017560363 -0.11312027 -0.053740583 -0.022337584
0003c0 31 d0 76 bd d7 14 9e bc 6f 80 a3 bc d0 45 14 3c
       -0.06025714 -0.019297047 -0.019958703 0.009049848
0003d0 ba 26 0e bd ec c9 72 3c 28 18 7d 3c 4c e8 6b 3c
       -0.0347049 0.01481865 0.015447654 0.014398646
0003e0 5a 36 79 3c 80 17 74 3c 44 78 6a 3c f0 7d 7f 3c
       0.015210712 0.014898181 0.0143109 0.015593991
0003f0 09 0b c2 bb 37 75 7f bc de e7 1c 3c b8 8f 81 3c
       -0.0059217256 -0.015591911 0.009576766 0.0158156

blocks.4.synapse.weight f4 [10, 512, 1, 1, 1]
000000 27 6d 20 3c bd 61 fd 3a 13 93 65 bc 87 0c 2c bc
       0.009791649 0.0019331496 -0.014012116 -0.010501034
000010 e2 fb 72 3c 6b 5d 61 3c bf e8 50 3a 53 29 6f bc
       0.014830561 0.013755183 0.0007969252 -0.014597255
000020 ef 00 3b 3b b1 70 1d 3c 7f c2 dc 3b 1b 49 70 3c
       0.0028534492 0.009609387 0.006737053 0.014665867
000030 37 a1 60 3c 44 05 27 3c 69 3e 84 3a 3d a5 71 bc
       0.013710312 0.0101941265 0.00100894 -0.0147488685
000040 42 24 55 3c 19 d8 72 3c 2f b6 4c bc 8b 1b 6a bc
       0.013009133 0.0148220295 -0.012494608 -0.014288793
000050 b8 a2 0c ba 6e 7d 94 3c 31 88 cb bb 19 bd ad bc
       -0.0005364823 0.018126216 -0.0062113036 -0.021208333
000060 63 ac 61 3c 7a 56 b3 3a 8e 4b 82 bc e3 d0 c5 ba
       0.01377401 0.0013682388 -0.015905168 -0.001509216
000070 2f 08 5c 3c df 60 c0 ba f9 67 66 3b 2e 77 85 bc
       0.0134296855 -0.0014677307 0.0035157187 -0.01629218
000080 84 b2 ce 3b ac 98 6e bc cd 43 46 bc 20 1f 6f bc
       0.006307902 -0.014562767 -0.012101126 -0.014594823
000090 bb 90 82 bc ed 92 60 bc 90 0a 2d 3c 25 d7 36 3c
       -0.015938153 -0.013706905 0.0105616 0.011159693
0000a0 c2 79 78 3c 6e d1 84 3c 07 96 cf 3b ea 7d 4e 3c
       0.015165748 0.016213145 0.0063350233 0.012603262
0000b0 86 9a b5 bb 4e 7f 17 bc fb d1 41 bc 0f 7f 4c bb
       -0.0055421023 -0.00924666 -0.011829848 -0.0031203663
0000c0 a5 ca 72 3c 3a 5a 81 3c dc c7 32 3c 83 b7 b6 bb
       0.014818822 0.015790094 0.010911908 -0.0055760755
0000d0 93 3f 05 bc 9f 21 0a bc 04 57 73 3c 26 55 65 3c
       -0.008132833 -0.008430867 0.014852289 0.013997352
0000e0 3f 56 d6 bb 95 1c bd bb 4c 8d 25 bb 2d 7a 85 3c
       -0.006541043 -0.0057712295 -0.0025261221 0.01629361
0000f0 41 d9 b4 3c e8 7d 78 3c e4 8a 71 3c fd 44 8a 3c
       0.022076251 0.015166737 0.014742587 0.0168786
000100 57 12 47 3c 2f d0 8e 3c 95 d3 62 3c 34 ce 35 3c
       0.012150369 0.017433254 0.01384439 0.011096526
000110 6f 6d 4d 3c 00 62 c6 bb 79 25 65 3c 06 ba 84 3c
       0.012538298 -0.006054163 0.013985985 0.016201984
000120 50 49 8d bb 9a a5 a6 3b 8b d3 72 bc 30 4c 83 bc
       -0.004311718 0.005085659 -0.014820944 -0.01602754
000130 af 82 2f bc d3 d8 b8 3b 7c 8d 01 3c 33 0f 62 3c
       -0.01071231 0.005641082 0.007907268 0.013797569
000140 10 ff 85 bc de d5 ea bb 2b a0 3e bb d0 35 1c 3b
       -0.016356975 -0.0071666082 -0.0029087167 0.0023835786
000150 fa 93 49 3c 65 38 f9 bb b9 87 85 bc 3c 55 ec ba
       0.012303347 -0.0076055997 -0.01630007 -0.0018030773
000160 93 b4 60 bc 50 e9 42 3c a5 8c 12 bc 0f b9 a0 3b
       -0.013714927 0.011896446 -0.008944665 0.004904873
000170 cf 5d 71 bc f4 4e fd bb 09 da 91 3c 77 0e c0 bb
       -0.014731838 -0.007730359 0.017804163 -0.0058610993
000180 21 72 84 bc e4 ac ca bb 81 78 84 bc 0a 3a 6a 3a
       -0.016167702 -0.006185161 -0.016170742 0.000893504
000190 ab fd 06 3c 1c bb 61 3c ba b5 4e 3c 0f 0a 08 3c
       0.00823919 0.0137775205 0.012616569 0.008303179
0001a0 22 1f 84 bc 9a 71 e0 bb bf 7f 56 bc 6c fd 0a 3c
       -0.016128127 -0.00684948 -0.0130919805 0.008483272
0001b0 b5 07 fb 3b c9 97 83 bc fb 92 83 bc 05 15 51 3c
       0.007660831 -0.016063588 -0.016061297 0.012761359
0001c0 08 f6 b8 bb 49 5b 25 3c a9 d6 02 3c 98 3e 09 3c
       -0.0056445636 0.010092565 0.007985749 0.00837674
0001d0 d8 13 75 bc f1 c4 fe bb 34 44 37 3c ed 84 7b 3c
       -0.014958344 -0.007774942 0.0111856945 0.015351516
0001e0 40 cc 80 3c 0e 8d 7d 3c f2 e1 75 3c 2c ac 62 3b
       0.015722394 0.015475525 0.015007483 0.0034587486
0001f0 e7 a9 67 3c 5c a0 18 3c a4 80 53 3c 07 55 61 3c
       0.014139629 0.009315576 0.012909088 0.013753182
000200 b9 05 82 3c af a3 84 3c 9c 3f 6f 3c 84 c1 24 3c
       0.01587187 0.016191332 0.014602568 0.010055903
000210 0c ba 33 3c a8 a0 1a bb 4d f3 49 bc ac 04 49 bc
       0.01096965 -0.0023594294 -0.012326074 -0.01226918
000220 9a c1 80 3c 80 81 32 3c ea da e7 3a 63 4d 55 3c
       0.015717316 0.010895133 0.0017689143 0.013018939
000230 92 42 39 b9 c2 06 6c bc 20 2a 83 bc f6 b5 88 bc
       -0.00017667774 -0.014405908 -0.016011298 -0.016688328
000240 b9 f8 16 3c a4 bb bb bb e3 65 82 bc 3c ed 8b bc
       0.009214574 -0.0057291556 -0.015917724 -0.017080896
000250 60 2c 7b bc 51 1d 8c bc 9f c0 89 bc 04 74 66 bc
       -0.015330404 -0.017103823 -0.016815482 -0.014065746
000260 95 86 33 3c 7e 1d d9 bb 2b dc 88 bc fb 5d 7a 3c
       0.01095738 -0.00662583 -0.016706547 0.015281196
000270 a6 5e 82 3c df 50 82 bc b8 54 7f bc c5 36 21 bc
       0.015914273 -0.015907703 -0.015584163 -0.009839718
000280 2e f1 63 3b 0e 45 77 bb 94 46 85 bc 9b 46 80 3c
       0.0034781205 -0.0037730369 -0.016269006 0.015658667
000290 2f af 97 3d 43 b8 2b 3d e1 24 0b bc 19 e0 71 bc
       0.074064605 0.041923773 -0.008492679 -0.014762902
0002a0 b2 5a 93 bc 45 0a cd 3a 2e 3d 7c bc 68 90 d2 3b
       -0.017987583 0.0015643319 -0.015395446 0.006425906
0002b0 8e 14 a2 3d c8 cc 37 3d 2e 26 31 bc 39 bc 1f 3c
       0.07914077 0.04487303 -0.010812325 0.009749466
0002c0 6d 28 78 bc a0 85 7d bc 0f ed 81 bc 00 87 31 bc
       -0.015146357 -0.015473753 -0.015860109 -0.010835409
0002d0 00 32 2a 3a 23 33 28 bc f0 72 11 3c a0 67 77 3c
       0.0006492436 -0.010266098 0.008877501 0.01510039
0002e0 11 89 6d bc 83 db 76 3c fb ce 78 bc 83 60 40 3b
       -0.014498011 0.015066984 -0.015186067 0.00293544
0002f0 e2 6a 69 3c ee eb 7d 3c 95 4b 65 3c 87 75 86 3c
       0.014246674 0.015498145 0.013995071 0.016413463
000300 f6 80 6b 3b 0b 0e 6a 3c 30 56 72 3c f1 f4 71 3c
       0.003593502 0.014285575 0.0147910565 0.014767871
000310 ad 94 49 bc 52 f1 d8 bb 42 01 60 3c 02 ac 84 3c
       -0.0123035135 -0.0066205645 0.013672175 0.016195301
000320 21 59 19 3c ab 22 0e bb c2 f3 b7 3b e1 fa 63 bc
       0.009359629 -0.0021688144 0.005613775 -0.013914795
000330 05 32 00 3b 84 d1 44 3c 22 94 08 3c 42 3a 01 bc
       0.0019561064 0.012012843 0.008336099 -0.007887425
000340 c8 5a 21 bc 56 0d b5 bb ab ae 3a bc e9 88 90 bc
       -0.009848304 -0.0055252714 -0.011394183 -0.017643409
000350 29 68 56 3c b8 16 67 3c 99 03 58 bc a8 4d 7c bc
       0.013086357 0.014104538 -0.0131844515 -0.015399374
000360 37 7e 41 bc 93 7f 50 bc 61 5d 40 bc 6e d5 7c bc
       -0.011809877 -0.012725729 -0.011741013 -0.015431745
000370 76 df 81 bc d1 d1 4a 3c 98 77 85 bb 5c 9c 2b bc
       -0.015853625 0.012379126 -0.0040730946 -0.010474291
000380 af 22 e9 bb 7d e2 3d ba da 32 82 bc 15 5e 7d bc
       -0.0071147303 -0.0007243527 -0.015893389 -0.015464325
000390 32 28 7d 3c 66 1e 74 3c 29 e7 6e bc b4 df 62 bc
       0.015451478 0.014899826 -0.01458148 -0.01384728
0003a0 7e 55 1f 3c 5c 9c 73 3c c3 a0 86 bc f6 e4 80 bc
       0.009724973 0.014868822 -0.016434079 -0.015734177
0003b0 ce 1c 76 3c be 7f 4c 3c 06 68 84 bc 8c 5a 81 bc
       0.015021516 0.012481628 -0.016162883 -0.015790246
0003c0 70 f3 59 bc d9 85 78 3c ca 7a 75 3b be b1 84 3c
       -0.013302669 0.0151686305 0.0037457221 0.016198035
0003d0 20 ca 8a 3c de 64 f6 bb ae 74 80 bc e2 6b ec bb
       0.016942084 -0.0075193485 -0.015680637 -0.007215009
0003e0 d8 57 79 bc ba ad 74 3c 50 44 93 3c 8f c4 85 3c
       -0.0152186975 0.014933998 0.01797691 0.016329078
0003f0 b8 47 79 3c 70 7e 61 3c 16 74 89 bb ed 0e 16 3b
       0.015214853 0.013763055 -0.0041947467 0.002289708
