MNIST/00:01:38:Apr-26-23/network_0.8065833333333333.pt (torch, 54475 bytes, 4 tensors)

blocks.0.synapse.weight f4 [16, 1, 5, 5, 1]
000000 66 81 fe bd 33 55 7b 3c 70 30 07 be ec fe 28 be
       -0.124270245 0.015340137 -0.13202071 -0.16503495
000010 c4 d1 ab bd e5 62 ac 3d c7 8f 24 be 68 a5 92 3d
       -0.08389619 0.084173 -0.16070472 0.07160455
000020 77 2b a2 bd e4 c1 0a bd 7f b8 0d 3e 68 99 61 bd
       -0.079184465 -0.033876315 0.13839911 -0.05507794
000030 6b 0d 08 bd 1d 69 0e 3e 1b ab 14 be 47 3d 2a 3e
       -0.03321592 0.13907285 -0.14518397 0.16624938
000040 d5 f3 19 3e bc c7 30 bd 4e 8b 16 3e fa ed 37 3e
       0.15034421 -0.04315923 0.14701578 0.17961875
000050 37 3a ed 3c e8 0b 39 3e e0 cb 99 3d 3e 5e 15 3e
       0.028958423 0.18070948 0.07509589 0.14586732
000060 46 01 30 bd a8 2d 75 3e 24 7f 01 3e 86 b0 06 bc
       -0.042969964 0.23943198 0.12646157 -0.008220797
000070 49 68 3d 3e 59 d9 35 be 89 aa e5 bd b8 c2 65 3e
       0.18496813 -0.17758693 -0.112141676 0.2243756
000080 7b 3d 3e bd fa aa c4 bc 1b 0a 36 bd 17 ac 72 bd
       -0.04644535 -0.02400731 -0.04444323 -0.05924615
000090 c9 1d f8 3d a5 09 f8 3d ad 9e 55 be d4 e4 57 be
       0.12115056 0.121112145 -0.20861311 -0.21083385
0000a0 79 e9 4b be d1 5a 26 be 14 58 14 bd 4a 70 01 be
       -0.19913282 -0.16245581 -0.03621681 -0.12640491
0000b0 9c ab d2 bd 5a 09 12 be d6 4f 56 be e4 3b f9 3c
       -0.10286638 -0.1426138 -0.20928892 0.030424066
0000c0 75 5f 8c be b6 0a 93 bd 2a e0 5a 3e fc b8 d4 3d
       -0.27416578 -0.07179777 0.21374574 0.103868455
0000d0 57 e4 aa bd 02 e4 01 be 30 b0 a0 bd 2f e2 79 3c
       -0.083443336 -0.12684634 -0.07846105 0.01525168
0000e0 38 ff bd bd e4 e0 2e 3e 71 91 54 be 41 68 f1 3c
       -0.09277195 0.17077976 -0.20758606 0.029468657
0000f0 99 65 d5 3d a5 bc 05 3e e0 31 f3 3c f5 f6 ea bd
       0.10419769 0.13060243 0.029686868 -0.114728846
000100 a9 c9 08 be c6 eb f2 3d 22 45 b0 bd ca 3c 7c bc
       -0.13358177 0.118613765 -0.08606936 -0.015395353
000110 33 e1 a4 bd 6d 0b 99 bd bc 2d 88 3e b4 fa b8 bd
       -0.08050766 -0.074728824 0.26597393 -0.09032193
000120 a1 a0 ad 3d 7d b5 ae 3d 92 65 29 be eb 78 0e be
       0.08477903 0.0853071 -0.16542652 -0.13913314
000130 86 e5 3d 3e 20 2f 38 3e 8f de 01 3e 97 8f 19 be
       0.18544587 0.17986727 0.12682556 -0.14996181
000140 8f e5 49 3e ae c9 d4 bd db 75 fd 3d 8c b0 d9 bd
       0.19716476 -0.1039003 0.12375995 -0.10629377
000150 2e e9 51 be 2e 78 70 bc 0f 46 17 be 09 cf 83 be
       -0.20499107 -0.014677091 -0.14772819 -0.25743893
000160 ca 94 57 be 16 65 70 be ff 87 2e be b9 4a 23 be
       -0.21052852 -0.23476061 -0.17044066 -0.15946473
000170 e7 ea 55 be 42 0d 5f bd f2 9b 87 bd b7 73 0c 3d
       -0.2089039 -0.054456003 -0.06621541 0.03429004
000180 92 cb 0c bd 45 63 81 3d dc c8 b3 3d 78 2a 63 3d
       -0.034373827 0.06317762 0.08778545 0.055460423
000190 bd 0e b4 bd ba 54 48 be 19 79 ae 3d ca 23 06 be
       -0.087918736 -0.1956357 0.08519191 -0.1309959
0001a0 6b 59 f2 3d 61 92 82 bd ee c2 38 be 14 46 8f be
       0.118334614 -0.06375576 -0.1804311 -0.27983153
0001b0 7d e2 7f be ac 57 71 be 6c d2 5e 3d 81 42 17 3e
       -0.24988742 -0.235686 0.054399893 0.14771463
0001c0 75 6c c9 bd 83 8c cd 3d f9 66 e7 3c 03 3e f0 bc
       -0.0983514 0.10036566 0.028247343 -0.029326444
0001d0 e0 f5 98 bd 48 69 9e bc 8d 1b e8 3c e0 51 58 3c
       -0.07468772 -0.019337311 0.02833345 0.013203114
0001e0 f8 22 ae 3d 9c bb cf 3d 8b 00 1f bd 1a 1a 34 3e
       0.085027635 0.101432055 -0.038818877 0.17588082
0001f0 f3 d7 77 3e 4f 02 9f 3d d5 9f a3 bd 7b 2d 44 3d
       0.24203472 0.07764112 -0.0798947 0.047894936
000200 25 2c e0 bd f1 bc cb 3d 38 0e 50 3e 19 6e 81 3e
       -0.1094592 0.09948147 0.20317924 0.2527931
000210 ed c3 00 3d e2 61 51 bb 7d 19 ff 3d 8d fb 5d bd
       0.03143685 -0.0031949212 0.124560334 -0.054194976
000220 b0 ae 07 3d 5f 9b 40 3d 5d 34 fc 3d 81 08 9c bd
       0.03312558 0.047023173 0.12314675 -0.076188095
000230 35 31 2e be db e3 2f be cc 4e bf bc 7f ae 37 bd
       -0.17010958 -0.17176764 -0.023353003 -0.044844147
000240 6b ff 5f 3d 74 7f 2a be ee a1 e4 bd 83 8d d1 bc
       0.054686945 -0.16650182 -0.11163698 -0.025580173
000250 8c 6f 8d 3d 48 c4 06 be 6a b2 4a be 65 d1 ed 3d
       0.069060415 -0.13160813 -0.19794622 0.116122045
000260 f0 2f 46 be 30 cf 46 be 00 23 12 3e db 11 bb bd
       -0.19354224 -0.19414973 0.14271164 -0.09134265
000270 2e e1 b1 3d 9f 3f 0a bd b8 fc ef 3d 72 e9 b2 3d
       0.08685528 -0.03375208 0.11718124 0.087359324
000280 e4 de 77 bd c9 56 83 bc 8e f6 32 be 93 b8 30 3e
       -0.0605153 -0.016032593 -0.17476866 0.1725791
000290 21 2a 45 3e 0b a6 c6 3d 2b a2 d6 bd b9 2e 89 3c
       0.19254352 0.09699639 -0.1048015 0.016745912
0002a0 72 5b 49 bc da de 20 3d d9 b3 ae 3d 35 a0 1e 3d
       -0.012289869 0.039275028 0.08530397 0.038727004
0002b0 14 76 b8 bd 18 59 2f 3e bb 82 97 3d 1c d4 e4 3d
       -0.090068966 0.1712383 0.07397982 0.11173269
0002c0 87 96 24 be 0d 35 3c bd cc 74 bd bd e2 67 a0 3d
       -0.16073047 -0.04594903 -0.09250793 0.07832314
0002d0 43 7c 80 3d 96 db f8 bc b8 5e 15 bd 05 32 bd bc
       0.06273701 -0.030378144 -0.036467284 -0.02309514
0002e0 71 0a d1 3d e1 c5 42 bd 12 1a 1a be bb ba e6 3d
       0.1020707 -0.047551993 -0.15049008 0.11266085
0002f0 66 19 3d 3e 58 e7 f2 bc 7a 77 04 bd 88 9b 25 bb
       0.1846672 -0.029651329 -0.032340504 -0.0025269706
000300 18 50 76 3d 54 77 a3 3d a2 43 a1 bb da 5a e6 3d
       0.060134977 0.079817444 -0.0049213925 0.11247797
000310 13 fc 7c 3d 86 9f 3d 3e de be 0d be d8 5f 9f bd
       0.061763834 0.18517885 -0.13842341 -0.077819526
000320 82 e3 e4 3d 3d 37 8e bc 3d e0 47 3e 49 fd 7e bc
       0.11176206 -0.017360324 0.19519134 -0.015563318
000330 ea 15 3d 3e 90 a1 a8 bc c8 e6 29 3e ac f5 29 3e
       0.18465391 -0.020584852 0.16591942 0.16597623
000340 b7 64 00 be f6 98 d5 bd cd a5 cb bd 18 50 dd 3d
       -0.1253842 -0.104295656 -0.09943733 0.10806292
000350 b4 83 61 be ca ee 3f bd dc 52 55 bd 76 dd a0 3d
       -0.22022897 -0.046858586 -0.052080974 0.0785474
000360 d6 5c 5a be 66 ce 44 be c7 d9 0b be 29 7b 00 3e
       -0.21324477 -0.1921936 -0.13657294 0.12546982
000370 fa f0 8a bd d8 c4 c4 3a de 43 06 3e ce 83 9c 3d
       -0.06784244 0.0015012277 0.13111827 0.07642327
000380 01 af 7d bd 36 12 e1 3c 4c 90 11 be ed ba b8 3d
       -0.061934475 0.027474504 -0.14215201 0.09020028
000390 26 89 a9 3d 33 83 e2 3d fe da f3 bb 22 6f 26 3e
       0.08278112 0.110601805 -0.0074418774 0.16253331
0003a0 6e 2c 21 3e 6d fd ee bc 68 76 2c 3e 89 cb 11 be
       0.15739605 -0.029173577 0.16842043 -0.14237799
0003b0 46 83 4b 3c be 00 39 3e 2f 6a e9 bd 99 00 1b bd
       0.012421435 0.1806669 -0.11397206 -0.037842367
0003c0 88 79 cc 3b 99 88 4f bd 1a b5 a5 3d dd 24 d7 3d
       0.0062400736 -0.05066738 0.08091183 0.10505078
0003d0 c1 d3 85 3c f4 a9 81 bc fa d5 74 be 50 77 32 be
       0.016336324 -0.01582811 -0.2390975 -0.17428327
0003e0 02 55 29 be 8a 43 e8 3d 38 b7 09 be bf 4f ba 3c
       -0.16536334 0.11341007 -0.13448799 0.022743104
0003f0 8a 4b c0 bd c1 b2 b8 3d 6b fb 8a bd c8 2a 05 be
       -0.09389408 0.090184696 -0.067862354 -0.13004601

blocks.1.synapse.weight f4 [32, 16, 3, 3, 1]
000000 22 61 a7 bd d8 64 54 bd 18 74 6b bd ac f2 2a 3d
       -0.081728235 -0.051853985 -0.057483763 0.041735336
000010 c6 ee 80 bc c4 17 d7 bd 07 64 19 bc 8a 8e 90 bd
       -0.015738856 -0.1050258 -0.009362227 -0.07058437
000020 f7 c9 dc bc fb 67 1f bd ad 4c b6 bd f4 e8 69 bd
       -0.026951773 -0.038917523 -0.089013435 -0.057106927
000030 2d 8b 90 bc b7 4d 4b bd 41 58 ae bd 16 01 2a 3d
       -0.01764449 -0.04963466 -0.08512927 0.041504942
000040 c9 8f 82 bd ae 08 38 bd 51 d7 44 3d a5 8d 1f 3d
       -0.06375081 -0.044930153 0.048056904 0.038953442
000050 64 11 3f bd 07 db 06 3c ef 64 8c 3a 8e 16 89 bc
       -0.046647444 0.008230931 0.0010711233 -0.016734388
000060 06 38 87 bc 10 93 dd 3c 81 a2 5e 3c 0e 54 e0 bc
       -0.016506206 0.027047664 0.013588549 -0.02738383
000070 b4 6a ae bc a9 5d 1d be d8 76 f9 bc 08 e3 a0 bd
       -0.021291114 -0.1536776 -0.030452177 -0.07855803
000080 8e 0a aa 3c 96 ba 91 3d 72 e8 1e bd 4d 14 88 bc
       0.020756986 0.071156666 -0.038795896 -0.016611243
000090 14 10 fd ba c7 88 86 bd f9 d0 b2 bd ed 98 77 3c
       -0.001930716 -0.06569057 -0.087312646 0.015112144
0000a0 50 18 e7 bb b3 df 26 be 8e 69 ab bd f8 0f 0e be
       -0.007052459 -0.16296272 -0.08369742 -0.13873279
0000b0 50 83 2b bd 8d 28 84 3d 59 c3 72 3d 9a aa 9a bd
       -0.041873276 0.06453047 0.05926833 -0.07552071
0000c0 3c b8 84 bd 9c b0 54 bc 3e c9 6e bd 6e 7e a3 3c
       -0.064804524 -0.01298156 -0.05829739 0.019957747
0000d0 9a a9 23 bc 6a a4 91 3b 16 6d 7d bd 84 c4 84 bc
       -0.009989167 0.0044446485 -0.06187161 -0.016206987
0000e0 45 86 b2 bc 8e f6 a0 3d 6f b3 a0 3d 18 76 1f 3d
       -0.02179254 0.078595266 0.07846724 0.038930982
0000f0 63 33 9f 3b cf b1 85 3d e6 28 d9 bc 3d 99 cf 3c
       0.0048584207 0.06528055 -0.02650876 0.025341624
000100 b3 7b 48 bc 4f a4 cd 3b 99 9e 19 3d d4 f6 1d 3d
       -0.012236523 0.0062756906 0.037504766 0.03856547
000110 6e d2 aa 3b 71 e0 8e bc 13 23 3a 3d 79 a6 58 3d
       0.0052130735 -0.017441006 0.045443606 0.052893136
000120 59 aa 3e 3d 7e 1b ba 3c f4 d4 c1 bd 06 a5 a7 3c
       0.046549175 0.022718187 -0.09464446 0.020464431
000130 3b 9c 64 bd e6 99 ff 3c bc 3b 4b 3d 75 5d 10 bd
       -0.055813055 0.031201314 0.049617514 -0.035245378
000140 1f 60 56 3b 03 b3 72 3d 82 04 fa bc bc e5 62 bd
       0.0032711101 0.05925275 -0.030519728 -0.055394873
000150 85 a2 71 bd f7 b6 a0 bd dd 4a 68 3c 1b cf 5a 3c
       -0.05899288 -0.07847398 0.014178005 0.013355042
000160 9b c3 40 3d d9 72 8a bc 41 10 ef 3c 00 a6 8d 3d
       0.047061544 -0.016900467 0.029182555 0.069164276
000170 30 81 27 bd 6c 92 8e bb 74 5c fd bc 9b 48 58 bd
       -0.040894687 -0.004350951 -0.030927874 -0.052803617
000180 a3 98 b9 3c 0e f7 97 bc 09 ff c8 3c 5b e7 a6 3d
       0.02265579 -0.018550422 0.024535673 0.08149596
000190 bd d8 81 3d f4 50 47 bd 09 8a 5d bd b5 1f e2 3b
       0.06340168 -0.048661187 -0.05408672 0.0069007524
0001a0 70 a2 a3 bd b5 4d 98 bd fd ed 73 3d a9 bc 11 bc
       -0.07989967 -0.074366964 0.059553135 -0.008895078
0001b0 79 c1 db 3b 1f ac b5 bd 29 38 9f bd bf ca 72 bd
       0.0067064133 -0.0887072 -0.077743836 -0.059275385
0001c0 1f d2 6b bd ca 2f 77 3c 08 89 27 3b 6e 7d 3e bd
       -0.057573434 0.015087077 0.0025563855 -0.046506338
0001d0 7b 2e 71 3d 05 f3 3f bd 6d cd 80 bc d5 de da bc
       0.058882218 -0.04686262 -0.015722955 -0.026717583
0001e0 dc 9f ef 3b 21 37 eb bc f8 35 11 3d 0e 81 0d 3d
       0.007312758 -0.028712811 0.03545186 0.034546904
0001f0 a6 04 83 bb cd 06 a3 bd 6d ee 57 bc d3 10 31 3c
       -0.003998357 -0.079602815 -0.013179404 0.010807234
000200 5d 81 a2 bc ba c8 55 3d 5b 3a 9a 3d e4 84 59 bc
       -0.019837076 0.05219338 0.07530662 -0.0132763125
000210 ed b7 8c 3d 80 d7 0e bd 49 9d 2e bc e0 2b 85 bc
       0.068710186 -0.034873486 -0.010657617 -0.016256273
000220 0c 91 e0 bd b0 5f b0 bd 33 a7 86 3c 99 91 6e bd
       -0.109651655 -0.08612001 0.016437149 -0.05824432
000230 68 0e fb bd 21 96 02 be f5 43 a8 bd 1b 9b f8 bc
       -0.12258607 -0.12752582 -0.08216087 -0.030347398
000240 7d 9d 2e bd d7 cc b3 bc 8f 59 13 bd 27 e6 60 3c
       -0.04263066 -0.021948261 -0.03597408 0.013726748
000250 59 47 51 3c b5 b8 70 bc b4 38 1c bd 95 1d 7e 3a
       0.012773358 -0.014692475 -0.038140014 0.0009693739
000260 81 01 09 bc b3 f9 da 3c 5e 4b 6f bd 7e 4f 8e 3c
       -0.008362175 0.026730394 -0.058421485 0.01737189
000270 90 28 64 bb dd d8 86 bd 55 dd b8 bc bf be dd 3c
       -0.0034814216 -0.06584332 -0.022566477 0.027068494
000280 10 22 5f bd cd 74 1c 3d 6f 38 20 3d 2f 5f ae 3d
       -0.054475844 0.038197327 0.03911632 0.085142486
000290 42 fe 8d 3d e1 56 74 bd 38 50 b9 bc bf fb e5 bd
       0.069332615 -0.059653167 -0.02262126 -0.112296574
0002a0 9d e3 d7 3c 91 6b 03 be db 8d 35 bc 0b 54 f7 bc
       0.026353652 -0.12834002 -0.011081184 -0.030191442
0002b0 81 26 06 bd c2 fc ef bd c1 78 30 bd 29 6e 65 3d
       -0.032751564 -0.117181316 -0.04308391 0.05601326
0002c0 db 47 37 bb 48 36 72 3d 38 44 a1 bc 84 0e 67 bd
       -0.0027966413 0.059133798 -0.01968585 -0.056410328
0002d0 e1 ba 73 ba 81 7e a7 bd 74 79 e4 bd a6 32 ec bd
       -0.00092975615 -0.081784256 -0.11155978 -0.11533098
0002e0 3d a6 96 bc 0c ed 39 bd 32 5a ab bc 9e 84 77 3c
       -0.018389815 -0.04539208 -0.020917032 0.015107302
0002f0 33 60 1b 3d 10 53 2e 3d 34 fa 3f bd 0a 69 79 bd
       0.03793354 0.042559683 -0.04686947 -0.06089119
000300 9a 0d 90 bc 7c 6b 44 bc 37 28 96 3b 53 6c 55 3c
       -0.01758461 -0.011988517 0.0045824307 0.013026315
000310 f1 6a 1e 3d 4f 59 96 3d 84 73 07 bd 96 dc 80 3c
       0.038676206 0.07341253 -0.03306915 0.015730184
000320 1a eb a2 bc 67 53 f4 3c b0 15 85 3b 83 6a c4 3c
       -0.019887496 0.029824926 0.0040614232 0.02397657
000330 bb a7 98 bd 5d 4d a0 bd 1b 2c a0 bd 0f 36 4d 3b
       -0.07453867 -0.07827256 -0.078209125 0.003131274
000340 7e ad 9b 3c 33 f7 11 3d 39 4a 5b bd 7b 82 b3 bd
       0.019003626 0.03563614 -0.05353758 -0.087651215
000350 dc be d2 ba 91 fd 91 bc 0b d2 75 bb 1f 8e 6c bc
       -0.0016078609 -0.017821105 -0.0037509229 -0.014438181
000360 aa 19 43 bd 0e 8d 07 3b bd 2a 96 3c d5 fe 97 3d
       -0.047631897 0.002068344 0.018330926 0.07421652
000370 0a 70 25 bd 62 c3 26 3d 05 12 14 bc 1b 90 a5 bd
       -0.040390052 0.040713675 -0.009037499 -0.080841266
000380 63 19 38 3d 52 8f 37 3d 96 ee f3 bb db ec 13 bc
       0.044946086 0.044814415 -0.007444213 -0.009028639
000390 48 7d bb bc f5 b6 3b 3d 8b 6d 19 bd ba 82 60 bd
       -0.022886887 0.04582878 -0.037457984 -0.05481217
0003a0 c3 af 8a bd 14 a4 b4 3b 8f b8 59 3c 25 f8 0d bd
       -0.06771805 0.0055127237 0.013288631 -0.034660477
0003b0 a1 56 44 bd 78 b8 ef 3b 11 4f a0 3c ec a0 aa 3d
       -0.04793418 0.0073156916 0.019568952 0.08331475
0003c0 09 26 60 3d e0 65 11 3c 72 03 0a 3d 66 cd 18 3c
       0.054723773 0.008874387 0.033694692 0.009326315
0003d0 dd 72 b0 3c 5f ae f4 3c 76 8f c0 bb 63 6f 7f bc
       0.021539146 0.029868303 -0.005876477 -0.0155905215
0003e0 c9 92 4c bc 1c bc e2 3c e2 f9 5e bd a6 c8 94 3b
       -0.012486168 0.027677588 -0.054437526 0.0045405207
0003f0 76 90 7a ba 47 62 96 bb 03 e0 61 3d db 82 44 3d
       -0.00095582695 -0.0045893523 0.055145275 0.047976356

blocks.2.synapse.weight f4 [8, 32, 3, 3, 1]
000000 88 5f f8 bc d3 12 64 3c 41 d0 2d 3c c7 cc ed bc
       -0.03031899 0.013920504 0.010608734 -0.02902831
000010 11 01 9f bc 25 91 d5 3b 72 8a cd bc 01 12 91 bc
       -0.019409688 0.0065175467 -0.02509043 -0.01770878
000020 50 27 c6 3b 23 08 85 bc e1 95 8b bc aa ba 83 bc
       0.006047167 -0.016239231 -0.017039241 -0.01608022
000030 f8 fa 7b 3c f1 cb 44 3c bf 1f 81 3c 6d a9 e5 bb
       0.01537966 0.012011514 0.015762208 -0.0070087225
000040 09 8d 57 37 f9 ba fb bb 99 ab 87 bb 65 ba a8 3c
       1.2847836e-05 -0.007682201 -0.004140329 0.020596692
000050 19 2f 85 3c d7 2d 20 3d 6a 26 74 bc cc 3a 8c bc
       0.01625781 0.039106216 -0.014901737 -0.01711788
000060 68 3a 42 bc 8e 32 c2 3c ef bd 80 3c 91 74 5d 3c
       -0.011854745 0.023705747 0.015715567 0.013516561
000070 4f 23 1d bc af 5e 24 bd 13 ed 2f bb fb 62 66 3c
       -0.009590938 -0.04012936 -0.0026844188 0.014061685
000080 17 ec 32 3c a3 0b 5c 3c 7e f3 62 3c 63 98 88 39
       0.010920546 0.013430509 0.013851998 0.00026053478
000090 ff e5 86 3c 08 be 87 3b bb 6d 86 3c f0 a1 49 3c
       0.016467093 0.0041425265 0.016409745 0.012306675
0000a0 0e bb 76 3c 98 e6 85 3c e1 60 6e 3c 1b 20 17 bc
       0.015059246 0.016345307 0.014549465 -0.009223963
0000b0 1e 2f 9c 3c 52 de c6 3c 19 83 3f bc b8 b2 71 3b
       0.019065436 0.024275932 -0.011688971 0.0036880206
0000c0 d9 7a bd 39 86 06 e1 3c 18 d2 15 3c 00 41 1f bc
       0.00036140418 0.02746893 0.009144329 -0.009720087
0000d0 04 b1 9d 3c 7d ad 4c 3c 59 2a 45 3c 78 c2 9c bc
       0.019249447 0.012492535 0.012034022 -0.019135699
0000e0 55 e7 76 3c b6 54 ce bc 29 d0 4a bd da b7 5b bd
       0.015069802 -0.025186878 -0.049514923 -0.05364213
0000f0 8b 41 c8 bc a6 7a ce bd 40 80 a2 bc ab 12 25 bc
       -0.024445316 -0.10081987 -0.019836545 -0.010075252
000100 9c a7 77 3c dc 42 e5 bb 3b 9c 78 3c 71 ca 94 bc
       0.015115645 -0.0069964956 0.015173967 -0.018162938
000110 1d 68 90 bc bb 07 48 3c e6 aa 03 3c 62 46 84 3c
       -0.01762777 0.012208874 0.008036351 0.016146842
000120 fa 92 1d bb 8e e8 15 3d 2d f5 80 bc 21 c5 0b bc
       -0.0024043904 0.036598735 -0.015741909 -0.008530886
000130 12 f1 73 3c cd 2e 4a 3c d6 f7 f3 bb f7 4c 7b bc
       0.014889019 0.01234026 -0.007445316 -0.015338174
000140 3c e9 63 3a 6e f1 85 3c 75 fe 1e bc e7 59 0b 3d
       0.00086941174 0.016350474 -0.009704222 0.034021284
000150 38 65 64 3b aa c4 a5 bc ed 8d 35 3c 3f 13 8b bc
       0.003485037 -0.020235378 0.011081201 -0.01697695
000160 ce 92 10 bc fe c7 8e bb df ec c2 bb 56 ee e2 3a
       -0.008824063 -0.004357337 -0.0059486474 0.0017313461
000170 ff 5f 51 bc 0d 82 9d bc 3e f4 6e bb 01 4b 9c 3c
       -0.012779235 -0.019227052 -0.0036461498 0.019078733
000180 96 eb 39 3c 8d ec 96 3c be ba 8e 3c 7d 54 7d 3c
       0.011347672 0.018423343 0.01742303 0.015462038
000190 c8 78 76 3c 63 2e 7b 3c f2 fc 2a 3c 0c 2d 77 bc
       0.015043445 0.015330884 0.010436283 -0.015086424
0001a0 dc e1 83 bc 85 eb 47 bd 1c f3 23 bc 4b cc 5d bd
       -0.01609891 -0.048808593 -0.010006692 -0.054149907
0001b0 c2 4d 3c bc 45 46 7b 3c ca 42 84 3c 05 96 0b 3d
       -0.011493148 0.015336578 0.016145129 0.034078617
0001c0 e6 c4 e8 3c e5 27 9c 3d 51 b2 81 3c bf a7 03 3c
       0.028414201 0.07624797 0.015832098 0.008035599
0001d0 5f c1 7a 3c d7 c4 15 bd 3b ab a7 bc 16 d1 49 b9
       0.015304892 -0.036564674 -0.020467391 -0.00019246744
0001e0 cc 0f 84 bc ea 4f 30 3b 4f c6 0e 3d b3 03 11 3d
       -0.016120814 0.0026903101 0.03485709 0.03540392
0001f0 e8 50 bd ba 15 ad cc 3b 51 e2 6f 3c f0 56 b0 3c
       -0.0014443668 0.006246219 0.01464136 0.02152583
000200 10 63 a9 bc bd 14 ca 3c 96 f8 10 3c 61 86 6d bc
       -0.02067712 0.024668092 0.00884833 -0.01449737
000210 3c c1 91 bb 19 3c b5 39 71 82 80 bc 82 2f ce bb
       -0.004448084 0.00034567786 -0.0156872 -0.0062922845
000220 65 55 56 3c 47 8a 2d bc b5 de 81 bc 65 c9 1f 3b
       0.013081883 -0.01059205 -0.015853265 0.0024381515
000230 22 06 ea bc ec f4 60 bc 17 b3 7d bc 7d d6 99 bc
       -0.028567377 -0.013730269 -0.015484593 -0.018779034
000240 36 43 28 bd 85 aa e7 bc eb 59 25 bc 0b 33 3f 3d
       -0.041079722 -0.028279552 -0.010092239 0.046679538
000250 3e fb 0c 3d 36 b5 80 3c 59 6f aa 3c 64 f2 77 3c
       0.03441929 0.015711408 0.020805048 0.015133474
000260 ec 5e 83 3c b1 d4 7c 3c c4 de 98 3c bc 1d 43 3d
       0.016036473 0.015431569 0.01866091 0.04763578
000270 f5 b9 45 3c 3b 27 82 3c 2f fb 91 3c d6 da 72 3c
       0.012068261 0.015887847 0.017819969 0.014822682
000280 05 93 60 3c c9 20 80 3c b0 07 7e 3c 21 ee 19 3c
       0.013706927 0.015640633 0.0155047625 0.009395153
000290 ed c2 d8 bb cb ab 50 3b 44 08 f2 bc 6c c9 79 3a
       -0.006615034 0.0031840678 -0.029544957 0.00095286104
0002a0 51 1e 53 3c b8 c9 85 bc 61 73 46 bd 4b d6 57 3c
       0.012885646 -0.016331539 -0.048449878 0.01317365
0002b0 4c 19 2a 3c 1d 30 a7 bb 4c e8 5d bc 5d 2d 89 3c
       0.010382008 -0.005102171 -0.013544153 0.016745264
0002c0 d1 9b 90 3c 8a 17 8a bc 0c 1e b8 3c cf 46 9a 3c
       0.017652424 -0.016856927 0.022475265 0.018832592
0002d0 53 c3 98 3c c3 2f 69 3c 1f 98 86 bc 08 f2 e3 3b
       0.018647825 0.014232579 -0.016429959 0.0069563426
0002e0 e5 71 1a 3c 3f 84 93 bb 61 52 f4 bc dc f0 80 bc
       0.009426569 -0.004501849 -0.029824438 -0.01573985
0002f0 76 30 8f 3c 9f 5f 24 3c f5 6c 86 3c cc 3d 3e 3d
       0.017479163 0.0100325635 0.016409377 0.046445653
000300 19 cc 7b 3c 2a d1 84 3c 00 5b 8a 3c 44 d9 4f 3c
       0.015368485 0.016213018 0.016889095 0.0126860775
000310 d9 44 ee ba 8c b4 78 3c e0 e5 6d 3c 73 89 20 bc
       -0.0018178477 0.0151797645 0.0145201385 -0.009798395
000320 66 79 91 3c 50 d8 b3 ba 95 b3 f0 bb dc 3e 93 ba
       0.017758083 -0.0013721082 -0.0073456266 -0.0011233944
000330 8f 5e a7 bc c2 fd 19 bd 5a 37 48 bc 3e d7 ad 39
       -0.020430831 -0.037595518 -0.012220228 0.000331575
000340 51 e6 2c 3d 11 17 64 bd 6a 12 2d bd d3 df bb bc
       0.042211834 -0.05568606 -0.04225389 -0.022933876
000350 ef 75 00 bd 19 c8 7e bd cc 9f 77 bd e7 31 c7 3c
       -0.03136247 -0.062202547 -0.06045513 0.024315787
000360 d8 36 e1 3b 1a 7b 82 3c 8a ce f6 3c 18 c2 49 3c
       0.006872993 0.01592784 0.030127782 0.012314342
000370 27 c7 46 bc 0e cc 86 3c 6c f9 80 bc 43 0b 5e bc
       -0.012132443 0.016454723 -0.015743934 -0.01355249
000380 3a b0 79 bc 0c d1 1c 3b 65 db 9a bc a9 7b 6d bc
       -0.01523977 0.0023928313 -0.018903444 -0.014494815
000390 08 b7 3f 3c fb e4 cf 3c 6a 63 64 bc 52 e9 85 3b
       0.011701353 0.025377741 -0.013939718 0.004086652
0003a0 13 5f 93 bc f9 0a 60 bb 22 33 a5 bd 1f 40 3b bd
       -0.01798967 -0.0034186228 -0.080663934 -0.045715448
0003b0 5e 24 a8 3c 8b 8b 7c bd 07 45 9d bc 56 65 bc bc
       0.020525154 -0.061656516 -0.019197954 -0.02299754
0003c0 28 f8 64 bd f8 51 9f bc 91 8f 8e bc e8 ff 9b ba
       -0.055900723 -0.019448265 -0.017402442 -0.0011901828
0003d0 39 cd 34 bd c3 e6 87 3c 06 2d 7f 3c 76 0d 80 3c
       -0.044141028 0.016589528 0.015574699 0.015631419
0003e0 4e 06 81 3c d0 97 8b 3c 08 18 5b 3c 92 a9 80 3c
       0.015750077 0.017040163 0.013372429 0.015705857
0003f0 97 22 91 3b e9 42 90 bc 0a 35 88 3c ad ee 24 bc
       0.0044291723 -0.01761003 0.016626853 -0.01006667

blocks.4.synapse.weight f4 [10, 512, 1, 1, 1]
000000 8d e2 2f 3c de 02 00 bc da cd 62 bc a2 f3 1f 3b
       0.010735166 -0.007813184 -0.013843024 0.002440669
000010 50 a9 31 3c 14 01 38 3c eb 21 22 3c d2 72 87 bc
       0.01084359 0.011230726 0.009895782 -0.016534243
000020 4c 2f 0a bc 5f 8d 81 bb ba 87 40 3c f4 45 4f 3c
       -0.008434128 -0.0039536203 0.01175111 0.0126509555
000030 bc e4 7c 3c f7 7f 7b bc 05 3d 6c bc 0c c9 84 bc
       0.015435394 -0.015350333 -0.014418845 -0.016209148
000040 6d f7 bf 3b 24 96 32 3c 9d 3d 7b bc 82 f5 bb 3b
       0.005858353 0.010900054 -0.015334514 0.005736054
000050 cc 73 20 3b be 50 59 3c 7d 68 28 3a 75 e4 88 bc
       0.0024483083 0.013263879 0.00064242614 -0.0167105
000060 1d 0a 72 3c 13 aa 55 bc b7 af 8a bc d6 dc 72 3c
       0.014772919 -0.013041037 -0.01692949 0.014823159
000070 6c 66 85 3c d9 c4 4d bc db 6d 05 3c 33 ec 55 bc
       0.01628419 -0.012559139 0.008143867 -0.013056803
000080 73 1f 48 bc a0 f4 83 bc 12 8c 8e bc 62 48 70 bc
       -0.012214529 -0.016107857 -0.017400775 -0.014665695
000090 be a7 81 bc e4 ce d8 bb 69 2f c7 3a 8b 76 ab ba
       -0.015827056 -0.00661646 0.0015196624 -0.0013081593
0000a0 b3 69 81 3c 53 1b 82 3c 48 19 67 bc cf 41 ab bb
       0.015797472 0.01588217 -0.014105149 -0.005226351
0000b0 8b 12 49 bb b9 0f 7b bc b5 89 79 bc 92 33 4c bc
       -0.0030681218 -0.015323573 -0.015230586 -0.012463467
0000c0 07 f2 96 3c 9e 7b 65 3c 7e 04 6f 39 4d 28 59 bc
       0.018425955 0.014006523 0.0002279449 -0.013254237
0000d0 d5 63 7c bc 29 c4 98 bb d2 b9 28 3c df 74 5f bb
       -0.015404661 -0.004662056 0.010298209 -0.003409676
0000e0 c8 2f 57 bc 30 c4 17 bc 70 73 6c 3c de 04 82 3c
       -0.0131339505 -0.009263083 0.014431819 0.015871461
0000f0 1c cc 94 3c c5 ae 82 3c 18 aa 63 3c 4e b9 3d 3c
       0.018163733 0.015952477 0.013895534 0.011579825
000100 24 10 59 3c c5 40 38 3c 27 34 7c 3c 7d ef 54 3c
       0.013248477 0.011245911 0.015393293 0.012996552
000110 b5 ab 5c 3c 8c 5c 31 bc 09 44 6b 3c 12 3c 80 3c
       0.0134686725 -0.010825288 0.014359483 0.015653644
000120 13 b1 5d bb 0e 13 e7 bb 8c 8b 7e 3b 5e 72 f4 ba
       -0.0033827468 -0.007051832 0.00388405 -0.0018649807
000130 aa 8d 45 bc ad 26 36 bc 9c da 84 3b 5a 44 72 3c
       -0.012057701 -0.011117619 0.0040543806 0.014786804
000140 23 de 2b ba a1 1f 18 3c 3c f2 18 3b f8 0e 87 3c
       -0.0006556233 0.009284885 0.0023337742 0.01648663
000150 58 76 7e 3c 54 6f 3d 3c 86 f8 09 bc 89 fa 68 bc
       0.015531145 0.011562187 -0.008421069 -0.0142198885
000160 4e 12 1a bc 55 ff 43 3c b1 36 37 bc 8b e2 4c 3c
       -0.009403778 0.011962731 -0.011182473 0.012505184
000170 4b a1 5a 3c db e5 01 3c a0 51 33 3c 67 6c 0b bc
       0.013344119 0.007928337 0.010944754 -0.008509732
000180 4f 3c 59 bc 48 39 66 bc dd 9f 84 bc 68 e4 5c 3c
       -0.013259008 -0.014051743 -0.01618951 0.013482191
000190 07 8a 84 3c 95 da 6e 3c e0 30 2d ba c8 f2 a2 3b
       0.016179098 0.014578481 -0.0006606709 0.0049727894
0001a0 aa 12 82 bc e8 b5 7a bc 2c 36 2d bc c6 01 da 3b
       -0.01587804 -0.015302159 -0.010571998 0.0066530434
0001b0 59 d2 5a 3c f1 76 52 bc a6 5e 80 bc d5 44 40 3c
       0.013355815 -0.012845741 -0.015670132 0.011735161
0001c0 74 d2 84 bb 1b 6c c1 3b 76 e2 6c 3c 46 cb 5e 3c
       -0.0040534083 0.0059027798 0.014458289 0.013598269
0001d0 92 91 38 bc 39 b8 9b ba 74 0b 72 3c 26 6f 0e 3c
       -0.011265175 -0.0011880464 0.014773238 0.008693492
0001e0 c3 2c bd 3b b4 bb 6a 3c 65 30 74 3c ac 5d 26 bc
       0.0057731583 0.0143269785 0.014904116 -0.010154169
0001f0 23 e1 78 3c f3 8a 6b 3c 13 06 8b 3c 08 67 81 3c
       0.0151903955 0.01437639 0.01697067 0.0157962
000200 70 98 76 3c 94 da 6c 3c f3 07 80 3c 21 87 81 3c
       0.015050992 0.01445641 0.01562879 0.015811505
000210 28 f1 6b 3c a6 58 89 3b fc d5 84 bc b7 5e 7c bc
       0.014400758 0.004191476 -0.016215317 -0.015403441
000220 41 f8 c7 3b 84 92 45 3b ab 43 b3 3a cc 45 89 3c
       0.006102592 0.0030147145 0.0013676783 0.016756915
000230 68 08 96 3b 4b cb 68 3b 3f 71 19 bc b4 09 83 bc
       0.004578639 0.0035521563 -0.009365379 -0.015995838
000240 ac 33 44 3c bb f1 71 bc 7a 75 07 bc 6b f9 1e bc
       0.01197521 -0.014767106 -0.008267755 -0.009703021
000250 ec f5 73 bc 1b 19 64 bc 8f 3a 8f bc ea bd 83 bc
       -0.014890175 -0.013922001 -0.017483978 -0.016081769
000260 f8 4a 77 3c f0 b9 d0 bb 15 5d 7b bc 0e 8f 58 3c
       0.015093558 -0.0063698217 -0.015342017 0.013217701
000270 9d 98 2b 3c c7 99 d3 bb d1 cf 85 bc 71 e8 74 bc
       0.010473398 -0.0064575407 -0.016334446 -0.0149479965
000280 27 ad 2d 3c 45 44 36 3c f9 9f 70 bc e3 f5 13 3c
       0.010600365 0.011124675 -0.014686578 0.009030792
000290 7a fe 70 3d 2a e6 3f 3d 58 21 1c 3c 0d b2 7c bc
       0.058836438 0.04685036 0.009529434 -0.01542331
0002a0 08 53 7a bc 93 ec 8b 3b 7b 1a 85 bc 4d 0f 3c 3c
       -0.015278585 0.004270145 -0.016247978 0.011478257
0002b0 dc a1 9b 3d e9 eb 4a 3d 75 43 7a bc 20 fc 76 3c
       0.075992316 0.049541388 -0.015274872 0.01507476
0002c0 b0 82 1d bc 5e af 2c bc 51 ad 73 bc 28 ad 99 bc
       -0.009613678 -0.010539858 -0.014872865 -0.018759325
0002d0 a3 c1 8d bc fc 0f b6 bb 8e 64 5a 3c 9a 89 7c 3c
       -0.017304247 -0.0055561047 0.013329638 0.015413666
0002e0 6a 19 7f bc 4d 53 58 3c 42 ab 11 bc 42 8a 67 3a
       -0.015570024 0.013203454 -0.008890929 0.00088325527
0002f0 81 99 d6 3b d4 13 84 3c 01 8b 7e 3c ed 06 81 3c
       0.006549061 0.016122736 0.015536071 0.015750373
000300 bd 0a 02 3b 28 06 5a 3c af 28 62 3c fe 44 7f 3c
       0.0019842826 0.013307132 0.013803645 0.015580414
000310 31 3a d4 bb dc 61 23 b8 df 58 81 3c 04 bc 0f 3c
       -0.0064766635 -3.8953367e-05 0.015789447 0.008772854
000320 ff 3a 6e bc c1 99 68 bc b9 98 f6 3a 75 36 08 bb
       -0.014540433 -0.014196814 0.0018813825 -0.0020784412
000330 a2 c3 29 3c 1e 84 7a 3c bd 31 30 3c dd 99 48 bc
       0.010361584 0.015290288 0.010754046 -0.012243715
000340 fb 8e 3d bc 60 45 80 bc 49 a2 74 bc 32 39 83 bc
       -0.011569734 -0.01565808 -0.01493127 -0.016018484
000350 1c d7 77 bc db e0 a1 bb 93 85 00 bc 89 43 82 bc
       -0.01512697 -0.004940135 -0.007844347 -0.015901344
000360 37 b6 bc ba 71 ff 41 bc b2 cb 14 bc 91 23 7e bc
       -0.0014397566 -0.011840687 -0.009081768 -0.015511409
000370 a0 52 78 bc d9 3d 87 3c 0d 8a 68 bb 5f 9a b4 bb
       -0.015156418 0.016508983 -0.0035482675 -0.0055115665
000380 ef d9 77 bc ec 49 74 bc 15 e4 72 bc 5a 32 3b bc
       -0.015127643 -0.0149102025 -0.014824887 -0.011425579
000390 81 d9 35 3c df 36 aa 3c c1 65 7d bc d3 56 83 bc
       0.01109922 0.020778118 -0.015466155 -0.016032612
0003a0 a3 7d 3c 3b ba 0c 5a 3c fe 0d 74 bc 3a 03 5c bc
       0.0028761409 0.013308698 -0.014895914 -0.013428504
0003b0 4d 45 42 3c 4b 3e 40 3c f6 98 7a bc 08 92 30 bb
       0.011857343 0.011733602 -0.015295258 -0.002694251
0003c0 2d 42 8b ba 19 7b 7e 3c 57 fc 9f bb 11 51 81 3c
       -0.001062458 0.015532278 -0.004882376 0.015785726
0003d0 ab 86 75 3c dc de c0 3b 8b 58 d7 3a 34 fd 11 bb
       0.014985721 0.005885942 0.0016429586 -0.0022276165
0003e0 11 b5 55 bc 47 0d 7d 3c 89 2f 89 3c c2 75 80 3c
       -0.013043658 0.01544506 0.0167463 0.015681151
0003f0 22 79 8a 3c b2 15 1a 3c 8b d3 43 3c 2e a1 4b 3c
       0.016903464 0.009404587 0.011952291 0.012428565
