MNIST/23:55:25:Apr-06-23/network.pt (torch, 265425 bytes, 14 tensors)

blocks.0.synapse.weight_g f4 [64, 1, 1, 1, 1]
000000 94 de d6 3e f6 75 aa 3f a0 57 f4 3e 92 64 25 3f
       0.4196669 1.3317249 0.47723103 0.64606583
000010 06 11 8a 3f a3 e3 3f 3f 19 1a 30 3f 90 e1 54 3f
       1.0786445 0.7495672 0.6878982 0.8315668
000020 11 30 4a 3f a5 d5 49 3f 11 bf 59 3f e3 13 13 3f
       0.78979594 0.7884162 0.8505717 0.5745222
000030 19 d6 8a 3f fd de 3d 3f 68 4f 30 3f b7 9f 4f 3f
       1.0846587 0.7416838 0.68871164 0.8110308
000040 a2 7b 6f 3f 7b 48 26 3f d4 cf 2f 3f 4c 9f 37 3f
       0.93548024 0.64954346 0.68676496 0.7172744
000050 67 62 52 3f 1e 58 17 3f 8b f4 3b 3f a5 90 36 3f
       0.821814 0.5911883 0.7342002 0.7131446
000060 65 ac 13 3f 7c 7d 69 3f 99 78 2a 3f 13 bb ed 3e
       0.5768493 0.912071 0.6659027 0.4643179
000070 d8 e7 3c 3f 40 ac 3a 3f 0c 7e 13 3f c4 ae 1e 3f
       0.73791265 0.7291908 0.5761421 0.6198542
000080 cb e2 30 3f 4e eb c1 3e 4a 85 21 3f 21 fc 58 3f
       0.6909606 0.37874836 0.6309401 0.8475972
000090 9d d0 76 3f 3f d1 3f 3f 04 b8 3d 3f 15 5b 2c 3f
       0.9641207 0.7492866 0.7410891 0.6732648
0000a0 7b 8e 3b 3f bd 39 51 3f ac ae 3e 3f b4 a9 59 3f
       0.7326428 0.81728727 0.7448528 0.8502457
0000b0 bb 05 62 3f ac fd 12 3f 16 db 3c 3f d3 e8 2a 3f
       0.88289994 0.5741832 0.737718 0.6676151
0000c0 1d 30 38 3f 84 7d 30 3f c9 b7 28 3f 1e e6 6b 3f
       0.71948415 0.6894152 0.65905434 0.92148006
0000d0 00 aa 45 3f 53 e1 77 3f e2 69 fa 3e 76 8c 6a 3f
       0.77212524 0.9682819 0.48908907 0.91620576
0000e0 1a d5 4b 3f dc ff 04 3f 57 2f cb 3e 50 b7 4e 3f
       0.7962204 0.5195291 0.39684555 0.8074846
0000f0 41 50 12 3f d1 ab 5b 3f a3 9b 5d 3f 39 cd 12 3f
       0.5715371 0.85809046 0.8656561 0.57344395

blocks.0.synapse.weight_v f4 [64, 1, 3, 3, 1]
000000 ea f1 7a 3d d8 59 23 bd 5e 31 2a bd a8 62 77 3e
       0.061265863 -0.039880604 -0.041550986 0.24158728
000010 cd f9 c8 3e c1 29 8a 3e 63 7b 9c 3d 40 64 96 3d
       0.39253083 0.2698498 0.07640722 0.0734334
000020 ab 67 0d be 8a 2a c0 be 9c 91 22 3e f9 eb 80 3e
       -0.13809077 -0.37532455 0.15875858 0.25180033
000030 21 6f 86 be 55 12 57 bd 5b 87 ea 3d 75 3a c4 be
       -0.2625666 -0.052507717 0.11451598 -0.3832585
000040 55 96 c1 be d9 69 d2 be c4 ad 53 3d da b0 79 3e
       -0.37810007 -0.4109638 0.051679388 0.2438387
000050 df 30 ae 3e 91 5e f2 3d 74 8b c1 bd e6 8e 9b 3c
       0.3402166 0.11834443 -0.09450427 0.018989038
000060 47 c6 3c be 24 a6 f7 3d 10 fb 99 be 59 2a cc bd
       -0.18435012 0.12092236 -0.30074358 -0.09969015
000070 1c ee 40 3e 22 19 dc bd 8e e3 2f bc f7 af b2 3e
       0.18840832 -0.10746981 -0.010735406 0.34899876
000080 b4 2f 8c 3e c8 07 2f be 4c 23 c7 3e e7 1e 4d bc
       0.27380145 -0.17092812 0.38894117 -0.012519575
000090 89 98 b6 3e 9a 29 86 3e 5e 55 83 3e 03 2e 18 3d
       0.3566325 0.26203614 0.25651067 0.037153255
0000a0 df dc b4 3d 11 8c 9d bd 8d 6f 0e 3f 0d eb 82 3d
       0.0883119 -0.07692731 0.55638963 0.06392489
0000b0 e6 52 fd 3d 4c 9a 16 3f 34 72 da 3e aa 91 45 3d
       0.12369327 0.5882919 0.42665255 0.04823462
0000c0 3c 79 84 3e 73 9e 31 bc 87 cd ad 3e 82 2c 7e 3d
       0.25873744 -0.010841 0.33945867 0.062054165
0000d0 cd 67 d2 3d 06 8d 16 be cd 32 5e 3e b0 f9 ea bd
       0.10273705 -0.14702234 0.21699066 -0.11473405
0000e0 46 b9 13 be f4 61 20 3e 20 74 de be 5b 48 3d bd
       -0.14426145 0.15662366 -0.4344797 -0.04621158
0000f0 00 f0 ce 3d 69 5b be be 31 ca fb bd a2 20 8a bd
       0.1010437 -0.37179115 -0.12294424 -0.067445055
000100 59 53 57 be 1f 83 3f be a5 96 78 be a9 11 67 be
       -0.21027888 -0.18702362 -0.24276216 -0.2256533
000110 3b be 69 be ee 2b e1 be 98 d3 db bc e0 c4 55 3e
       -0.22826473 -0.43978828 -0.026834294 0.20875883
000120 38 6e 4b 3e a8 6f 3e 3d 13 e2 52 3e cc 67 11 be
       0.19866264 0.046493202 0.20594053 -0.14199752
000130 4d 60 6a be 8d 4c af be 85 b6 51 be 75 14 94 be
       -0.22888298 -0.3423809 -0.20479782 -0.28921857
000140 ab a9 83 3e 56 72 32 bd a0 6b dd be 1d 0c 8b be
       0.25715384 -0.04356607 -0.43246174 -0.2715768
000150 0b 29 13 be f8 32 84 be 6b 45 38 3e 29 3b 4e bd
       -0.14371125 -0.25820136 0.17995231 -0.05034939
000160 bc 91 9e be b9 65 17 3e c8 ee 88 be 19 9c 88 be
       -0.30970562 0.14784898 -0.26744676 -0.26681593
000170 7f 9a 88 be b0 1d 4b be 9a 9c e8 3c 89 2f e7 be
       -0.2668037 -0.19835544 0.028394986 -0.45153454
000180 5d 8d ab bc 03 0d 95 be 21 22 9c bd 38 7c 5d bd
       -0.02094143 -0.2911149 -0.07623697 -0.054073542
000190 b3 5a 25 bd c8 8c e2 3d e1 38 d0 bc 4f 35 0c be
       -0.0403697 0.11062008 -0.025417747 -0.1369221
0001a0 60 88 fa bd 1b 8b 10 3e 7d 93 7b 3d 18 b8 ee 3e
       -0.12233043 0.14115565 0.061419953 0.46624827
0001b0 a7 c1 59 bd 3d 16 98 3e c8 51 84 3e b9 86 a4 3e
       -0.053163197 0.29704466 0.25843644 0.32134035
0001c0 37 ae 9d 3d db c5 de 3d da 91 8e 3e da c9 9f 3e
       0.076992445 0.10877582 0.2784565 0.31208688
0001d0 63 d2 92 3e 52 1f ba bb 02 2a 9e be c9 26 ae bd
       0.28676137 -0.005680003 -0.30891424 -0.085034914
0001e0 fb 22 c8 3d 99 ea 78 3e bb 2b c2 3d 0d 54 19 be
       0.09772297 0.24308242 0.09480997 -0.14973469
0001f0 bf 5a f0 3e 7d 6f d3 3e 4e 4f 09 be 36 41 79 3e
       0.46944234 0.41295996 -0.13409159 0.24341282
000200 dc ce b3 3c 91 76 af 3e 10 fc 04 3f 12 64 91 3e
       0.021949224 0.34270146 0.51947117 0.2839666
000210 2a 51 cb 3e 13 53 32 3e a2 1e e3 bd 36 1a 5c bc
       0.3971036 0.17414503 -0.11089827 -0.013433984
000220 1a 2e c3 3e c3 2c 04 3e 38 ca 29 3d 0b 7e fb 3d
       0.3812111 0.129077 0.041452616 0.122799
000230 45 6e 27 3e 70 2a 80 be 2d 9e 96 be 12 f9 7b be
       0.16350658 -0.25032377 -0.29417554 -0.24606732
000240 32 5f 53 3e 11 95 1b 3e a5 31 83 3e 59 d4 ac 3e
       0.20641783 0.15193583 0.25623813 0.33755758
000250 8d 45 b9 3e 89 37 da 3d 30 fc c3 3e 36 91 df 3c
       0.36185876 0.10655124 0.3827834 0.027290922
000260 9a 20 82 be 0f e2 68 be 96 49 90 be c0 86 80 3e
       -0.25415498 -0.22742485 -0.28181142 0.25102806
000270 36 fd f1 bc 3a b8 d3 3d 12 02 b4 3e 53 1c 30 be
       -0.029539686 0.10337873 0.3515783 -0.17198305
000280 e4 32 4d 3e 2d fb 39 3e 58 da d2 bd 43 80 7c 3e
       0.20038944 0.18162222 -0.10295552 0.24658303
000290 c3 cd f7 bd 79 f2 98 3e ef 49 1b be 03 29 fa 3d
       -0.12099793 0.29872492 -0.15164922 0.122148536
0002a0 3d 98 d1 3e f5 8d 27 3e 0d 1d 6a 3e fa 92 0b be
       0.4093646 0.16362746 0.22862644 -0.13630286
0002b0 7c 62 82 3c 39 f4 ed 3d a0 5e 47 3d 8d 06 46 be
       0.015916102 0.116188474 0.048674226 -0.19338436
0002c0 f9 8c ba 3e 18 dc 9e be f3 9d 2a be 36 c6 af be
       0.3643568 -0.31027293 -0.16661815 -0.3433091
0002d0 21 0a 9c be db 61 41 be 32 89 1c be ff a5 73 bd
       -0.30476478 -0.18884985 -0.15286711 -0.059484478
0002e0 b3 27 a8 bd 59 17 1c be b0 c0 e8 3d 1c 8a 9a bd
       -0.08210697 -0.15243281 0.11364877 -0.075458735
0002f0 51 c9 57 be 06 40 15 3e e0 45 bd 3e 66 00 88 3e
       -0.2107289 0.14575204 0.36967373 0.26562804
000300 f6 de 88 bd ee 8c 17 be 3b a1 08 bd 0a b1 4c 3e
       -0.066831514 -0.14799854 -0.033356886 0.1998941
000310 d1 07 1b be 52 44 b1 be 7b a4 90 bd 38 74 90 3e
       -0.151397 -0.34622437 -0.07062622 0.28213668
000320 74 23 12 3d e3 96 48 be 81 2d c5 3e 7d 9c c4 3d
       0.035678342 -0.19588809 0.3851128 0.0960016
000330 3b 88 12 3e 34 23 9b 3c 93 46 8c 3e 63 5a cf 3e
       0.1430978 0.018937685 0.27397594 0.40498647
000340 38 f9 48 bd 44 54 2a be 78 05 99 3e 48 ba af 3c
       -0.0490658 -0.16633707 0.29886985 0.02145113
000350 47 dd c9 3b 70 56 23 be 0b 87 7b be 14 7f 9a be
       0.0061604115 -0.15950942 -0.24563234 -0.30175078
000360 fb 24 fd bd 88 01 f3 bc 20 33 c1 3e dc 9e b5 be
       -0.12360569 -0.029663816 0.37734318 -0.35472763
000370 f9 b8 1f be 80 58 94 bd e1 74 80 bd ab 75 06 bd
       -0.15597905 -0.072434425 -0.06272293 -0.03282706
000380 35 eb 95 3d f4 1d 9f 3e ab de 84 3e 04 0b 41 3e
       0.07320253 0.3107754 0.25951132 0.18851858
000390 89 bf c0 bd 09 89 ed 3e c4 57 4f 3e cf ce 83 be
       -0.094115324 0.46393612 0.20248324 -0.2574372
0003a0 fd 81 96 3e 13 80 3a be 55 30 9b be 95 23 2d be
       0.29396048 -0.18212919 -0.30310312 -0.16908105
0003b0 a5 37 08 3f b3 74 95 bd 80 76 1f 3e 37 ef 14 be
       0.53209907 -0.07297649 0.15572548 -0.14544378
0003c0 84 9a 01 3e eb 76 88 3e 08 c0 46 3d 9f e2 0a bd
       0.126566 0.26653227 0.04852298 -0.03390753
0003d0 88 19 74 3e c0 fd bc 3e d1 fb 2d bd 18 92 6a 3e
       0.23837864 0.36912346 -0.04247648 0.22907293
0003e0 9f ff 7b 3e ef f3 df 3d 96 97 4a bd a9 d0 06 3e
       0.2460923 0.109351985 -0.04946097 0.13165535
0003f0 df 82 cd bc e3 50 fe 3c 57 f8 f1 3e 9a b9 83 3e
       -0.025086818 0.03104443 0.4725978 0.2572754

blocks.1.synapse.weight_g f4 [128, 1, 1, 1, 1]
000000 41 fa e2 3e 8e 52 f3 3e 95 4a f7 3e c6 98 41 3f
       0.44331554 0.47523922 0.4829909 0.7562374
000010 9c ed e7 3e 10 a3 10 3f d3 96 37 3f 93 ca 42 3f
       0.4529847 0.56498814 0.71714514 0.76090354
000020 53 9a 28 3f 22 0e 8a 3f 85 46 0e 3f 74 a4 68 3f
       0.6586048 1.0785563 0.55576354 0.90875936
000030 d1 b1 09 3f dc 92 10 3f 1b 47 01 3f 29 f3 e1 3e
       0.5378695 0.5647409 0.50499123 0.4413083
000040 45 4a 3f 3f da 65 3c 3f f9 ae 31 3f 2c a7 31 3f
       0.747227 0.73592913 0.6940761 0.6939571
000050 48 71 7f 3e 67 75 c6 3e 8f 89 3d 3f f8 40 4a 3f
       0.24945557 0.38761446 0.7403802 0.79005384
000060 4d 59 82 3f 0b e8 8a 3f 5a 17 43 3f f8 21 62 3f
       1.0183502 1.0852064 0.76207507 0.8833308
000070 69 fe 1a 3f e6 02 1e 3f ac 43 13 3f b5 8c 1c 3f
       0.6054445 0.6172317 0.57525134 0.611522
000080 36 f9 63 3f 92 4c 18 3f 8b b5 19 3f f1 b9 45 3f
       0.8905214 0.5949184 0.6004264 0.7723685
000090 21 79 3b 3f a2 78 31 3f 6d 66 61 3f c2 80 39 3f
       0.73231703 0.69324696 0.88046914 0.72462094
0000a0 6d 5c 6e 3f 5e 90 39 3f 73 1c c9 3e 24 33 26 3f
       0.9310978 0.7248591 0.39279518 0.64921784
0000b0 03 e9 13 3f 3f 97 24 3f dd a2 04 3f 95 29 19 3f
       0.5777742 0.64293283 0.5181101 0.59829074
0000c0 ab 8a 27 3f c3 f7 22 3f de 26 2c 3f bf 36 ff 3e
       0.65445966 0.63659304 0.67246807 0.49846455
0000d0 20 b3 18 3f 19 f6 36 3f 50 8d e5 3e 9d 0c 64 3f
       0.59648323 0.71469265 0.44834375 0.89081746
0000e0 6e de 13 3f f2 f5 d4 3e 3c 37 46 3f d5 0b 0f 3f
       0.57761276 0.4159389 0.7742803 0.5587743
0000f0 7c 82 27 3f 3a d2 09 3f 78 bb 12 3f 9a d9 cc 3e
       0.6543348 0.53836405 0.57317305 0.40009767
000100 dc 08 94 3e 02 ed 1a 3f 55 59 0f 3f 52 09 1c 3f
       0.2891301 0.60517895 0.55995685 0.6095172
000110 bd 59 46 3f 82 06 d9 3e 43 52 8c 3f 7b 0d ec 3e
       0.7748068 0.42387778 1.0962604 0.46104035
000120 54 b8 00 3f b7 f4 3d 3f 0a 3e 3b 3f 99 90 4b 3f
       0.5028126 0.7420153 0.7314154 0.79517514
000130 22 fa 51 3f c5 75 0a 3f 9a d0 fa 3e 01 7e 23 3f
       0.820223 0.5408595 0.48987275 0.6386414
000140 f6 10 60 3f 41 3d f8 3e 5a 7e 1c 3f d9 c2 0a 3f
       0.8752588 0.48484233 0.611303 0.54203564
000150 ad 30 41 3f 81 dd 1a 3f b2 79 47 3f 5b 05 04 3f
       0.754649 0.6049424 0.7792007 0.5157067
000160 5a e9 17 3f 89 3e 80 3f f9 ff 09 3f d1 8f 0d 3f
       0.5934044 1.0019084 0.5390621 0.5529757
000170 bd 44 35 3f 6d b3 2f 3f e8 65 0b 3f 37 6d 45 3f
       0.7080801 0.68633157 0.5445237 0.77119774
000180 60 d7 c3 3e a1 23 36 3f 48 1a 46 3f 50 fe 47 3f
       0.38250256 0.71148115 0.7738385 0.78122425
000190 2e e3 28 3f 11 89 31 3f 37 a6 1b 3f 19 28 4d 3f
       0.6597165 0.6934977 0.608005 0.8013931
0001a0 65 9a 1c 3f 17 83 45 3f e5 4a 37 3f 82 5b 7a 3f
       0.6117309 0.7715315 0.71598655 0.9779588
0001b0 6e ff 03 3f 55 ab f9 3e 2b 42 38 3f f3 81 91 3f
       0.5156163 0.48763528 0.71975964 1.1367782
0001c0 2b bc 4e 3f 2a d7 94 3f fd eb ea 3e a4 34 10 3f
       0.8075587 1.1628163 0.4588317 0.56330323
0001d0 03 9d ee 3e 6d 1a 35 3f 63 23 62 3f 3f 8b 36 3f
       0.46604165 0.7074345 0.88335246 0.7130622
0001e0 58 38 1c 3f a1 00 1b 3f 47 2a 04 3f 18 fd 35 3f
       0.61023474 0.60547835 0.5162701 0.71089315
0001f0 89 fc 04 3f a5 bc 2a 3f 2f 2f 1a 3f 8d 59 26 3f
       0.5194784 0.666941 0.60228246 0.64980394

blocks.1.synapse.weight_v f4 [128, 1, 3, 3, 1]
000000 be be b2 3e e2 15 c4 3d ca 13 25 be 3a e3 20 bc
       0.3491115 0.09574486 -0.1612083 -0.0098198
000010 c5 09 9a 3e ee 58 53 3d 0f ab ec bd 95 43 99 bd
       0.3008558 0.05159848 -0.11556064 -0.074835934
000020 9e 2a 80 3d 11 ed a6 be 95 e3 98 bd 9f 7c 0e bd
       0.062581286 -0.32602742 -0.07465283 -0.034786817
000030 b4 36 8d 3e ee 90 95 3d 8c 21 12 3d d2 7e 01 3d
       0.27580798 0.07303034 0.035676524 0.031615086
000040 43 84 49 be 7e 59 5a be cc 44 12 3e 44 3f ad bd
       -0.1967936 -0.21323201 0.14284056 -0.084593326
000050 6e 07 da bd 8e 03 05 3e 80 92 56 3e ba b7 6c 3e
       -0.10645948 0.12989637 0.20954323 0.23116961
000060 32 41 46 3e e2 fe d0 be 66 ca 8e 3d b0 0f d4 3d
       0.19360808 -0.4081946 0.06972198 0.10354555
000070 9b e9 59 3c 44 0f 89 bb b7 5f 93 3e f0 67 84 3d
       0.013300325 -0.004182728 0.28783962 0.06465137
000080 a9 e4 c1 3e 0b 6c 73 3e 31 f7 37 3e dc 4c a1 3e
       0.37869766 0.23771684 0.1796539 0.31503952
000090 6e d8 2e bd c3 f1 b4 be 65 34 50 bd 1d 01 21 be
       -0.042686872 -0.353407 -0.050831217 -0.15723081
0000a0 31 f5 dc 3c 7b f8 12 3d ac 43 50 be 0c 93 a2 be
       0.026972385 0.0358815 -0.20338315 -0.31752813
0000b0 86 74 d2 3d 4b b2 77 3e f4 2e b9 bc d1 ee 82 3e
       0.10276131 0.24189107 -0.022605397 0.25572827
0000c0 ff 5b 97 bc 4b 68 7b 3e 31 53 36 3e 20 fb 53 be
       -0.018476484 0.24551503 0.17805173 -0.20701265
0000d0 0f 4a 86 3e 29 44 c9 bd 58 bb 37 3e 8a 8e 5f bc
       0.26228377 -0.09827454 0.1794256 -0.013644824
0000e0 b6 98 0a be 30 aa 84 be f0 22 06 be 75 70 d9 be
       -0.13534817 -0.25911093 -0.13099265 -0.4246861
0000f0 df 22 15 bc eb 00 7a bd 88 75 1d bf f2 ca e1 3d
       -0.009102552 -0.06103603 -0.61507463 0.11025037
000100 9a 33 4e bc cb d6 94 3e 83 e3 57 be ac 1c d0 bc
       -0.012585545 0.29070124 -0.21082883 -0.025404297
000110 2c f6 4a 3e 98 bb 85 3e a0 f4 4d 3e 01 88 f4 3e
       0.1982047 0.26119685 0.20112848 0.47760013
000120 a1 1e 76 be f9 7b c7 3d fd 3d 41 3e 5c b1 8f 3d
       -0.24035122 0.09740443 0.18871303 0.070162505
000130 a5 cf e3 3e 61 9f 99 3e 35 d4 5e 3e 5d 3d db bd
       0.44494358 0.3000441 0.21760638 -0.107050635
000140 71 49 21 be fb 57 50 3e 1c 5e f9 3b aa fd 79 3e
       -0.15750672 0.20346062 0.0076100957 0.24413171
000150 37 24 9e 3e 97 d1 de 3d ce 47 ec 3c b8 fc 00 3f
       0.30887005 0.1087982 0.028842833 0.5038562
000160 fc 47 6a 3e 2a 6a a3 3e 59 cb 5d 3e 1f 4a 20 3e
       0.22879022 0.31916934 0.21659602 0.15653275
000170 e8 50 78 3b d5 65 84 3e 82 12 b8 3e b4 aa 35 3e
       0.003789002 0.25858942 0.3595162 0.177409
000180 6e f8 56 be e0 77 fb 3c c4 cd ac bd 20 2b 11 bf
       -0.20993206 0.03069681 -0.08437684 -0.5670643
000190 75 e4 ba be b6 70 a8 be e1 be 2c 3e cb 7b 32 3d
       -0.36502424 -0.32898492 0.1686969 0.04357509
0001a0 f5 59 c8 bd 17 63 ef 3d 4c 72 f2 bd 2d 85 bf 3e
       -0.09782783 0.11688822 -0.11838207 0.37406293
0001b0 c2 7d 5a 3e 6e ee d4 bd 59 a0 c7 be 8e 37 4a 3e
       0.21337035 -0.10397039 -0.38989523 0.19747755
0001c0 73 09 79 be c1 99 0f be 7d 3d 95 bd 7c 18 83 3e
       -0.24320011 -0.14023496 -0.072871186 0.25604618
0001d0 6e 76 bc 3d ad 88 21 be b1 31 ba be e2 56 0e be
       0.09202276 -0.15774794 -0.36366037 -0.1390033
0001e0 b0 ec 27 bd 10 d8 a6 be 05 7c 67 be 8a 49 13 3e
       -0.040997207 -0.32586718 -0.22605903 0.14383522
0001f0 b3 58 28 be 1d 36 1d 3e e1 23 70 3e 53 f7 a0 3d
       -0.16440086 0.15352674 0.23451187 0.07859673
000200 2e 86 0a be 71 00 be 3d 9e 9c 48 be 13 0c bc 3c
       -0.13527748 0.09277428 -0.19590995 0.022954976
000210 df 2e 90 3e 9c f6 3c 3e c0 7c 83 3e 87 ac ac 3d
       0.2816076 0.18453449 0.25681114 0.084313445
000220 f2 70 0e bd 03 5d 51 3b 01 e8 b9 be c4 8f 38 be
       -0.03477568 0.0031946308 -0.36309817 -0.18023592
000230 b5 a2 aa 3e c9 3a 98 be 1e e3 cc bd b7 a1 23 3e
       0.3332726 -0.2973235 -0.10004257 0.15979658
000240 c1 6c ae 3e df ad 22 3e fb 8c 63 be ac d9 20 3d
       0.34067348 0.15886639 -0.22221749 0.039270088
000250 76 86 13 be 57 b3 a1 bd d9 75 da 3e bb 9f 7f bc
       -0.14406762 -0.078955345 0.42668036 -0.015602048
000260 7d f6 83 bd 76 37 a5 3e e3 09 b6 3e 72 67 70 3e
       -0.06443498 0.32268876 0.35554418 0.23476961
000270 0f ed b1 3d 85 0d 5e bc f6 52 13 3e 81 ca 98 3e
       0.086877935 -0.013553028 0.14387116 0.29841998
000280 e5 e2 60 3d e0 06 bc bd 75 24 58 3e 93 05 ec 3e
       0.054903883 -0.09180999 0.21107657 0.46098003
000290 89 8d 28 3e 1f 48 04 be 9d d7 3a be 82 2d 00 bd
       0.16460241 -0.12918137 -0.18246312 -0.0312934
0002a0 78 f8 6b 3e 82 d8 ab be a5 0b ef 3d 7d 07 a1 bc
       0.23044002 -0.3356362 0.11672143 -0.019656891
0002b0 36 5a de 3e 94 29 9a be fe 11 a0 be a0 9a be 3c
       0.434282 -0.30109847 -0.31263727 0.02326709
0002c0 08 af 1f be f2 71 e5 3d 4b e5 41 3d b0 f6 8b be
       -0.15594113 0.11203374 0.04733781 -0.27336645
0002d0 e5 0d c7 3c 9e b4 8c be 87 56 c1 bc 98 92 3f bd
       0.024298618 -0.2748155 -0.02360083 -0.046770662
0002e0 dc 0f b0 bc 34 c9 59 3c 17 b9 af bd 20 94 0c be
       -0.021491937 0.0132925995 -0.08580225 -0.1372838
0002f0 2a ab c5 3c 73 dd 9d bd d4 69 4e 3d 56 d4 01 bb
       0.024129469 -0.07708254 0.050393894 -0.00198104
000300 28 0a 4b be c0 4f 78 be ee 8a b9 3b 67 40 24 be
       -0.19828093 -0.24249172 0.0056623137 -0.16040193
000310 ca 92 09 3e ce ff 1c 3e 60 f1 a3 bd e6 40 25 be
       0.13434902 0.15331957 -0.08005023 -0.16138038
000320 80 fd 42 be ca 4f d7 bd 2c ff ca 3e 7a f2 d8 3d
       -0.19042015 -0.105132654 0.39647806 0.10593124
000330 f0 d0 05 be 0b 70 c1 3e 75 ae 48 3e 0b 33 56 be
       -0.13067985 0.37780795 0.195978 -0.20917909
000340 83 4c 14 3e b3 9c 13 3e ff 58 a6 be 16 73 72 3d
       0.14482312 0.14415245 -0.32489774 0.059191786
000350 4d 7a a6 be 7e b9 c7 be ea 2e c4 3c 24 40 ae 3e
       -0.32515183 -0.39008707 0.023948152 0.3403331
000360 e0 2a 53 3e c9 1c 8e 3e 83 43 27 3e b6 8f bb 3e
       0.20621824 0.27756336 0.16334347 0.3663308
000370 04 49 33 3e e2 67 17 bc f0 a0 96 3e e1 84 bc be
       0.17508322 -0.009241076 0.2941966 -0.3682013
000380 7b 88 b1 bd f5 c8 9f be b7 6e 7e bd b8 ac ae bd
       -0.0866861 -0.31208006 -0.062117305 -0.08529037
000390 e7 56 9e be fc 0f 2e be 44 6d 88 3d eb ac 92 3e
       -0.30925676 -0.16998285 0.06661466 0.2864755
0003a0 0d 44 85 3e ef e1 ba 3e 56 26 90 be 77 03 43 be
       0.2602848 0.365005 -0.28154248 -0.1904429
0003b0 b6 28 a8 be 71 be 22 be 77 b1 75 3d 27 71 cf be
       -0.3284356 -0.1589296 0.059983697 -0.40516016
0003c0 a9 e3 2e be 7b ed 18 be e5 6a 69 3e 1f 0b 5f 3d
       -0.17079033 -0.14934342 0.22794683 0.054453965
0003d0 4a d5 62 3e 4c fa 1a 3e 74 75 d4 be fc c9 e6 be
       0.22151676 0.15134543 -0.4149586 -0.45075977
0003e0 17 76 a4 be be d9 ca be 1f 1d 8b 3d 58 a6 3c 3e
       -0.32121345 -0.3961925 0.06792664 0.1842283
0003f0 3c 3e 5c 3e ce 0c 52 bd 0c a6 43 3e 93 ea 67 bd
       0.21508116 -0.051281743 0.1910631 -0.05662019

blocks.2.synapse.weight_g f4 [256, 1, 1, 1, 1]
000000 42 8f 2e 3f 0e 95 06 3f 8a c5 20 3f f8 cb 58 3f
       0.68187344 0.5257119 0.6280142 0.8468623
000010 89 77 32 3f 3d b5 f4 3e 6c be 4a 3f 2e 7c 6d 3f
       0.69713646 0.47794524 0.7919681 0.9276761
000020 e6 93 1c 3f ea 93 c7 3e 2e 6f f5 3e 98 42 39 3f
       0.61163175 0.38980037 0.47936386 0.7236724
000030 8d fa fb 3e 60 3f 1c 3f be 76 2c 3f 08 3c 4c 3f
       0.49214593 0.610342 0.67368686 0.797791
000040 26 ed 53 3f d3 b0 07 3f 63 e5 59 3f 63 c6 91 3f
       0.82783735 0.5300419 0.8511564 1.1388668
000050 86 e6 40 3f 4c 8b 54 3f a2 67 14 3f ca 57 33 3f
       0.7535175 0.8302505 0.5797063 0.7005583
000060 c8 fd 4c 3f b7 7d 43 3f ec 15 33 3f cf 41 02 3f
       0.8007474 0.763637 0.69955325 0.50881666
000070 75 c1 0d 3f 2d 4a 8d 3e 93 57 1d 3f 6a 84 fe 3e
       0.55373317 0.27595654 0.6146175 0.497104
000080 91 de 33 3f 4c 89 3e 3f 03 3d 50 3f 30 51 d8 3e
       0.70261484 0.7442825 0.81343096 0.4224944
000090 2d fb 27 3f 0b a3 1e 3f a1 a0 0f 3f 90 4b 30 3f
       0.6561764 0.61967534 0.56104475 0.688653
0000a0 52 60 02 3f 6a bf 0c 3f 2b 8a 2e 3f ec 49 1e 3f
       0.50928223 0.54979575 0.6817958 0.61831546
0000b0 da b1 38 3f cd dc a4 3e 77 00 b3 3e 0f 1b 1f 3f
       0.7214638 0.32199708 0.34961292 0.62150663
0000c0 73 7e 6b 3f db a3 62 3f 7e a5 44 3f 1e 75 56 3f
       0.9198982 0.88531274 0.7681502 0.83772457
0000d0 76 1b 49 3f cd c0 0e 3f 70 d7 42 3f e4 3f c7 3e
       0.7855753 0.5576294 0.7610998 0.38915932
0000e0 b0 1b f9 3e dc 0b 4e 3f 0b a1 24 3f d5 c7 41 3f
       0.48653936 0.80486846 0.6430823 0.75695544
0000f0 17 52 f6 3e cd 14 3d 3f 29 0a 20 3f 30 f0 f6 3e
       0.48109505 0.73859864 0.62515503 0.48230124
000100 20 35 3f 3f 99 c2 83 3f 0a d0 41 3f 93 ee 1f 3f
       0.7469044 1.0293761 0.7570807 0.6247341
000110 e5 ec 07 3f 07 8a 34 3f 92 92 22 3f d0 b5 43 3f
       0.5309585 0.70523113 0.635049 0.764493
000120 04 02 89 3f 3e 9b 2e 3f b1 91 0b 3f 51 d5 74 3f
       1.070374 0.6820563 0.5451918 0.95637995
000130 bb f3 1a 3f d6 9d 35 3f e5 47 90 3f b3 ce 0b 3f
       0.60528153 0.70943964 1.127194 0.5461227
000140 84 fd 28 3f c0 bd 1f 3f 2e 27 4c 3f 04 5e 0b 3f
       0.66011834 0.6239891 0.79747283 0.5444033
000150 48 77 08 3f d7 04 11 3f 44 13 40 3f 3a 3b ff 3e
       0.5330701 0.5664801 0.75029397 0.49849874
000160 23 a4 ce 3e c4 0a 43 3f b4 29 19 3f d2 22 49 3f
       0.403596 0.761883 0.5982926 0.78568757
000170 57 28 2f 3f fd f2 11 3f f5 1f 2d 3f eb 7e 47 3f
       0.6842093 0.57011396 0.6762689 0.77928036
000180 53 48 05 3f e3 57 24 3f 17 93 34 3f 90 53 28 3f
       0.52063483 0.64196604 0.7053694 0.65752506
000190 19 f5 eb 3e 07 1b 51 3f de 07 19 3f 88 44 1d 3f
       0.46085432 0.81681865 0.5977763 0.61432695
0001a0 ec c5 2f 3f f1 71 2c 3f 66 22 1b 3f 4e 3f 2a 3f
       0.6866138 0.6736136 0.6059936 0.66502845
0001b0 a1 9a e3 3f fe 0f ce 3e 24 68 4e 3f f6 74 07 3f
       1.7781564 0.40246576 0.80627656 0.52912843
0001c0 ba 69 26 3f 68 22 10 3f cf 28 11 3f c6 31 02 3f
       0.65005076 0.563025 0.56702894 0.508572
0001d0 73 21 34 3f f6 aa f9 3e 95 88 55 3f 48 3f af 3e
       0.7036354 0.48763245 0.8341153 0.34227967
0001e0 53 1b 13 3f 24 7d 15 3f 91 74 1f 3f 83 b2 30 3f
       0.5746357 0.58394074 0.6228724 0.6902239
0001f0 28 10 d9 3e 60 7b 58 3f 27 52 fc 3e 6c e3 c5 3e
       0.4239514 0.84563255 0.49281427 0.38650072
000200 e0 a9 e6 3e 1e 5f 47 3f 65 50 65 3f 67 39 2f 3f
       0.4505148 0.7787951 0.895758 0.68446964
000210 f7 00 07 3f d3 7b cc 3e 9a 04 1b 3f 86 08 48 3f
       0.5273585 0.3993822 0.60553896 0.78138006
000220 70 9f 67 3f 4a ef 7b 3e a7 f7 16 3f 18 7a 99 3e
       0.9047766 0.24603 0.5897164 0.29975963
000230 e9 11 53 3f 5d a2 2a 3f fd 8c f2 3e 77 9e 0e 3f
       0.82449204 0.66653997 0.4737319 0.5571055
000240 4a fb 21 3f bc b6 37 3f eb 27 80 3f 41 86 71 3e
       0.6327406 0.71763206 1.0012182 0.2358637
000250 fa af 83 3f ff 89 30 3f d3 c7 dc 3e 49 d6 38 3f
       1.0288079 0.68960565 0.43121204 0.72201973
000260 49 2f 5c 3f df 7e 02 3f 4c a0 61 3e 95 72 2f 3f
       0.8600965 0.5097484 0.22033805 0.68534213
000270 ef 8b 12 3f 9a dc 0f 3f 2d 16 11 3f 00 0a fd 3e
       0.5724477 0.56195986 0.5667446 0.49421692
000280 96 75 55 3f c5 8a 4d 3f 5e b1 d3 3e ee 73 e5 3e
       0.83382547 0.8028987 0.41346258 0.4481501
000290 ff f0 07 3f 2f 34 0d 3f 6e c3 d6 3e 2e 89 2a 3f
       0.53102106 0.5515775 0.41945976 0.6661557
0002a0 7c 56 31 3f 2c 6f 48 3f 38 a5 5e 3f a7 ef 44 3f
       0.6927259 0.78294635 0.86970854 0.7692818
0002b0 1f 8b 58 3f 82 ed 0e 3f c1 4c 01 3f 2e c8 0e 3f
       0.8458728 0.5583116 0.5050774 0.557742
0002c0 5d 4c 3a 3f 62 73 fa 3e 3c bb 4c 3f 5f 6a a0 3f
       0.7277277 0.48916155 0.79973197 1.2532462
0002d0 d9 49 12 3f 6b 64 07 3f e6 5f 2d 3f 81 0b 62 3f
       0.5714393 0.528876 0.67724454 0.88298804
0002e0 94 55 37 3f 09 e4 f0 3e d2 34 c0 3e 56 b7 c8 3e
       0.71614957 0.47048977 0.375403 0.39202374
0002f0 49 88 bd 3e 00 56 38 3f 0a 06 25 3f 37 ca 43 3f
       0.3701804 0.72006226 0.6446234 0.7648043
000300 b3 94 2c 3f 59 ea 4b 3f f3 e1 08 3f 8b 88 2f 3f
       0.67414397 0.7965446 0.5346977 0.68567723
000310 56 ff 39 3f dd 35 4e 3f 4c cc 06 3f 1e 63 ea 3e
       0.72655237 0.8055094 0.5265548 0.45778745
000320 61 f5 0f 3f aa 49 16 3f 38 d7 06 3f 43 cf af 3e
       0.56233793 0.5870615 0.5267215 0.34337816
000330 10 ee 5e 3f fb b3 e6 3e 0f ea cc 3e 80 00 70 3f
       0.87082005 0.4505919 0.40022323 0.9375076
000340 ef 30 52 3f 16 d1 59 3f 23 b2 31 3f 37 14 2c 3f
       0.82105917 0.85084665 0.6941244 0.67218345
000350 a4 50 2f 3f 16 3a 23 3f 7e 1a 62 3f f3 83 65 3f
       0.6848242 0.6376051 0.88321674 0.89654464
000360 ef 48 30 3f aa 6b 1d 3f 34 59 cb 3e 71 c0 b7 3e
       0.6886129 0.6149241 0.39716494 0.3588901
000370 ad 57 1c 3f 04 53 e4 3e 44 7c 95 3f ad 46 9e 3f
       0.6107128 0.44594586 1.1678548 1.2365319
000380 b1 7e 47 3f 20 94 79 3f f9 b7 52 3f 9e c3 86 3f
       0.7792769 0.97491646 0.8231197 1.0528448
000390 61 86 fc 3e 77 39 e0 3e 41 4a 0f 3f 1c b9 27 3f
       0.49321273 0.43793842 0.5597268 0.6551683
0003a0 61 88 e0 3e af 63 c5 3e d3 bc 2b 3f 61 55 21 3f
       0.4385405 0.38552615 0.67085 0.630209
0003b0 6a b9 58 3f db 30 21 3f c6 b8 05 3f 07 b0 0c 3f
       0.8465792 0.6296517 0.52235067 0.54956096
0003c0 e6 4e 7a 3f cc c5 10 3f 3f 48 4f 3f 24 e7 84 3f
       0.9777664 0.56551814 0.80969614 1.0383039
0003d0 98 1c 07 3f dc d0 00 3f 1e d4 6d 3f d1 e5 36 3f
       0.52778006 0.50318694 0.9290179 0.7144442
0003e0 de 4c 16 3f b4 90 1d 3f 5b 1c 17 3f 7b 56 03 3f
       0.5871104 0.61548924 0.5902764 0.51303834
0003f0 bb c7 16 3f fa d4 f5 3e c6 88 f6 3e 8b 24 31 3f
       0.58898515 0.4801405 0.48151225 0.69196385

blocks.2.synapse.weight_v f4 [256, 1, 3, 3, 1]
000000 c9 72 27 3e 6c e4 03 3e ca e0 dc be b5 20 8c bd
       0.16352381 0.12880105 -0.4314025 -0.06842176
000010 e9 b4 4b 3e 8c 14 14 3b 54 1a da 3c 5b 67 d2 bd
       0.1989323 0.0022595255 0.026623882 -0.1027362
000020 11 8f d4 3e 84 bf 64 3e 83 76 b7 3c 45 a5 e3 be
       0.415154 0.22338682 0.022395378 -0.44462028
000030 65 91 a3 be 0c f8 42 be 97 7d 06 be 43 db 0a 3e
       -0.31946865 -0.19039935 -0.13133846 0.13560204
000040 7f af 7a 3d a6 83 9d bd aa 49 0b bf 00 20 20 be
       0.061202522 -0.076911256 -0.5440928 -0.15637207
000050 83 05 10 3e 22 a8 b0 bd 56 61 59 3e ea 6b 4d bc
       0.14064603 -0.08625819 0.21228537 -0.012537936
000060 87 e8 82 bd 5f 87 c8 bd 7e 03 98 3e 2c 9a 98 3e
       -0.06392007 -0.09791445 0.29690164 0.29805124
000070 e9 f8 78 3e 02 94 14 bd ec e6 5d 3e e4 d1 c3 be
       0.24313702 -0.036273964 0.21670121 -0.3824607
000080 5d 21 35 3e ad 9b ca 3e db 17 be be e4 4b f9 3d
       0.17688508 0.39571896 -0.37127575 0.12172678
000090 67 8f f8 bc 5f 16 61 3e 4d 22 13 bc 89 e8 ad be
       -0.030341817 0.2198119 -0.008980346 -0.33966473
0000a0 f2 9c 84 bd 84 4e 69 be ef 3b 38 3e 34 03 04 3e
       -0.064752474 -0.22783858 0.17991613 0.12891847
0000b0 1e 89 07 bf be 3f d0 be 0b 43 9d bd 6e 73 88 be
       -0.529436 -0.4067363 -0.07678803 -0.26650566
0000c0 53 1f 19 3e ac 09 92 3e df 22 dc bd 96 46 44 be
       0.14953355 0.28523004 -0.10748839 -0.19167551
0000d0 67 13 46 3e 95 53 7c be fa 99 a1 be 6a 8c 31 be
       0.19343339 -0.24641259 -0.31562787 -0.1733872
0000e0 aa a0 de 3d 84 3b 20 3e 6f 42 a3 3e 53 99 f4 3e
       0.10870488 0.15647703 0.31886622 0.47773227
0000f0 08 12 97 3c 0d 89 78 3e 2c c0 8b 3e b6 00 f6 bd
       0.018441215 0.2427103 0.27295053 -0.12011854
000100 9d 07 3d be d0 e9 b2 3d ca 7d 52 be b0 52 18 3e
       -0.18459935 0.087360024 -0.20555797 0.14875293
000110 ab fd f9 3d ed c8 b1 3e e8 60 ad 3d d2 e8 18 3e
       0.122065865 0.34723607 0.08465749 0.14932564
000120 e4 da 0f be 17 2d 30 bd c4 46 90 3e 7a 26 62 3e
       -0.14048344 -0.04301175 0.2817899 0.2208499
000130 23 9f ba 3d 0e e3 1f 3e 0a d4 b9 3e fe 1b 18 3b
       0.09112384 0.15613958 0.36294585 0.0023210044
000140 b3 87 9a 3c 53 fd 83 be 38 4e 95 be 98 3f b9 bd
       0.018863535 -0.2577921 -0.2916124 -0.09045333
000150 98 19 80 be fe 5f a2 be f6 a8 8c 3d ae 22 31 be
       -0.25019526 -0.3171386 0.06868164 -0.17298386
000160 08 3e ff 3b 7e 2a d5 bd de dc 78 3e 84 32 03 3e
       0.007789377 -0.10408495 0.24303004 0.12812239
000170 9a ee eb bc 32 a1 04 3e 47 c3 bb 3e 8c 86 27 be
       -0.028800298 0.12952116 0.36672422 -0.1635992
000180 ef cd 9d be 14 d7 49 be a1 cd 82 3d 7e ab a3 be
       -0.30821177 -0.19710952 0.06386877 -0.31966776
000190 e5 86 bf bd 2f c9 e6 be 6b aa b9 3d e5 09 3e be
       -0.09351901 -0.45075366 0.09065708 -0.18558462
0001a0 98 f5 01 3e f1 55 28 bc ed 10 06 be cd 0d 81 be
       0.12691343 -0.010274396 -0.13092394 -0.25205842
0001b0 70 1d 6f 3c 98 3e 81 3e c6 a3 05 3e b5 2e ff bd
       0.014594421 0.25243068 0.13050756 -0.124600805
0001c0 a0 1f bf 3d 18 81 10 3f 7c b0 15 be b2 62 9c bc
       0.09332204 0.5644698 -0.14618105 -0.01909003
0001d0 24 1f a5 bd 36 d7 f3 3d 6c b1 bf 3d 81 ff 1c be
       -0.0806258 0.119062826 0.093600124 -0.15331842
0001e0 18 7a 0a bd b4 65 1f 3e 11 a7 e7 be c8 cc b8 bd
       -0.033807844 0.1556614 -0.4524465 -0.09023434
0001f0 b5 3a 4f be b2 0e a9 be b9 0d b0 3e c6 61 2d 3e
       -0.20237239 -0.33019024 0.3438547 0.16931829
000200 7b db bc 3e 80 47 dc 3d 2c ae 08 bd 2c d2 33 3e
       0.368862 0.10755825 -0.03336923 0.17560643
000210 e5 af a3 3d 91 83 22 3d 2d f7 83 3e bf 04 a5 3d
       0.079925336 0.039676253 0.25774518 0.08057546
000220 35 d4 70 3e 45 3d 57 bb 12 1c c9 3d 03 70 4e 3e
       0.2351845 -0.0032842916 0.09819807 0.20159917
000230 be d8 d0 bd b0 85 87 be c5 46 57 be 8c 7f db be
       -0.1019759 -0.26469183 -0.2102309 -0.42870748
000240 f2 c8 59 3e 1c 08 cb 3d e8 66 cb 3c 1c d1 8f 3e
       0.21268061 0.09913656 0.024829343 0.28089225
000250 07 9c 0b 3f d0 9f 74 3e f9 41 f6 3b fc e6 1c 3c
       0.54534954 0.23889089 0.007515189 0.009576555
000260 00 0f cf be 19 88 85 3d 2f 26 44 be 71 b8 88 3e
       -0.40441132 0.06520099 -0.19155191 0.26703218
000270 46 7d 9c bc 56 59 94 3d b1 9d e2 be 30 a7 b4 be
       -0.019102704 0.07243602 -0.44260934 -0.35283804
000280 1d f4 a4 3c 63 e4 76 be 81 99 08 be 9b 62 27 be
       0.020135934 -0.2411056 -0.13339807 -0.16346209
000290 f9 11 d7 bd 34 d6 32 be 06 d7 2e be 31 6c 84 bd
       -0.10501475 -0.17464525 -0.17074212 -0.064659484
0002a0 0f 41 ad be 5a 00 49 be ac ed 08 be de 36 dc 3d
       -0.33838698 -0.1962904 -0.13371915 0.107526526
0002b0 61 e3 c9 be e6 ac 98 bd 54 c0 4b 3d bd 3a 52 be
       -0.3943129 -0.07454853 0.049743965 -0.2053022
0002c0 9b 4b f3 bd 63 62 05 bf 26 c9 7f be a0 26 8a be
       -0.11879655 -0.5210325 -0.24979076 -0.26982594
0002d0 13 e3 72 be e7 fa 8d be 53 5c 90 be 5b bf 70 3e
       -0.23719434 -0.27730486 -0.28195438 0.23510496
0002e0 36 a9 b5 be 3c bf 65 be 58 0c 77 3e ff c5 af be
       -0.3548066 -0.22436231 0.24125803 -0.34330747
0002f0 42 70 a3 3e 50 35 af 3d f2 6d 01 3e 8e 2a cc be
       0.31921583 0.085550904 0.12639597 -0.39876217
000300 01 bf c8 3e 25 6e e2 3e 8a f8 87 3e 1c 8e 31 be
       0.39208224 0.4422466 0.26556808 -0.17339367
000310 9a 3b 9e 3e 0d 3a 43 be 0c c3 67 be 1c ae 67 be
       0.30904847 -0.19065113 -0.22632998 -0.22625011
000320 0c 81 b7 be 25 a6 b7 3e e2 08 ff 3d 47 cb a5 bd
       -0.35840642 0.35868946 0.12452866 -0.08095413
000330 8a f2 1c 3e 33 33 00 3e 2a 9a 47 3e 38 20 58 3e
       0.15326896 0.12519531 0.19492403 0.2110604
000340 5b 0b 4b 3e 30 95 e2 bd 1a 13 82 be 60 81 40 bd
       0.1982855 -0.110636115 -0.25405198 -0.04699838
000350 bf 7e d6 bd 57 4f 22 be 3b 06 b4 be 3c d8 bc 3c
       -0.10473394 -0.15850578 -0.35161003 0.023052327
000360 6a 87 13 be 6a b4 96 be 8c a2 60 be 07 20 97 be
       -0.14407125 -0.2943452 -0.21937007 -0.29516622
000370 18 fc 9e be 23 35 c6 be a7 3b 13 3e 15 25 91 bd
       -0.31051707 -0.38712415 0.14378224 -0.07087151
000380 76 05 04 be c4 54 15 be ab 8d 99 bc 60 54 84 3e
       -0.12892708 -0.14583117 -0.01874431 0.25845623
000390 88 e5 98 3e e7 02 c0 3e b9 3d ad 3e 0f ab a4 3d
       0.29862618 0.37502214 0.33836153 0.08040439
0003a0 9a 05 34 3c 41 3e 7e 3d ce eb 10 3e 36 65 2f be
       0.010987664 0.06207109 0.14152452 -0.17128453
0003b0 20 86 14 3e 71 39 86 3c eb 63 0c bf 95 e1 31 3e
       0.1450429 0.016384812 -0.5483996 0.17371209
0003c0 bd b2 38 3d ae 87 df be 24 b5 38 be 46 58 8e 3e
       0.045092333 -0.43658203 -0.1803785 0.27801722
0003d0 ca 5f 21 3e 6b a0 87 be 24 98 bc 3e 70 2f eb bc
       0.15759197 -0.26489577 0.36834824 -0.028709143
0003e0 0b 95 16 3e 4f 30 26 3e 99 ad 91 be c8 d2 30 bc
       0.14705293 0.16229366 -0.28452757 -0.010792442
0003f0 1c 4b 3d 3e 30 d7 33 3e 32 17 72 3d 2c 82 80 3e
       0.18485683 0.17562556 0.059104152 0.25099313

blocks.3.synapse.weight_g f4 [256, 1, 1, 1, 1]
000000 fb be 45 3f 6d 08 27 3c 44 6b d0 3e d6 d3 a4 3e
       0.7724454 0.01019488 0.40706837 0.32192868
000010 6c fe 87 3e 7f d5 46 3f ce c1 23 3e 23 d2 c0 3e
       0.26561296 0.7766952 0.159919 0.37660322
000020 81 a4 58 3f 93 89 7d 3e 04 d7 ca 3e 4e 45 2b 3e
       0.84626013 0.24759512 0.3961717 0.16725656
000030 a8 b7 4e 3f 5e 75 99 3e d5 c9 81 3f bc 0e 70 3f
       0.8074899 0.29972357 1.0139719 0.9377248
000040 5a f8 92 3e 28 0d b6 3c 8c 48 52 3f f0 31 43 3f
       0.28705102 0.02222307 0.8214195 0.76248074
000050 c7 bd 60 3e 9f 0f 57 3f 2d bd 0e 3f bf e9 c4 3d
       0.21947394 0.8400821 0.5575741 0.09614896
000060 e1 db 32 3e a2 86 cc 3e a6 6f 26 3f 4b 00 35 3f
       0.1746669 0.39946467 0.6501411 0.7070357
000070 bc e2 a9 3e 8b aa 31 3f a1 98 96 3e 50 38 2e 3f
       0.33180797 0.6940085 0.29413322 0.68054676
000080 a0 b5 68 3f 87 28 30 3f f5 e1 00 3f d7 2e 46 3e
       0.9090214 0.6881184 0.50344783 0.19353805
000090 48 0f 81 3f d5 d3 c9 3e 44 26 64 3e 09 26 e1 3e
       1.0082788 0.39419428 0.22280222 0.4397433
0000a0 0c 5c c4 3e 68 66 82 3e 1b 51 e1 3e 95 cc 1e 3f
       0.38351476 0.25468755 0.4400719 0.6203092
0000b0 07 c2 4a 3f 77 1b 21 3e 42 a1 56 3f 89 96 36 3f
       0.7920231 0.15733133 0.8383981 0.7132345
0000c0 a0 20 ae 3e 07 32 fa 3e 48 4c 31 3f f8 43 74 3f
       0.34009266 0.48866293 0.6925702 0.9541621
0000d0 f9 bc 39 3e 94 9c c8 bc ad 90 66 3f bd e5 9b 3e
       0.18138494 -0.024488725 0.9006451 0.30448714
0000e0 ef 34 21 3f 57 3e 9b 3c cd 2b 0b 3f 31 1c 7c 3f
       0.62971395 0.018950624 0.5436371 0.98480517
0000f0 e6 f4 a0 3e bf ed 07 3f 2d 33 5e 3f 7e f5 1d 3d
       0.31436843 0.53097147 0.8679684 0.038564198
000100 27 f1 aa 3e bf 0f 5f 3f 03 fb bc 3e d5 cf 63 3f
       0.3338711 0.871334 0.36910257 0.88989
000110 22 91 36 3e f4 c5 1d 3f b0 2e 2b 3e 8f dc d7 3e
       0.17828801 0.6163018 0.16717029 0.4216046
000120 8a 42 0a 3f 76 3f c1 3e 13 18 62 3f 19 37 87 3f
       0.5400778 0.3774373 0.88317984 1.056369
000130 f8 0c 16 3f 0e 51 56 3d 86 a2 8a 3f c0 37 e4 3e
       0.5861354 0.052323394 1.0830848 0.44573784
000140 13 8e ca 3e 38 2b 3e 3f 4e a4 cf 3e db 5f 6f be
       0.3956152 0.74284697 0.40555042 -0.2337641
000150 14 12 9e 3d 9d 2c 46 3f 21 28 24 3f 80 25 58 3e
       0.07718292 0.77411824 0.6412373 0.21108055
000160 11 51 80 3f fd 71 25 3e 13 16 72 3e 9f 57 f1 3e
       1.002474 0.16156764 0.23641233 0.47137162
000170 43 7a 3b 3f 7f c6 40 3b da 11 84 3e bd ed f6 3d
       0.7323343 0.0029415188 0.2579487 0.12057064
000180 c6 36 a4 bd d6 e0 10 3f a2 77 6d 3f e5 a6 e5 3b
       -0.0801826 0.5659307 0.9276067 0.007008421
000190 aa 9b 31 3e 5d 9e 9c 3f 12 f7 98 3e 02 3b de 3d
       0.17344537 1.2235829 0.29876 0.108510986
0001a0 29 d3 18 3f 34 8c 56 3f b8 82 0a 3f 27 13 47 3f
       0.59697205 0.83807683 0.5410571 0.777636
0001b0 d6 f8 0c 40 ed de b5 3e 50 25 35 3f 4b 1c 70 3f
       2.2026877 0.3552164 0.7076006 0.9379317
0001c0 e4 f1 f0 3e 36 53 ce 3e fa ed 83 3d 21 23 32 3e
       0.47059548 0.4029786 0.06441875 0.17396213
0001d0 58 6c e6 3e 6b 5a 83 3f 5c 84 22 3f 5e 78 2d 3f
       0.45004535 1.0261968 0.63483214 0.6776179
0001e0 b6 4e d0 3e b3 e7 13 3e be 47 3a 3f 87 ab af 3e
       0.40685052 0.14443855 0.7276572 0.34310552
0001f0 79 96 02 3f a2 cb 37 3f 20 48 28 3f 5d 5e 54 3e
       0.51010853 0.71795094 0.65735054 0.20739122
000200 57 d9 5b 3f e5 61 ce 3e bf 65 4c 3e be 3d 61 3f
       0.8587851 0.40309063 0.19960688 0.87984836
000210 a4 6f e8 3e 93 fb 87 3e ba 76 ee 3e 6b ba 91 3e
       0.45397675 0.26559123 0.46574956 0.28462538
000220 48 6f 82 3f 24 33 eb 3d 5a 37 21 bd 02 0f 27 3f
       1.019021 0.11484364 -0.039359428 0.65257275
000230 2b 91 7c 3f 71 67 e6 3e 1f da ba 3e c6 f9 a7 3e
       0.9865901 0.45000795 0.36494538 0.3280775
000240 12 bd d2 3e a0 84 a1 3f 0a a9 6a 3f 56 cf be 3e
       0.41159874 1.2618599 0.91664183 0.3726756
000250 5b ae 8b 3f 89 47 8b 3e f1 66 d8 3e f1 7e 19 3e
       1.0912584 0.27203014 0.42266038 0.1498983
000260 c8 e0 4e 3f 4d 88 c3 3d e4 54 0f 3f c5 39 a9 3d
       0.8081174 0.09547482 0.5598891 0.08262972
000270 04 6a de 3e 38 ca d4 3d 73 55 3a 3f 1e 76 51 bd
       0.43440259 0.10390133 0.72786635 -0.051138036
000280 e0 94 06 3f 65 55 f7 3e fc 77 36 3d 0c 9d 48 3f
       0.52570915 0.48307338 0.04454802 0.78364635
000290 33 23 c0 3d 73 64 8f 3f 37 36 ac 3d ad ed 70 3e
       0.09381714 1.120253 0.08408778 0.23528166
0002a0 61 9e 6e 3f 2a a6 31 3f 61 e5 36 3f 95 2d 41 3f
       0.9321042 0.6939417 0.71443754 0.7546018
0002b0 a8 6e 27 3f 37 d4 fc 3e ee e7 7b 3f b7 fa 2b 3f
       0.65403223 0.49380657 0.9840077 0.67179435
0002c0 a5 76 43 3f 64 18 5b 3e fb 36 27 3f 29 3a 90 3f
       0.7635291 0.21396023 0.6531827 1.1267749
0002d0 92 62 47 3e 0f a3 04 3f ff c1 7f 3f 68 0a db 3e
       0.19471195 0.5181131 0.9990539 0.42781377
0002e0 5b 3e 91 3e 78 2b 5f 3f 6a d1 33 3f 84 87 62 3e
       0.28367886 0.87175703 0.70241416 0.22122008
0002f0 75 12 31 3f 7f 2c 2c 3f ef 72 d8 3d fc 75 53 3f
       0.6916879 0.67255396 0.10568797 0.82601905
000300 23 19 55 3f 22 c2 4a 3f 03 f7 19 3f 67 36 95 3e
       0.8324148 0.79202473 0.60142535 0.29143068
000310 3a b3 2b 3f 46 5e 07 3f 68 44 57 3f 8d 57 aa 3e
       0.67070353 0.52878225 0.84088755 0.3326992
000320 c8 47 0c 3f b2 3e 0c 3f 9b 55 c2 3e ea 0f 26 bd
       0.5479703 0.54783165 0.37955937 -0.04054252
000330 3d d0 72 3f 78 55 11 3f d5 97 0a 3f 7d 1f f4 3e
       0.94848996 0.5677104 0.5413793 0.47680274
000340 33 ef 70 3f b1 d2 15 3f 3d 56 8a 3f 12 e8 1d 3e
       0.9411499 0.58524615 1.0807568 0.15420559
000350 9d 91 79 3e 34 80 6d 3e 9b 45 4c 3f b5 ac fa 3e
       0.24371953 0.23193437 0.7979371 0.4895989
000360 34 a2 14 3f 14 71 c6 3e f3 a6 c4 3e 28 5d b3 3e
       0.5806 0.38758147 0.38408622 0.3503201
000370 1a 33 48 3f 12 7f 19 3f 37 b1 67 3f a7 c7 6f 3f
       0.78202975 0.5995952 0.90504783 0.9366402
000380 d8 d6 d1 3e f3 c0 44 3f 34 b3 06 3f 28 08 18 3f
       0.40984225 0.7685692 0.5261719 0.59387445
000390 30 4c 1c 3e dc 3d 5f 3f 14 41 55 3f 9f 51 fb 3e
       0.15263438 0.87203765 0.83302426 0.4908571
0003a0 ce bd 11 3d eb 57 3f 3e 7b fb b5 3e e4 2e 27 be
       0.035581402 0.18685882 0.35543427 -0.16326481
0003b0 6b 00 3b 3f e6 f4 79 3f 8e 92 f7 3e 2a 49 fb 3d
       0.7304751 0.9763931 0.48354 0.12269814
0003c0 99 8d dc 3e 23 84 0d 3f d6 12 86 3f 2a a5 86 3f
       0.4307678 0.5527975 1.0474498 1.0519154
0003d0 9d 9a fd 3d 7d 5f 55 3f b3 3a 53 3f 79 39 de 3d
       0.12383006 0.8334883 0.8251144 0.10850806
0003e0 e0 0b 1f 3e f4 a3 d1 3e 76 65 18 3f af 1e a6 3e
       0.15531874 0.409454 0.5952982 0.32445285
0003f0 a8 51 54 3f ff 0f 02 3f b9 f3 1e 3f 04 ea 44 3e
       0.829371 0.5080566 0.6209064 0.19229895

blocks.3.synapse.weight_v f4 [256, 1, 1, 1, 1]
000000 bb 0d 3f 3f c3 f6 f0 bd 34 04 29 3f 3b 7f 23 3e
       0.74630326 -0.11765816 0.6602204 0.15966503
000010 23 ac 8c be ec 1a 67 3f 5a e1 aa 3d 31 ae 92 bc
       -0.2747508 0.90275455 0.08343764 -0.017905327
000020 94 88 4e bf 38 69 7a 3e ee 1a e6 3e 6f cb 5d be
       -0.8067715 0.244542 0.4494242 -0.21659635
000030 e4 d4 2b bf ff ec dc 3e 7d c2 64 bf 4e b8 5d bf
       -0.6712172 0.43149564 -0.89359266 -0.8660935
000040 e8 b5 90 bd 73 98 63 be 78 50 72 bf 0f ca 22 3f
       -0.07065946 -0.22226124 -0.94654036 0.63589567
000050 2d b1 73 be 89 d8 51 3f 70 3d 14 3f a6 65 c8 bd
       -0.23798056 0.8197103 0.57906246 -0.09785013
000060 aa 4b 52 be 6e de 9e be fe 66 5b bf f1 5f 4a 3f
       -0.20536676 -0.31029075 -0.8570403 0.79052645
000070 a9 8d da 3e 3c 58 3a bf c4 a0 85 be 48 51 39 3f
       0.42686203 -0.72790885 -0.26099217 0.7238965
000080 c6 af 63 bf 7e 85 3a 3f 1f 91 93 be 49 a5 29 3e
       -0.88940084 0.7285994 -0.28821656 0.16566958
000090 7e 1b 7b 3f 2f 5b cc 3e f0 8e 81 3e 83 65 ce 3e
       0.98088825 0.39913318 0.25304365 0.40311822
0000a0 0c 5c c4 3e 68 66 82 3e d0 a9 ec be e0 a9 12 3f
       0.38351476 0.25468755 -0.46223307 0.5729046
0000b0 8a 8a 14 bf 4d 93 6e be 86 14 6b bf 9a bb 12 bf
       -0.58023894 -0.23298378 -0.9182819 -0.5731751
0000c0 76 94 c6 3e 2c fb 04 3f ad 2a 8d be f4 47 72 bf
       0.38785142 0.5194576 -0.27571622 -0.9464104
0000d0 6b 7f a4 3e 46 1f 20 3e 02 30 f8 be 5d cc c9 3e
       0.32128462 0.1563693 -0.48474127 0.3941373
0000e0 bd 37 54 3f 0c 17 92 bd ac 60 28 3f 6a 20 6d bf
       0.8289755 -0.07133302 0.6577251 -0.92627585
0000f0 fd 30 ef 3e b0 69 fa 3e 60 0b 2d 3f 89 20 cd 3d
       0.46717063 0.48908758 0.6759548 0.10015971
000100 0f ff 3f be 98 30 28 bf 28 e2 a8 be 42 ce 71 3f
       -0.18749641 -0.6569915 -0.32985044 0.9445535
000110 08 13 3c 3e 38 54 25 bf 16 c8 3f be d8 ce b9 be
       0.18366635 -0.6458163 -0.1872867 -0.36290622
000120 22 bc 03 3f 1b 80 ed 3e 7b 1d f7 be c5 7f 24 bf
       0.5145894 0.463868 -0.4826468 -0.6425746
000130 14 7c 24 bf 6d b6 62 bb 0f ef 34 bf 54 98 06 3f
       -0.6425183 -0.0034593598 -0.70677274 0.52576184
000140 fe af b8 3e 96 83 3a 3f 08 8e 5e be c7 51 6d 3d
       0.3607177 0.72857034 -0.21733868 0.057939317
000150 51 4f 8d bd 59 3b 41 bf e3 4e 17 3f 04 be df be
       -0.06899894 -0.7548118 0.59104747 -0.43699658
000160 01 a7 49 bf 34 05 1d 3e 45 ad 89 3e 2a 4f bc be
       -0.7877045 0.15334016 0.26890007 -0.36779147
000170 7a 64 05 bf f2 23 69 3d da e4 39 be 6c 12 d0 bd
       -0.5210644 0.056919046 -0.18153706 -0.10159764
000180 c9 90 c7 3c 2a 17 0f bf 6e b9 44 3f fc f5 30 bd
       0.024361031 -0.5589472 0.76845443 -0.04320334
000190 b1 da 04 be 5c 9d 73 3f df 55 80 be 99 02 b9 bc
       -0.12974049 0.95161986 -0.25065514 -0.022584246
0001a0 a4 ed 14 bf e4 4a 37 3f 23 1d f3 3e b0 9a 4c 3f
       -0.5817511 0.7159865 0.47483167 0.79923534
0001b0 f2 e1 59 bf f4 bd d2 3e b9 d7 47 bf fb 2c 72 3f
       -0.8511039 0.41160548 -0.7806354 0.94599885
0001c0 7c 9b 00 3f 93 62 ce be 64 fc de 3d 68 87 72 be
       0.5023725 -0.4030958 0.108879834 -0.23684466
0001d0 52 7f 0c 3f 08 bd 71 3f 35 e0 e6 be dd 6a 5f 3f
       0.54881775 0.94429064 -0.4509293 0.87272435
0001e0 b3 75 8e 3e 02 1d 17 3c 1c 79 62 3f b3 3b 9a be
       0.27824172 0.009223225 0.8846605 -0.30123672
0001f0 20 67 4b bf 21 a2 22 3f a3 d7 28 3f 01 7d b5 3e
       -0.7945423 0.6352864 0.65954036 0.35446933
000200 c6 eb 73 3f a4 9f 8d be 85 e3 0d 3c a2 80 4d 3f
       0.95281637 -0.2766086 0.008660202 0.80274403
000210 c5 7c e9 3e 98 fc cc 3e 1c 62 0b 3f 5e f2 7c be
       0.45603004 0.40036464 0.5444658 -0.2470183
000220 77 2f 48 bf 70 00 bb 3e a3 7a 59 3d 89 c8 4c bf
       -0.78197426 0.3652377 0.05309547 -0.7999349
000230 a0 0a 6e bf f5 34 07 bf d8 cf f8 3e 7d f7 af 3e
       -0.9298496 -0.5281518 0.48596072 0.34368506
000240 dc b7 c3 3e 04 1f 6c bf 64 56 12 bf fe 44 02 3f
       0.3822621 -0.92234826 -0.5716307 0.50886524
000250 16 45 29 bf bd e5 3f be 88 7c d6 be 25 de f1 3c
       -0.6612104 -0.18739982 -0.41891885 0.029524872
000260 72 a6 59 bf e7 e9 a7 3e 34 6b 24 bf 34 f1 4b 3e
       -0.850196 0.3279564 -0.6422608 0.1991623
000270 10 a5 df be f7 02 76 3c d8 7f 21 bf e9 75 68 bd
       -0.4368062 0.015015355 -0.630857 -0.056753073
000280 6c 63 15 bf 08 65 df be 86 7b 41 3e aa 3b 45 bf
       -0.5835483 -0.43631768 0.18894777 -0.77044165
000290 33 9f 36 3e aa b4 56 bf 05 52 c1 3b 08 cc 5c 3e
       0.17834167 -0.8386942 0.00589967 0.21562207
0002a0 08 6d 34 3f 58 a6 1b bf 15 4b 3c 3e 32 b4 18 3f
       0.7047887 -0.60800695 0.18388017 0.59649956
0002b0 fd e7 f0 3e ea 23 0c 3f 98 b7 7d 3f 94 80 2d bf
       0.47051993 0.547423 0.99108267 -0.6777432
0002c0 5c 68 43 3f 61 f5 be 3e b2 44 ef be 62 47 6f 3f
       0.76331115 0.37296584 -0.46732098 0.93468297
0002d0 bf a3 95 3e 74 ee 2c 3f 89 e8 70 bf d8 fc 78 be
       0.2922649 0.6755135 -0.9410482 -0.24315202
0002e0 60 71 94 3e b2 b8 3c bf 46 26 39 bf d0 10 79 3e
       0.28992748 -0.7371932 -0.72324026 0.2432282
0002f0 38 41 4a 3f c9 a5 3c 3f 75 45 85 bd a0 91 53 bf
       0.79005766 0.7369047 -0.065073885 -0.8264408
000300 6e 22 6f 3f f4 a8 27 bf ea 1a 20 3f 4f d5 42 be
       0.9341191 -0.65492177 0.6254107 -0.19026683
000310 72 2d f9 be 6f b5 01 bf 66 bf 5a 3f c9 68 c7 be
       -0.48667485 -0.5066747 0.854483 -0.38947132
000320 ac 7b 04 bf b2 3e 0c bf 97 8a b2 be a8 1f c6 bd
       -0.5175121 -0.54783165 -0.3487136 -0.09674007
000330 e4 20 0b bf f2 20 3e 3f 15 38 2c 3f 59 5b 10 bf
       -0.5434706 0.7426902 0.67273074 -0.56389385
000340 ea ce 1a 3f 3c 21 c8 3e fe 08 7b 3f d2 5d d4 bd
       0.60471976 0.39087856 0.98060596 -0.10369457
000350 c6 e4 34 3e f7 11 4f be 8e c4 e6 be ca fe 28 bd
       0.17665395 -0.20221697 -0.45071834 -0.04125861
000360 34 a2 14 bf 14 71 c6 be 11 c0 d5 3e 32 c3 09 3f
       -0.5806 -0.38758147 0.41748098 0.5381347
000370 e1 a3 7d 3f 57 75 4d 3f c6 b3 b6 be df 64 9a be
       0.99078184 0.8025717 -0.3568403 -0.30155084
000380 52 ad dc be 5e d4 be be 1c 94 4d bf 76 0d 32 bc
       -0.43100983 -0.37271398 -0.8030412 -0.010867467
000390 ee cd 91 be e6 c1 34 3f 66 d4 4a 3f d8 4b d4 be
       -0.28477424 0.70608366 0.79230344 -0.41464114
0003a0 d5 cb 24 bd 7c 3e 8f 3e 49 95 25 be f0 1a d7 3d
       -0.040233452 0.2797736 -0.16170229 0.10503185
0003b0 57 d5 f4 3e 3f 8a 3b bf 9c 75 16 bf 68 57 95 bd
       0.47819015 -0.7325782 -0.5877321 -0.07292062
0003c0 f3 c9 c1 be e2 e9 24 3f b9 28 6a 3f 5e 9b 4c bf
       -0.37849388 0.64419377 0.9146839 -0.7992457
0003d0 05 8f 39 3e bc a1 65 bf 50 d4 54 bf ea f7 85 3b
       0.18120964 -0.8969991 -0.83136463 0.0040883915
0003e0 c0 20 d8 3d ec 53 d3 be c4 ce 16 3f 8b 4c c2 3e
       0.105531216 -0.41274965 0.5890925 0.37949023
0003f0 2c ee 70 3f fd e5 04 3f 1c 1d 31 3f 1c 98 71 3e
       0.9411342 0.51913434 0.6918504 0.23593181

blocks.4.synapse.weight_g f4 [64, 1, 1, 1, 1]
000000 77 92 97 3e 5d 60 af 3e 80 b7 cb 3e 7d 16 06 3f
       0.2960393 0.34253207 0.39788437 0.52378064
000010 1a 42 3c 3f 25 bd 9e 3e fc f0 0e 3f de 75 ef 3e
       0.7353836 0.3100368 0.5583646 0.46769613
000020 ac af d4 3e c0 48 0f 3f 5f 94 40 3f 6a 47 19 3f
       0.41540277 0.5597038 0.75226396 0.59874594
000030 e9 ee 32 3f 39 b1 04 3f e2 de 4a 3f 36 2b 43 3f
       0.698958 0.5183292 0.7924634 0.7623781
000040 90 71 f7 3e 95 a6 a4 3e 6a ae 04 3f 70 42 e1 3e
       0.4832883 0.32158342 0.51828635 0.43996
000050 7f 54 c7 3e 8f 54 62 3f 80 84 13 3f a6 b6 e2 3e
       0.38931653 0.88410276 0.57624054 0.44279975
000060 b1 26 26 3f 47 c4 69 3f 3e 49 f4 3e 0b c1 2b 3f
       0.6490279 0.9131512 0.4771213 0.67091435
000070 42 7b 01 3f f1 b9 d9 3e e9 5f d6 3e ad 25 17 3f
       0.505787 0.42524675 0.4187005 0.59041864
000080 ff b4 0e 3f 9a 7c 4d 3e 37 5e ef 3e d5 2d 0e 3f
       0.5574493 0.20067063 0.46751568 0.55538684
000090 f0 a6 cf 3e 93 7f ea 3e 3c 6b 19 3f 8b ea 32 3f
       0.4055705 0.45800456 0.5992925 0.69889134
0000a0 c1 02 01 3f 17 f4 b9 3e 74 ee 37 3f 40 11 4f 3f
       0.5039483 0.36319038 0.71848226 0.80885696
0000b0 96 b9 37 3f db f2 23 3f 80 9d e5 3e 3b 65 ad 3e
       0.71767557 0.64042443 0.44846725 0.33866295
0000c0 8b cf a7 3e ef 10 da 3e 48 e1 d5 3e 17 4d b9 3e
       0.3277553 0.42591044 0.41773438 0.36191627
0000d0 a0 fb 52 3f ea e2 10 3f 9d 09 00 3f f2 6e 22 3f
       0.824152 0.56596243 0.5001467 0.6345054
0000e0 ed 1a 27 3f 4f cd 57 3f 45 9f c6 3e 7b 96 51 3f
       0.6527546 0.8429765 0.38793388 0.8187024
0000f0 07 e4 de 3e 84 a6 13 3f 15 ed d8 3e 72 06 87 3e
       0.43533346 0.5767596 0.4236838 0.26372105
